experiments/DT-VAE-GAN_county_increasing_and_trough/saved_model/vae_gan_trained_model.pth (torch, 394674 bytes, 85 tensors)

weight_ih_l0 f4 [8, 2]
0.4921319 0.68314195 -0.677017 0.16313635 0.3450405 0.24242552 -0.9055428 -0.8576516
1.0738733 0.32168323 -0.5524625 0.52665347 0.19594213 0.5821257 -0.53940123 -1.0717996
00000000: b6f8 fb3e 64e2 2e3f fc50 2dbf 370d 273e
00000010: 26a9 b03e 653e 783e a7d1 67bf 0e8f 5bbf
00000020: ae74 893f aab3 a43e 2f6e 0dbf c3d2 063f
00000030: 0ea5 483e 3106 153f 3316 0abf bb30 89bf

weight_hh_l0 f4 [8, 2]
-0.5485539 0.23681377 0.3106805 0.5822336 -0.05650765 -0.18970059 -0.11330754 0.6499266
-0.1539418 -0.05168943 -0.24815069 -0.24041426 -0.0047288476 0.90550834 -0.05718841 -0.02131025
00000000: 076e 0cbf 4f7f 723e 8411 9f3e 430d 153f
00000010: 9174 67bd df40 42be c90d e8bd 9761 263f
00000020: eba2 1dbe 4cb8 53bd 371b 7ebe 282f 76be
00000030: 73f4 9abb 65cf 673f 653e 6abd d592 aebc

bias_ih_l0 f4 [8]
-0.17483015 -0.61480474 -0.42013803 -0.3761621 0.019528402 0.3704348 0.8514914 -0.18093923
00000000: ad06 33be d863 1dbf 551c d7be 5298 c0be
00000010: 07fa 9f3c a1a9 bd3e 57fb 593f 2248 39be

bias_hh_l0 f4 [8]
0.44227463 0.6964778 0.038122796 0.7075642 0.14641654 0.7652896 -0.1546218 0.64472884
00000000: d271 e23e 5e4c 323f a626 1c3d ed22 353f
00000010: 38ee 153e 05ea 433f 2d55 1ebe f30c 253f

weight f4 [32, 2]
0.24909589 -0.6420907 0.7528855 -0.41840035 0.96864367 -0.47585294 -0.13282914 -0.70091844
0.05517978 0.48283055 -0.7812801 -0.40869117 -0.55673933 -0.41247213 0.3884086 -0.5217277
-0.16620182 -0.3010639 -0.6261726 -0.17557828 0.15761612 -0.7285626 -0.251721 0.22337691
-0.007275315 0.11767416 0.9107732 0.20334695 0.71730125 -0.6297859 -0.51477087 0.023453394
-0.044315293 0.034811974 -0.8833135 0.63642526 -1.0308101 0.31629026 0.7185261 -0.68624425
-0.45707226 0.6124704 -0.89973044 0.38482586 -0.9519731 -0.32959253 0.43842974 -0.6568578
0.035011157 0.3909214 0.13026538 -0.25913918 -0.7793772 0.47938037 0.079707526 0.6079107
0.79334253 0.094624706 -0.46273893 0.38171673 -0.5045643 0.6297882 0.815568 -0.55241305
00000000: fe12 7f3e 0e60 24bf 1bbd 403f 9238 d6be
00000010: 08f9 773f ffa2 f3be 5d04 08be 646f 33bf
00000020: 3104 623d 9135 f73e f901 48bf f83f d1be
00000030: 7886 0ebf 8c2f d3be 7edd c63e f28f 05bf
00000040: cf30 2abe 0c25 9abe d94c 20bf cbca 33be
00000050: 1f66 213e 1483 3abf 93e1 80be ebbc 643e
00000060: c465 eebb 26ff f03d 6f28 693f 2f3a 503e
00000070: 0ea1 373f a639 21bf 06c8 03bf 5521 c03c
00000080: f483 35bd 0097 0e3d d520 62bf c4ec 223f
00000090: 96f1 83bf ccf0 a13e 54f1 373f b4ad 2fbf
000000a0: 6005 eabe dcca 1c3f bc54 66bf e507 c53e
000000b0: 82b4 73bf 5ac0 a8be dd79 e03e d527 28bf
000000c0: dc67 0f3d da26 c83e 4a64 053e e4ad 84be
000000d0: 4485 47bf 5871 f53e b33d a33d 09a0 1b3f
000000e0: 7f18 4b3f 99ca c13d 1eec ecbe 6070 c33e
000000f0: 202b 01bf cd39 213f 10c9 503f f16a 0dbf

bias f4 [32]
-0.31982768 -0.37593865 -0.58314925 -0.022864625 0.77554315 -0.072653055 0.15518178 -0.5539378
-0.46868464 0.1906261 0.28899553 0.43810102 0.1951706 0.69323593 -0.5898614 0.44396216
0.6887001 0.13122752 -0.4779981 -0.54137975 0.15047683 0.10814275 0.28824443 0.74325824
0.78371626 -0.49218673 -0.33489037 -0.72169906 0.3727119 0.2742947 0.20372346 0.18580897
00000000: 74c0 a3be 087b c0be 4549 15bf 984e bbbc
00000010: ff89 463f 20cb 94bd f9e7 1e3e dece 0dbf
00000020: 6ff7 efbe 7d33 433e 39f7 933e c74e e03e
00000030: cdda 473e e977 313f 2801 17bf 024f e33e
00000040: a64e 303f 8260 063e 2bbc f4be dd97 0abf
00000050: 9916 1a3e f279 dd3d c694 933e 2c46 3e3f
00000060: a1a1 483f e6ff fbbe c076 abbe 45c1 38bf
00000070: 18d4 be3e 5b70 8c3e e29c 503e b544 3e3e

weight_ih_l0 f4 [60, 32]
-0.35086614 -0.39888358 -0.351314 -0.15278542 0.12649825 -0.28448638 -0.11973168 -0.58619654
-0.27163717 0.27893332 -0.11060647 0.5301917 0.2261284 0.32266214 -0.3572758 0.49195305
0.52356654 -0.0001377832 -0.54250604 -0.150535 0.050034083 0.076356664 0.18683523 0.53621763
0.50621116 -0.5494245 -0.44460922 -0.4584952 0.19213082 0.42750826 0.16432813 0.33179086
-0.24125925 0.029357208 -0.16522032 -0.48564783 0.3280867 -0.05848538 -0.19248348 -0.29484862
-0.099928744 0.16409297 0.6547758 0.45474255 0.38585114 0.26258925 -0.36776415 0.058567103
0.2999848 0.18470779 -0.2057735 -0.06418166 0.383456 0.011750297 0.001707137 0.18541393
0.038973384 -0.03983149 -0.31754836 -0.3010175 0.46127978 0.21890086 0.4004931 0.5913767
-0.15869844 -0.167966 -0.29843456 -0.27291763 -0.057544257 -0.34534886 0.011456057 -0.13036989
-0.30703896 -0.16122971 0.19851525 0.1135275 -0.03291264 -0.08979499 0.10334475 -0.15376768
0.19719414 0.27885884 0.12575613 -0.14790817 0.25209084 -0.20739183 0.22668491 0.27250788
0.13281442 -0.1134567 0.18328221 -0.113093324 0.089697756 -0.16461739 0.2377122 -0.056029137
-0.32421678 -0.4013745 -0.21735618 -0.35499364 0.3456871 -0.5251519 -0.27954513 -0.32565534
-0.37464014 0.23840654 0.60851586 0.41076127 0.29917878 0.19523369 -0.411452 -0.0012496333
0.05188092 -0.10153799 -0.4002562 -0.44926137 0.2738918 0.03078519 -0.051218983 0.5811936
0.032351404 -0.261289 -0.28276 -0.26625806 0.34251037 0.12268012 5.2640853e-06 0.4820795
-0.51945114 -0.1763851 -0.5431582 -0.41642293 0.47853306 -0.053613756 0.47235814 -0.458577
-0.2217419 0.684892 0.04346962 0.06011384 0.015932834 0.14318381 -0.4032261 0.22525935
0.2686045 0.47028634 0.08922852 -0.56307364 0.32964686 0.39619663 0.5847862 0.047926586
0.39518782 -0.15918036 0.018695028 -0.36284727 0.09947933 0.5259502 0.61035705 -0.50317526
0.09555345 -0.110637404 0.062246203 -0.21135595 -0.14528252 -0.18614219 0.100771524 0.12344772
-0.1322434 -0.20348057 0.23612635 0.23845789 -0.11512869 -0.1855629 0.16315745 -0.29186445
0.051537752 -0.36148277 -0.03728377 0.0201287 -0.13101411 -0.082018584 -0.27922198 -0.22194965
0.043442965 -0.10439907 0.07512712 -0.24870192 -0.23695119 0.0779189 0.045797832 0.18853642
-0.2870948 -0.037361752 -0.23275308 -0.19451445 0.2763624 0.18007919 -0.06015915 0.16630985
-0.2693864 0.098263435 -0.03698759 -0.05831903 0.21589734 -0.036968265 0.055974595 -0.027514296
-0.021020941 0.11605915 -0.2117334 0.03804724 -0.16390143 -0.042639453 0.33158627 -0.23510441
0.16539875 -0.30574846 -0.15363333 -0.20964803 -0.2376723 0.3132034 0.013999404 -0.3940313
-0.15819545 -0.308632 -0.23140341 -0.24658942 0.59635454 -0.27270138 -0.22483234 -0.24308662
-0.24286398 0.3734733 0.12340023 0.29576075 0.52006537 0.5684665 -0.37395063 0.24496129
0.26169202 0.06925089 -0.64267176 -0.37616855 0.19998467 0.13077678 0.12547852 0.4702945
0.35318044 -0.32411158 -0.39801714 -0.46861252 0.4701092 0.18697207 0.36587647 0.5237592
00000000: baa4 b3be 783a ccbe 6edf b3be c873 1cbe
00000010: c288 013e 33a8 91be e235 f5bd fa10 16bf
00000020: 0714 8bbe 59d0 8e3e a585 e2bd a5ba 073f
00000030: 348e 673e f933 a53e dbec b6be 45e1 fb3e
00000040: 7508 063f e579 10b9 ade1 0abf d925 1abe
00000050: 8af0 4c3d e260 9c3d bc51 3f3e 8f45 093f
00000060: 0e97 013f 16a7 0cbf d2a3 e3be e2bf eabe
00000070: f1bd 443e 5de2 da3e a245 283e 7ee0 a93e
00000080: aa0c 77be 877e f03c 842f 29be d5a6 f8be
00000090: fbfa a73e 5e8e 6fbd 641a 45be 66f6 96be
000000a0: 71a7 ccbd fd07 283e 639f 273f 04d4 e83e
000000b0: 488e c53e 1972 863e 954b bcbe 0fe4 6f3d
000000c0: 9c97 993e 0a24 3d3e 4ab6 52be ad71 83bd
000000d0: 5854 c43e 5184 403c 03c2 df3a 26dd 3d3e
000000e0: 8ea2 1f3d 5826 23bd b395 a2be f71e 9abe
000000f0: dd2c ec3e 8c27 603e 6e0d cd3e 7764 173f
00000100: d881 22be 47ff 2bbe 6acc 98be dcbb 8bbe
00000110: 87b3 6bbd 91d1 b0be 30b2 3b3c af7f 05be
00000120: 3634 9dbe 6719 25be 9547 4b3e 1b81 e83d
00000130: 68cf 06bd 70e6 b7bd 6aa6 d33d 4675 1dbe
00000140: 43ed 493e 96c6 8e3e 37c6 003e 3d75 17be
00000150: 0d12 813e 865e 54be 1720 683e 2786 8b3e
00000160: 8100 083e fd5b e8bd 55ae 3b3e 799d e7bd
00000170: 75b3 b73d 7691 28be d46a 733e cf7e 65bd
00000180: beff a5be f580 cdbe 9e92 5ebe bac1 b5be
00000190: e6fd b03e 5b70 06bf 8a20 8fbe 4cbc a6be
000001a0: d5d0 bfbe d820 743e b2c7 1b3f 4d4f d23e
000001b0: f62d 993e 57eb 473e d6a9 d2be bcca a3ba
000001c0: 1681 543d 26f3 cfbd 61ee ccbe 9605 e6be
000001d0: 8c3b 8c3e 3931 fc3c ffca 51bd 1bc9 143f
000001e0: e882 043d acc7 85be ebc5 90be fa52 88be
000001f0: 855d af3e b73f fb3d 26a2 b036 20d3 f63e
00000200: c0fa 04bf 4c9e 34be 6a0c 0bbf 6335 d5be
00000210: 4902 f53e 199a 5bbd edd8 f13e 9bca eabe
00000220: 4f10 63be 1555 2f3f 330d 323d ee39 763d
00000230: 9385 823c c79e 123e a773 cebe 63aa 663e
00000240: 8786 893e 5fc9 f03e 71bd b63d 9825 10bf
00000250: 79c7 a83e 49da ca3e 8cb4 153f ab4e 443d
00000260: 0f56 ca3e 2d00 23be 5126 993c 1ec7 b9be
00000270: d2bb cb3d aca4 063f 5c40 1c3f 18d0 00bf
00000280: 87b1 c33d dd95 e2bd e0f5 7e3d b26d 58be
00000290: f1c4 14be 0f9c 3ebe 4d61 ce3d 29d2 fc3d
000002a0: d06a 07be 365d 50be 1bcb 713e 4e2e 743e
000002b0: 97c8 ebbd 3304 3ebe bf12 273e 426f 95be
000002c0: 4019 533d 4514 b9be deb6 18bd f2e4 a43c
000002d0: 9028 06be 5cf9 a7bd 2ff6 8ebe c546 63be
000002e0: 40f1 313d 2ecf d5bd 3fdc 993d b7ab 7ebe
000002f0: 55a3 72be f293 9f3d 8296 3b3d b10f 413e
00000300: 17fe 92be a308 19bd d356 6ebe cc2e 47be
00000310: 5f7f 8d3e ae66 383e 7169 76bd 214d 2a3e
00000320: 04ed 89be 573e c93d 4d80 17bd efdf 6ebd
00000330: 3114 5d3e 096c 17bd 9e45 653d a965 e1bc
00000340: 1c34 acbc 6bb0 ed3d a4d0 58be 6cd7 1b3d
00000350: c7d5 27be b5a6 2ebd adc5 a93e 36bf 70be
00000360: 4a5e 293e 108b 9cbe 0e52 1dbe f9ad 56be
00000370: 5e60 73be 325c a03e c25d 653c 78be c9be
00000380: fdfd 21be 0305 9ebe 04f5 6cbe f081 7cbe
00000390: b1aa 183f 849f 8bbe 733a 66be b3eb 78be
000003a0: 56b1 78be e437 bf3e 43b9 fc3d f46d 973e
000003b0: 0123 053f 0587 113f 7576 bfbe 22d7 7a3e
000003c0: 7ffc 853e 69d3 8d3d 2386 24bf 2a99 c0be
000003d0: c8c8 4c3e 59ea 053e 717d 003e 71ca f03e
000003e0: 11d4 b43e f4f1 a5be e7c8 cbbe fbed efbe
000003f0: 27b2 f03e 9b75 3f3e 2954 bb3e 1515 063f

weight_hh_l0 f4 [60, 15]
-0.09676997 -0.32046714 -0.07234686 -0.18794203 -0.037316773 -0.08713642 -0.22280465 -0.08147612
0.16631633 -0.05896339 0.23331018 -0.21998109 -0.3758246 0.51708245 -0.058254514 0.11797222
0.05561731 -0.23475431 0.12182185 -0.06209833 0.02391366 0.02721413 -0.2974104 0.0065287906
0.06807105 0.079250604 0.17244437 -0.3411878 0.29773253 -0.30119607 -0.33212253 -0.081705414
0.021954143 -0.081023306 0.035191912 0.12709785 -0.1270311 -0.37058517 0.07402912 0.17631781
-0.12883784 0.36602187 -0.033176713 0.21543367 0.11476562 -0.03352545 -0.23729573 -0.0046875235
-0.14201593 0.08651983 -0.22889002 -0.02056993 -0.36122814 0.2001391 -0.042618833 0.26267666
-0.008072504 -0.16916656 0.07041471 -0.18814687 0.2653415 -0.056422777 -0.021672329 -0.1304701
-0.17503674 -0.14441721 -0.26788098 -0.11593075 0.13638839 -0.15677842 -0.06458196 -0.31764114
0.04644344 0.041608933 -0.013147342 0.26942566 0.04059617 -0.18157335 0.040911958 -0.22141826
-0.046412077 0.14220588 0.28937933 -0.2540361 -0.10975435 0.24823211 0.11446348 -0.011798196
-0.23702678 0.39979258 0.0884155 0.09701717 -0.17221773 -0.26247984 -0.24113281 0.13335198
0.0446963 0.14311819 0.17915843 0.1265496 0.07755674 -0.11931349 -0.17591299 0.114462726
-0.010073806 -0.21155605 -0.4676945 -0.2576316 -0.22768366 -0.43741024 -0.17320429 -0.1300844
-0.23512317 0.24039899 -0.101233065 0.09741644 -0.11737756 -0.10175633 0.4183062 -0.27581522
-0.17390849 -0.22926204 0.099785395 -0.045349766 0.33359343 -0.121315055 -0.091780916 0.016392874
-0.21005224 -0.009252967 0.14237735 0.35075536 0.25400364 -0.24753249 -0.44188696 0.28104207
-0.29957747 -0.042767894 -0.23627037 0.12305119 -0.21959814 -0.010640739 -0.18611392 0.15787795
0.0687161 0.0064924555 0.18459457 -0.24223827 0.16909522 -0.15183666 -0.27066982 -0.21706843
0.24177511 -0.088051744 0.28552574 -0.27997616 0.15518707 -0.2482024 -0.082103446 0.2228072
0.13342728 0.33633095 -0.07722762 -0.14358698 -0.31750917 -0.30401373 -0.19425565 -0.109161325
-0.33349973 -0.31095463 -0.1025244 -0.4663226 -0.01185387 0.18986912 -0.012246962 0.05906827
0.05127576 -0.057807416 0.29567224 -0.048232384 0.05023378 0.12090719 -0.13985978 -0.25009432
0.14861213 -0.23982705 0.06634336 -0.37666255 0.17299466 -0.110608324 -0.06710295 0.021004716
-0.30202276 -0.1354934 0.23242901 -0.03913109 -0.26988077 -0.005652458 0.07170916 0.009307122
-0.04845057 0.08186259 -0.12166549 0.115799345 0.06767144 -0.12097689 0.09637556 -0.06586012
0.003755615 0.16088851 -0.077497296 -0.08031295 0.06415007 -0.22700639 0.028545551 -0.27291816
-0.16489281 -0.45892313 0.23685552 -0.18019088 0.08363879 -0.18114737 -0.22298329 0.37723613
-0.2845039 -0.36371145 -0.0612772 -0.015615702 -0.11328498 0.08617743 -0.12506798 0.19027576
0.070049174 0.0038407485 0.27231637 -0.059252482 -0.30997193 0.1013186 0.23886622 0.22817585
0.28801447 -0.2446088 -0.22473401 -0.29407325 -0.16958907 -0.10618526 0.11652031 0.14515
0.013496422 -0.2480152 -0.04490841 -0.08877738 0.13393414 0.2909095 -0.21205668 0.09654965
00000000: 562f c6bd 4514 a4be 972a 94bd e073 40be
00000010: 79d9 18bd 9474 b2bd e726 64be f4dc a6bd
00000020: d44e 2a3e 9883 71bd dde8 6e3e b942 61be
00000030: 156c c0be 845f 043f 499c 6ebd 6b9b f13d
00000040: face 633d 6f63 70be bc7d f93d d25a 7ebd
00000050: 94e6 c33c 2bf0 de3c 2d46 98be 77ef d53b
00000060: d668 8b3d 244e a23d 4295 303e 2bb0 aebe
00000070: 6670 983e 5f36 9abe f70b aabe 2b55 a7bd
00000080: 2dd9 b33c 8cef a5bd 6525 103d f025 023e
00000090: 7114 02be 57bd bdbe 949c 973d a88c 343e
000000a0: 11ee 03be 3867 bb3e 4ee4 07bd a59a 5c3e
000000b0: 3d0a eb3d fb51 09bd a7fd 72be cc99 99bb
000000c0: a06c 11be 4f31 b13d 2562 6abe 4582 a8bc
000000d0: e5f2 b8be 44f1 4c3e 1691 2ebd 8e7d 863e
000000e0: 8942 04bc 003a 2dbe 9635 903d 93a9 40be
000000f0: d7da 873e 921b 67bd 2b8a b1bc f499 05be
00000100: d53c 33be 1be2 13be b227 89be 1a6d edbd
00000110: 66a9 0b3e 868a 20be 8c43 84bd dca1 a2be
00000120: 7a3b 3e3d 216e 2a3d f367 57bc 29f2 893e
00000130: 2b48 263d 5dee 39be 4c93 273d 78bb 62be
00000140: 971a 3ebd 6b9e 113e 8729 943e 0511 82be
00000150: e3c6 e0bd 8f30 7e3e d46b ea3d 384d 41bc
00000160: 26b7 72be 9db1 cc3e 3013 b53d f0b0 c63d
00000170: d859 30be c263 86be 85eb 76be 6c8d 083e
00000180: 7813 373d 938d 123e 4f75 373e 3896 013e
00000190: 11d6 9e3d a25a f4bd 8922 34be 6f6b ea3d
000001a0: 9b0c 25bc 26a2 58be a775 efbe 4ae8 83be
000001b0: e825 69be 3cf4 dfbe 775c 31be d834 05be
000001c0: 21c4 70be 272b 763e 4853 cfbd 4582 c73d
000001d0: a563 f0bd 9f65 d0bd 3b2c d63e a737 8dbe
000001e0: 1115 32be abc3 6abe 495c cc3d adc0 39bd
000001f0: c2cc aa3e 0774 f8bd a2f7 bbbd 594a 863c
00000200: ef17 57be c299 17bc 5ecb 113e 3596 b33e
00000210: c40c 823e 2879 7dbe 023f e2be bfe4 8f3e
00000220: 3862 99be 632d 2fbd dcf0 71be 4302 fc3d
00000230: 56de 60be 7f56 2ebc a694 3ebe c2aa 213e
00000240: 07bb 8c3d aabe d43b 5c06 3d3e 4f0d 78be
00000250: 4c27 2d3e 127b 1bbe 3c95 8abe 3047 5ebe
00000260: e593 773e 7954 b4bd 6e30 923e 0959 8fbe
00000270: 5ce9 1e3e c528 7ebe da25 a8bd 9227 643e
00000280: 29a1 083e 9233 ac3e 8429 9ebd 7708 13be
00000290: 9090 a2be b0a7 9bbe f4ea 46be f98f dfbd
000002a0: 7ac0 aabe 7235 9fbe 50f8 d1bd d6c1 eebe
000002b0: bc36 42bc 0d6d 423e 7ba7 48bc 92f1 713d
000002c0: 8806 523d 78c7 6cbd 5a62 973e 528f 45bd
000002d0: f0c1 4d3d 309e f73d 6737 0fbe 5d0c 80be
000002e0: c72d 183e 3995 75be 07df 873d ead9 c0be
000002f0: 8325 313e 9e86 e2bd 456d 89bd 1512 ac3c
00000300: baa2 9abe c8be 0abe df01 6e3e ec47 20bd
00000310: d02d 8abe 4138 b9bb 41dc 923d e67c 183c
00000320: 1b74 46bd 93a7 a73d c22b f9bd 3528 ed3d
00000330: 5397 8a3d bbc2 f7bd 8d60 c53d ace1 86bd
00000340: c420 763b f5bf 243e e7b6 9ebd 1e7b a4bd
00000350: 1d61 833d 5d74 68be 5cd8 e93c eebb 8bbe
00000360: a9d9 28be f9f7 eabe 418a 723e f583 38be
00000370: d04a ab3d b27e 39be bb55 64be 1825 c13e
00000380: 7faa 91be 6338 babe cdfd 7abd 00d9 7fbc
00000390: f501 e8bd cb7d b03d d211 00be a6d7 423e
000003a0: f175 8f3d 11b5 7b3b 0d6d 8b3e bbb2 72bd
000003b0: a4b4 9ebe 2080 cf3d 5999 743e eea6 693e
000003c0: a276 933e bb7a 7abe ac20 66be c590 96be
000003d0: c2a8 2dbe a877 d9bd 33a2 ee3d 34a2 143e
000003e0: 1920 5d3c b2f7 7dbe e2f1 37bd ead0 b5bd
000003f0: 0826 093e 17f2 943e 6325 59be d3bb c53d

bias_ih_l0 f4 [60]
0.3168275 0.4908848 0.24485853 0.09639611 0.41847962 -0.2502113 0.014561214 0.5426571
0.104599364 0.26632068 -0.21162248 0.021136418 -0.17473698 0.12045502 0.35597932 0.15423524
0.28558105 0.070491925 0.03468351 0.15395018 -0.1259273 -0.19837223 0.060779862 -0.03941759
-0.12826881 0.1896202 -0.36206397 0.040722482 0.063884564 -0.31478807 0.19911268 -0.32096916
0.18596008 -0.3620044 0.031602982 -0.20449463 -0.24040002 -0.06413424 0.08784055 -0.24804392
-0.11286081 -0.08651514 0.024997544 0.21027386 0.14121737 0.47801042 0.18337493 0.14013438
-0.053435527 -0.036233112 0.21602698 0.0037665004 0.21867478 0.00982633 0.44791606 -0.06758199
0.032209773 0.075776204 0.119864464 0.10016657
00000000: 3737 a23e 4155 fb3e 32bc 7a3e 536b c53d
00000010: f642 d63e b21b 80be 2892 6e3c 93eb 0a3f
00000020: 3138 d63d 2f5b 883e 90b3 58be 4826 ad3c
00000030: 40ee 32be 1fb1 f63d ec42 b63e d8ef 1d3e
00000040: ae37 923e 125e 903d 4c10 0e3d 1ea5 1d3e
00000050: 16f3 00be 1722 4bbe 4ef4 783d 5774 21bd
00000060: e658 03be cc2b 423e 7360 b9be 9ecc 263d
00000070: e9d5 823d e72b a1be 32e4 4b3e 1256 a4be
00000080: 526c 3e3e a458 b9be 2172 013d 0a67 51be
00000090: 6c2b 76be d058 83bd bfe5 b33d 3aff 7dbe
000000a0: 9123 e7bd da2e b1bd a6c7 cc3c 0852 573e
000000b0: 499b 103e c8bd f43e a3c6 3b3e 637f 0f3e
000000c0: 36df 5abd 2c69 14bd 2d36 5d3e 64d7 763b
000000d0: 48ec 5f3e 9dfe 203c 4155 e53e 6d68 8abd
000000e0: 65ee 033d 8e30 9b3d 807b f53d 2124 cd3d

bias_hh_l0 f4 [60]
0.22487248 0.07658329 0.29919338 0.3280809 -0.020841584 0.10807816 0.037249677 0.6520747
-0.25937584 0.48317593 0.14147814 0.08701967 -0.17728692 0.33476064 0.49247944 0.19857606
0.026002152 0.2130274 -0.071586795 0.1297158 -0.10513531 -0.17104395 -0.013403515 0.06784706
0.02234754 0.17491975 -0.18754536 0.29469663 0.117752865 0.06765065 -0.30231047 -0.09393773
-0.04051705 -0.42763844 -0.06640433 -0.09040079 -0.25386095 -0.15787296 0.13382061 0.086877346
0.027902458 0.12464325 -0.10248857 -0.026885603 -0.106060684 0.1983738 -0.07076396 0.21694168
0.300695 -0.090672284 -0.20071264 -0.23237719 0.4691242 -0.13423698 0.3732788 0.30195305
0.34614143 0.13523841 0.40093932 0.1533842
00000000: f944 663e b3d7 9c3d e02f 993e 38fa a73e
00000010: f8bb aabc 1558 dd3d 1e93 183d 5eee 263f
00000020: e9cc 84be d662 f73e a5df 103e 5e37 b23d
00000030: b48a 35be bf65 ab3e 4426 fc3e 8657 4b3e
00000040: 7702 d53c db23 5a3e 199c 92bd 38d4 043e
00000050: 2e51 d7bd 2526 2fbe 6b9a 5bbc 66f3 8a3d
00000060: 3012 b73c 2a1e 333e e40b 40be 7ae2 963e
00000070: 6a28 f13d 6d8c 8a3d 70c8 9abe 6d62 c0bd
00000080: 35f5 25bd 6df3 dabe fefe 87bd 0d24 b9bd
00000090: 10fa 81be 73a9 21be 4508 093e c0ec b13d
000000a0: b293 e43c f644 ff3d 87e5 d1bd 323f dcbc
000000b0: 5836 d9bd 8022 4b3e b2ec 90bd f625 5e3e
000000c0: b2f4 993e 64b2 b9bd 9d87 4dbe 49f4 6dbe
000000d0: 0c31 f03e 6b75 09be 661e bf3e 9799 9a3e
000000e0: 7339 b13e f07b 0a3e eb47 cd3e bf10 1d3e

weight_ih_l1 f4 [60, 15]
-0.407444 -0.34387654 -0.011791431 -0.003216084 -0.13457827 -0.28511298 -0.19963163 -0.24357915
0.026208395 0.073526315 0.1166796 0.29137364 -0.19964318 0.06342756 -0.6733992 0.049829554
-0.4201699 -0.17617027 -0.521037 -0.48143715 -0.22070992 -0.57883567 -0.46934137 0.34217748
-0.2334139 0.15236956 -0.44742617 -0.11431885 0.51691085 -0.3735251 -0.31283677 -0.1420192
0.15565932 -0.29506162 -0.008343619 -0.0879905 0.0943539 -0.36182508 0.04528726 -0.3908915
-0.21197462 0.13339055 -0.09090802 -0.029649979 -0.54907894 -0.16977571 -0.45337483 -0.39492184
-0.47233078 -0.48111838 -0.038856592 -0.748832 -0.31897932 0.09159378 -0.37147024 0.05301801
-0.052071933 0.008103609 0.18945582 0.09518784 -0.17906336 -0.50138676 -0.23966919 -0.24835138
-0.5957397 -0.14042948 -0.3226089 -0.4509361 0.26038095 -0.43242744 0.3205419 -0.43455234
-0.3871723 0.14968945 -0.102560334 -0.34492797 -0.78240716 -0.30357394 -0.3816299 -0.58984876
-0.42199606 -0.861626 -0.6903225 0.084451765 -0.4138285 0.4186089 0.025658539 -0.23976566
0.68052304 -0.194006 0.0017892633 -0.15049113 -0.15391414 -0.39268544 -0.5584743 -0.22431116
-0.47790277 0.02456535 0.27702668 -0.4709302 0.19661903 -0.16156517 -0.22104423 0.45405993
0.042491496 0.08862769 0.050520927 -0.3962484 -0.34090805 -0.24385673 -0.07805063 -0.45231384
-0.017105926 0.1428792 -0.5379982 0.21207023 -0.34892383 0.17002402 0.13598706 0.043660935
-0.12397056 0.096933104 -0.07686483 -0.3051047 0.044226673 -0.19105512 -0.106374994 0.095145024
0.15516908 -0.27572602 0.107403755 0.15884799 0.028287198 -0.122888155 0.063882686 0.037729632
-0.57555974 0.03737705 -0.6682854 -0.68880737 -0.49944663 -0.34421974 -0.70588696 0.7570159
-0.4743049 0.66164625 -0.20796119 -0.094649546 0.70834255 -0.085012026 0.07054172 0.099443264
-0.030782145 -0.35597327 0.18059252 -0.1883859 -0.120122485 -0.29769138 0.22781162 0.22956304
0.043648005 0.16345724 -0.12760954 -0.154091 -0.28091046 -0.267728 -0.3742897 -0.24107325
-0.31141952 -0.11564316 -0.311904 -0.20294622 -0.51929414 0.09616786 -0.085000016 0.46276408
-0.35952064 -0.22148053 0.25746703 -0.18450058 -0.26412985 -0.5925391 -0.03617412 -0.5466718
-0.38964996 -0.5361193 -0.5519666 -0.47426662 0.42141527 -0.57509726 0.13572723 -0.07118506
-0.26192337 0.2807256 -0.6652841 -0.10154925 -0.23778626 0.19086733 -0.06362365 -0.22999425
0.17355113 -0.18514857 -0.39071828 -0.12970977 -0.33271554 -0.13556398 -0.051202577 -0.232117
0.17670192 -0.06419905 -0.16166282 -0.1047593 0.2831802 0.021292696 -0.26647934 0.072625495
-0.03573422 0.17838253 -0.20125607 0.08093632 -0.15261033 0.0092667295 0.095982835 -0.17329095
-0.18359707 -0.19888619 0.014973778 -0.08265979 -0.10302689 0.08093197 0.1836262 0.08242227
-0.35458255 0.04159428 -0.24111786 0.21304138 0.018412894 0.06530633 -0.04482679 -0.48972768
0.1453585 -0.04658824 0.24771196 -0.08955118 -0.16427192 -0.2339994 -0.039775275 0.21400388
0.0659139 -0.10490236 -0.1381564 -0.45632723 0.1743212 0.23600501 -0.20711105 -0.10463644
00000000: 809c d0be 9610 b0be d930 41bc f0c4 52bb
00000010: e3ce 09be 54fa 91be 3c6c 4cbe d06c 79be
00000020: fdb2 d63c f794 963d b7f5 ee3d ed2e 953e
00000030: 436f 4cbe 4fe6 813d e463 2cbf 131a 4c3d
00000040: 8220 d7be fb65 34be ae62 05bf ee7e f6be
00000050: c801 62be 932e 14bf 834d f0be e331 af3e
00000060: 0e04 6fbe c406 1c3e 0b15 e5be 0020 eabd
00000070: 4554 043f af3e bfbe 242c a0be 7b6d 11be
00000080: 2865 1f3e 5112 97be adb3 08bc 5d34 b4bd
00000090: 9e3c c13d 2341 b9be 227f 393d ee22 c8be
000000a0: e00f 59be 8897 083e fc2d babd 83e4 f2bc
000000b0: 7090 0cbf afd9 2dbe bf20 e8be 3233 cabe
000000c0: 57d5 f1be 2655 f6be 1728 1fbd 74b3 3fbf
000000d0: 4251 a3be 8595 bb3d 5931 bebe 6a29 593d
000000e0: 6149 55bd 00c5 043c b500 423e d8f1 c23d
000000f0: 635c 37be e25a 00bf d76b 75be d34f 7ebe
00000100: 6682 18bf bfcc 0fbe fe2c a5be 19e1 e6be
00000110: a750 853e 2167 ddbe 111e a43e a57d debe
00000120: 733b c6be 3148 193e 270b d2bd 669a b0be
00000130: d64b 48bf 0b6e 9bbe ff64 c3be 5400 17bf
00000140: de0f d8be 8693 5cbf fab8 30bf 0cf5 ac3d
00000150: 54e1 d3be e853 d63e db31 d23c 2185 75be
00000160: c236 2e3f 82a9 46be b785 ea3a 591a 1abe
00000170: ab9b 1dbe 110e c9be 2cf8 0ebf d3b1 65be
00000180: acaf f4be 463d c93c 71d6 8d3e c31d f1be
00000190: 8056 493e 5771 25be 6b59 62be 8b7a e83e
000001a0: 900b 2e3d 6f82 b53d 08ef 4e3d 12e1 cabe
000001b0: 808b aebe 94b5 79be 02d9 9fbd ae95 e7be
000001c0: ba21 8cbc ed4e 123e 40ba 09bf f028 593e
000001d0: 25a6 b2be c71a 2e3e 3140 0b3e cfd5 323d
000001e0: 47e4 fdbd dd84 c63d 4f6b 9dbd af36 9cbe
000001f0: 0727 353d f4a3 43be 22db d9bd 65db c23d
00000200: a5e4 1e3e f62b 8dbe 80f6 db3d 0ca9 223e
00000210: 8eba e73c c9ac fbbd edd4 823d 638a 1a3d
00000220: e257 13bf ad18 193d c114 2bbf ae55 30bf
00000230: 78b7 ffbe 923d b0be 02b5 34bf cbcb 413f
00000240: 18d8 f2be a661 293f c7f3 54be 9fd7 c1bd
00000250: f055 353f c91a aebd 2d78 903d e9a8 cb3d
00000260: d62a fcbc 2142 b6be 3fed 383e 3ce8 40be
00000270: c702 f6bd 016b 98be 7347 693e 9312 6b3e
00000280: 40c8 323d 5661 273e 13ac 02be 08ca 1dbe
00000290: 7fd3 8fbe a513 89be e6a2 bfbe e8db 76be
000002a0: 6172 9fbe 52d6 ecbd e2b1 9fbe 22d1 4fbe
000002b0: 76f0 04bf a8f3 c43d 7d14 aebd 6aef ec3e
000002c0: 1713 b8be cbcb 62be b8d2 833e b8ed 3cbe
000002d0: 073c 87be a4b0 17bf 502b 14bd aff2 0bbf
000002e0: 3380 c7be 1d3f 09bf af4d 0dbf 13d3 f2be
000002f0: bec3 d73e 9339 13bf 14fc 0a3e 79c9 91bd
00000300: d21a 86be 44bb 8f3e 0f50 2abf 0ef9 cfbd
00000310: 3e7e 73be ba72 433e 1e4d 82bd 9d83 6bbe
00000320: 63b7 313e 9697 3dbe 3a0c c8be a3d2 04be
00000330: b159 aabe 49d1 0abe cbb9 51bd 14b0 6dbe
00000340: 59f1 343e cb7a 83bd f08a 25be 0b8c d6bd
00000350: fffc 903e 056e ae3c fb6f 88be adbc 943d
00000360: 0c5e 12bd e9a9 363e 1216 4ebe f1c1 a53d
00000370: e245 1cbe 7bd3 173c a692 c43d 2f73 31be
00000380: df00 3cbe d2a8 4bbe 9454 753c 8949 a9bd
00000390: c3ff d2bd a9bf a53d 8208 3c3e 02cd a83d
000003a0: d88b b5be c45e 2a3d 9ae7 76be 8527 5a3e
000003b0: a3d6 963c 53bf 853d 4c9c 37bd 96bd fabe
000003c0: dcd8 143e 4fd3 3ebd 34a8 7d3e 9c66 b7bd
000003d0: e636 28be 8a9d 6fbe 66eb 22bd d523 5b3e
000003e0: defd 863d 0cd7 d6bd df78 0dbe b9a3 e9be
000003f0: 4281 323e 4cab 713e eb14 54be a14b d6bd

weight_hh_l1 f4 [60, 15]
-0.19099015 -0.18388823 -0.028749073 -0.33541298 0.18381715 0.25456274 0.26620734 -0.09380657
0.13585946 -0.22438411 -0.086910985 -0.29221025 0.08857692 0.15802628 0.0815659 0.27849194
-0.12908062 -0.041244023 -0.029564643 0.22087374 -0.16375183 0.04561689 0.2419822 0.14089355
0.008884691 0.14987196 -0.12006486 -0.02281327 -0.16372778 -0.04013351 0.317848 0.042328626
0.21140705 0.07166069 -0.0118153095 -0.15738134 0.039217416 -0.20334932 -0.19171354 -0.0880243
0.17878689 0.16643257 -0.1713858 -0.23775055 -0.020689683 -0.015295142 -0.23923261 -0.02103157
0.2037361 -0.032844197 -0.099314995 0.22411299 0.123492986 0.06411999 0.02314475 0.46484002
-0.4243997 -0.2755402 -0.03428971 0.12735878 0.19465075 -0.48041517 -0.08292258 0.45668668
-0.02790694 -0.5627733 -0.028877728 0.14874882 0.27877843 0.049188018 0.008024693 -0.19683504
-0.48337206 -0.3317542 -0.026921323 0.48347297 -0.34927368 -0.1480395 -0.1132388 0.39709282
0.0772329 0.37588102 0.15536566 0.21093784 -0.022361994 0.48090178 -0.28595963 0.058874775
-0.4384867 -0.1627118 -0.122087546 -0.12084627 -0.15148018 -0.09208791 -0.09991905 -0.23198855
-0.018118722 0.0653069 0.27055284 -0.2731922 -0.1025415 -0.038556606 0.23312123 0.18383168
-0.12579198 0.022965077 -0.21453148 0.23345077 -0.1155695 -0.061223388 -0.13002275 -0.030144177
0.01791214 -0.011586072 -0.08650716 0.14302388 -0.3668734 0.06266292 0.12929611 -0.006193736
0.08175482 -0.22020194 -0.03545669 0.5036237 -0.3506163 -0.12641656 -0.12792216 0.24732217
-0.100261986 0.30760232 0.25240958 -0.043209467 -0.33507973 -0.10888345 0.057548463 0.53768396
-0.5691059 -0.21190223 0.09883276 -0.19888149 -0.37917864 0.51572317 0.5819629 0.48044446
0.052727055 -0.12083075 -0.23442738 -0.29814714 -0.3038505 -0.25284463 -0.0055554225 -0.2501955
-0.30291313 -0.03006985 -0.16343465 -0.3746814 0.12459285 -0.12680842 0.13594663 -0.018741965
0.23467357 0.1936277 0.33807677 0.1827223 -0.08166077 0.34014177 -0.34881827 -0.030807966
0.050704848 -0.16391638 -0.30476665 0.1263768 0.320446 0.45652497 -0.14735529 0.19010766
-0.03489657 -0.59239054 -0.10264835 0.14941043 0.10235582 -0.109484576 -0.08961738 -0.24995685
0.0017659375 -0.3522755 0.10887212 0.119592704 0.18076973 -0.018536378 0.40961197 0.043148253
0.19733423 -0.4828793 -0.2614764 0.02366322 0.09225375 -0.1799045 -0.31101322 -0.21113569
-0.03320859 0.31516767 0.2001752 -0.09467866 -0.19899082 -0.07455996 -0.2570016 -0.075619794
-0.057984933 -0.23062082 -0.21575958 -0.17713678 0.13520305 0.04271742 0.015653305 0.24765304
-0.09588477 -0.1915965 -0.20843937 -0.18691638 -0.12088436 -0.17224742 0.20284219 -0.07596966
-0.21354565 -0.11859937 -0.066594146 0.029469967 -0.24982446 0.021118412 -0.24623854 -0.07300844
0.09023013 -0.026681824 -0.13249727 0.11081528 0.10135526 0.32028836 -0.25597385 0.059713367
0.061590586 -0.10505421 0.2462616 -0.2931589 0.2120432 -0.21035483 -0.13170452 -0.073116794
-0.043721713 0.087838545 -0.08858275 0.17889108 -0.34375003 0.08851288 -0.16714454 0.12333219
00000000: ec92 43be 324d 3cbe 2d83 ebbc 40bb abbe
00000010: 903a 3c3e 0c56 823e 544c 883e a91d c0bd
00000020: be1e 0b3e f3c4 65be 63fe b1bd 959c 95be
00000030: d167 b53d a4d1 213e 060c a73d 7f96 8e3e
00000040: b62d 04be 7eef 28bd 8d31 f2bc ba2c 623e
00000050: 8fae 27be c7d8 3a3d 2fca 773e 6646 103e
00000060: 1891 113c 0978 193e 91e4 f5bd e5e2 babc
00000070: 41a8 27be 0963 24bd f9bc a23e c860 2d3d
00000080: 177b 583e d7c2 923d 0095 41bc 9328 21be
00000090: 71a2 203d ce3a 50be 8e50 44be 1646 b4bd
000000a0: e913 373e 4d6d 2a3e c27f 2fbe e174 73be
000000b0: 697d a9bc 7a98 7abc 65f9 74be 664a acbc
000000c0: 32a0 503e a387 06bd a965 cbbd e07d 653e
000000d0: e4e9 fc3d 5751 833d 0f9a bd3c 83ff ed3e
000000e0: eb4a d9be 9b13 8dbe 5e73 0cbd 576a 023e
000000f0: 8752 473e faf8 f5be 50d3 a9bd d6d2 e93e
00000100: 189d e4bc e911 10bf fc90 ecbc 9c51 183e
00000110: 0cbc 8e3e 6079 493d 007a 033c 208f 49be
00000120: 8b7c f7be b0db a9be 1b8a dcbc c589 f73e
00000130: 00d4 b2be ab97 17be bee9 e7bd c04f cb3e
00000140: 482c 9e3d 7a73 c03e 2d18 1f3e 1700 583e
00000150: 8030 b7bc c238 f63e 4d69 92be ad26 713d
00000160: 5481 e0be ec9d 26be 0909 fabd 407e f7bd
00000170: 9f1d 1bbe 9698 bcbd 5ca2 ccbd 688e 6dbe
00000180: b76d 94bc a0bf 853d e785 8a3e d9df 8bbe
00000190: 4701 d2bd 88ed 1dbd 55b7 6e3e 5f3e 3c3e
000001a0: 9dcf 00be 4221 bc3c 24ae 5bbe b80d 6f3e
000001b0: b4af ecbd 60c5 7abd af24 05be ecf0 f6bc
000001c0: 7bbc 923c 82d3 3dbc aa2a b1bd da74 123e
000001d0: d5d6 bbbe 6b55 803d 3366 043e d3f4 cabb
000001e0: 126f a73d 9e7c 61be 093b 11bd 7ced 003f
000001f0: fb83 b3be 5873 01be 07fe 02be 0642 7d3e
00000200: 2856 cdbd 0d7e 9d3e d43b 813e 69fc 30bd
00000210: 928f abbe 49fe debd f0b7 6b3d a8a5 093f
00000220: edb0 11bf e6fc 58be d468 ca3d 97a7 4bbe
00000230: b423 c2be 6f06 043f 85fb 143f d1fc f53e
00000240: 53f8 573d 1d76 f7bd bb0d 70be bea6 98be
00000250: 4b92 9bbe da74 81be 430a b6bb a019 80be
00000260: 6e17 9bbe 0c55 f6bc 6a5b 27be 3ed6 bfbe
00000270: 892a ff3d 11da 01be 9835 0b3e c088 99bc
00000280: 454e 703e 5746 463e 6618 ad3e 8e1b 3b3e
00000290: c33d a7bd 1027 ae3e 4f98 b2be fd60 fcbc
000002a0: e3af 4f3d b2d9 27be 600a 9cbe eb68 013e
000002b0: 8011 a43e a4bd e93e 4ee4 16be 95ab 423e
000002c0: b5ef 0ebd e8a6 17bf 4c39 d2bd 0cff 183e
000002d0: ee9f d13d 7339 e0bd 5189 b7bd b0f4 7fbe
000002e0: 0877 e73a 745d b4be 59f8 de3d 05ed f43d
000002f0: b31b 393e 9ad9 97bc a9b8 d13e 39bc 303d
00000300: fc11 4a3e f53b f7be 3ce0 85be 5fd9 c13c
00000310: 89ef bc3d e338 38be 203d 9fbe f433 58be
00000320: bb05 08bd a85d a13e bafa 4c3e e3e6 c1bd
00000330: 40c4 4bbe e4b2 98bd b795 83be 8dde 9abd
00000340: 9c81 6dbd dd27 6cbe 14f0 5cbe 5863 35be
00000350: ab72 0a3e 76f8 2e3d 5c3b 803c c298 7d3e
00000360: 3c5f c4bd df31 44be 2171 55be 0267 3fbe
00000370: 3892 f7bd a161 30be ddb5 4f3e fb95 9bbd
00000380: b6ab 5abe 3ae4 f2bd 8362 88bd 006b f13c
00000390: fcd1 7fbe 8500 ad3c f525 7cbe 7385 95bd
000003a0: 93ca b83d d793 dabc 5dad 07be 1ff3 e23d
000003b0: 5993 cf3d d6fc a33e 010f 83be 0196 743d
000003c0: 6946 7c3d a926 d7bd 002c 7c3e ec18 96be
000003d0: da21 593e 4267 57be 8ddd 06be 42be 95bd
000003e0: 8a15 33bd b2e4 b33d df6a b5bd 392f 373e
000003f0: 0100 b0be 3e46 b53d f027 2bbe 9695 fc3d

bias_ih_l1 f4 [60]
0.34773245 0.33848438 -0.032850504 0.5459175 0.58111405 0.5188164 0.36799163 0.21975894
-0.13800392 0.7933726 0.25303808 0.18697806 0.3110566 0.28519267 0.16869228 -0.24985307
0.081250235 0.093844615 -0.16987304 -0.21401265 0.024626005 -0.027133903 0.09991443 -0.016840408
-0.17591783 0.20117593 -0.05801697 0.25119022 0.26722065 0.15434867 0.3566642 -0.32647645
-0.046384603 -0.049034208 -0.159949 -0.12531462 0.023839498 0.17945077 0.22336507 -0.14173774
-0.058462065 0.06493072 -0.17631401 -0.11392821 -0.18640207 -0.031904593 0.40392214 0.2767462
0.25623587 0.66447246 0.80404156 0.2529499 -0.06273383 0.301864 0.7201784 -0.027510243
0.3205003 0.5519338 0.41374278 0.2646643
00000000: fd09 b23e d34d ad3e 408e 06bd 40c1 0b3f
00000010: e4c3 143f 27d1 043f 6669 bc3e 7d08 613e
00000020: e650 0dbe 771a 4b3f 358e 813e 2d77 3f3e
00000030: d042 9f3e c604 923e abbd 2c3e 7cd9 7fbe
00000040: 8666 a63d 9b31 c03d 33f3 2dbe 2226 5bbe
00000050: 7abc c93c eb47 debc f09f cc3d e5f4 89bc
00000060: ce23 34be 1001 4e3e 34a3 6dbd 019c 803e
00000070: 25d1 883e 940d 1e3e b19c b63e ec27 a7be
00000080: c8fd 3dbd 18d8 48bd acc9 23be 7a52 00be
00000090: 0d4b c33c f1c1 373e d0b9 643e b323 11be
000000a0: eb75 6fbd 66fa 843d a98b 34be 3253 e9bd
000000b0: 2fe0 3ebe 64ae 02bd e2ce ce3e aeb1 8d3e
000000c0: 5931 833e de1a 2a3f abd5 4d3f a682 813e
000000d0: 987a 80bd eb8d 9a3e 9d5d 383f 295d e1bc
000000e0: 9e18 a43e 894b 0d3f 18d6 d33e 1482 873e

bias_hh_l1 f4 [60]
0.32073992 0.6110565 0.25115544 0.31175599 0.52958363 0.42825553 0.5644241 -0.10933494
-0.07973366 0.4708663 -0.003645016 0.11873833 0.32709792 0.11980235 0.13073234 -0.084476925
0.1835006 -0.12919435 -0.0121454075 0.15184885 -0.0910591 0.11420944 -0.020666264 -0.07748656
0.20288745 -0.14276896 -0.12580034 0.24510847 -0.0015313948 0.36358932 -0.07719663 -0.33817762
-0.062331002 -0.13482106 0.29882666 -0.17017409 0.33767262 0.07269763 0.059201054 -0.14331262
-0.014670748 -0.2470339 -0.03236311 -0.25931516 0.017049562 -0.070176244 0.17229097 -0.13139783
0.32967263 0.67054784 0.5862833 0.34038413 0.057413433 0.023450276 0.50069726 0.20864293
0.42389396 0.58101094 0.15905848 -0.03472092
00000000: 0638 a43e 336e 1c3f 7297 803e 7b9e 9f3e
00000010: cb92 073f 4f44 db3e 197e 103f ffea dfbd
00000020: 674b a3bd 6315 f13e 39e1 6ebb 152d f33d
00000030: 6179 a73e ef5a f53d b3de 053e 3d02 adbd
00000040: 95e7 3b3e 864b 04be 88fd 46bc 447e 1b3e
00000050: 327d babd a4e6 e93d 4c4c a9bc 46b1 9ebd
00000060: bac1 4f3e 0732 12be ced1 00be b7fd 7a3e
00000070: 15b9 c8ba 6128 ba3e 4419 9ebd 9e25 adbe
00000080: cb4e 7fbd 880e 0abe cfff 983e 1e42 2ebe
00000090: 6de3 ac3e 7fe2 943d ce7c 723d 8bc0 12be
000000a0: 945d 70bc 74f6 7cbe 2e8f 04bd f5c4 84be
000000b0: 86ab 8b3c 90b8 8fbd 0b6d 303e 278d 06be
000000c0: daca a83e 06a9 2b3f aa16 163f d446 ae3e
000000d0: 592a 6b3d cb1a c03c b22d 003f 7ea6 553e
000000e0: a108 d93e 22bd 143f 3ae0 223e 8637 0ebd

weight_ih_l2 f4 [60, 15]
0.019291265 0.104218364 -0.063362464 0.43734074 0.0664961 -0.18464264 -0.14226349 -0.28723007
-0.084718816 0.34296432 -0.21978383 0.18009144 -0.35030928 0.009607938 -0.07400406 0.16746089
-0.33982784 -0.12839529 0.03188163 0.3448126 -0.48460007 0.26022297 0.23213153 0.22672455
0.057918936 0.052875496 0.16127522 -0.60376734 -0.16573611 0.13859048 0.14871588 -0.44452652
-0.4370403 0.014132915 0.20012239 0.012769399 0.10443358 0.21919872 0.26463637 0.1523582
0.011233088 -0.020128965 -0.43389794 0.023244623 0.5138551 0.12743531 -0.44970173 -0.2155741
0.037957314 -0.11626934 -0.27116314 0.12155914 0.22368062 0.036706246 0.31469968 0.16222107
0.3249459 -0.066193126 -0.16350894 -0.034984477 0.19163367 0.117734395 -0.062783524 0.04013787
0.07930723 -0.01498254 -0.072398596 -0.2490636 -0.20004058 0.07048283 0.24557878 -0.043620523
0.10298194 0.13212897 0.06965504 0.3129027 -0.19472495 -0.19225152 -0.2903174 0.07090374
-0.30357745 0.15129514 -0.13736825 -0.1656854 0.30271786 0.65127647 -0.037650883 -0.16913727
-0.07310774 -0.11260693 0.20932153 -0.35098326 -0.39490113 -0.08652653 -0.12653263 0.050412215
-0.019333681 0.007910788 0.4037439 0.3045292 0.13160196 -0.13178888 -0.42957664 -0.38012633
0.08262911 0.7399861 -0.33905753 -0.7858061 0.031815276 0.15488258 -0.15349855 1.0366422
0.7408239 0.508483 0.20610747 0.9601598 -0.38918087 -0.28641796 -0.89252806 -0.11383889
0.18611202 -0.023397122 -0.0187264 0.088160686 -0.11057431 -0.4796347 -0.15572192 -0.36484602
0.21612076 0.3790555 0.09736457 0.5319151 -0.36351267 -0.032679 -0.037343472 0.07910357
-0.12175162 -0.05772306 -0.11614929 0.19363002 0.057130408 0.18165752 -0.15434702 0.07892079
0.2828851 0.10024644 -0.052845456 -0.1254268 -0.054532338 0.3256215 0.39562133 -0.23380911
-0.30703497 0.18817778 -0.032411627 -0.17323858 0.36461985 0.40554142 -0.032139935 0.28058243
0.5482589 0.009911074 -0.12727703 -0.5619326 0.27423352 0.35581508 -0.17839804 -0.31277817
0.14451383 0.00983876 -0.2626002 0.45880386 -0.013225846 0.019905638 -0.105560824 0.5028521
-0.1533591 -0.28330395 -0.4398669 0.544426 0.07601073 -0.12829249 -0.017450826 0.4744341
-0.073174134 -0.055077065 0.087188 -0.31815132 0.27510718 0.11377332 -0.029297434 0.004156021
-0.4417381 0.19890012 0.115225725 0.70739096 -0.01580487 -0.25567007 -0.20043133 0.1297515
-0.25081873 0.70959735 0.5141387 0.14411342 0.4031937 0.42560104 -0.32346612 -0.20302399
-0.35853866 -0.6503902 0.16591996 -0.7230664 -0.5991865 0.06524144 -0.055727094 -0.23901553
0.56217414 0.39861453 0.3533993 0.02608812 -0.018464988 -0.23989137 -0.24165511 -0.50691736
0.757583 -0.0747913 0.24960974 0.08923315 0.16947803 0.07998879 0.046870265 -0.27698436
-0.33043367 -0.27472726 0.42519066 -0.17127405 0.3411082 0.008022966 0.17291963 -0.35860583
0.055813547 0.17757145 0.06710395 0.05879087 -0.19363862 -0.22526434 -0.45807377 -0.33398128
-0.11905939 0.7445014 -0.22657438 0.3814841 -0.24253489 0.055020697 0.05935297 -0.16075693
00000000: b708 9e3c 7070 d53d 2ec4 81bd 20eb df3e
00000010: 1b2f 883d f612 3dbe 85ad 11be d20f 93be
00000020: 0f81 adbd 0599 af3e 030f 61be e469 383e
00000030: bd5b b3be 9d6a 1d3c 718f 97bd de7a 2b3e
00000040: eafd adbe 0e7a 03be 5096 023d 478b b03e
00000050: 801d f8be f23b 853e e3b3 6d3e 7b2a 683e
00000060: 683c 6d3d fa93 583d 5525 253e 7f90 1abf
00000070: bab6 29be aaea 0d3e fa48 183e fb98 e3be
00000080: bfc3 dfbe be8d 673c e2ec 4c3e be36 513c
00000090: 46e1 d53d a175 603e 6b7e 873e ca03 1c3e
000000a0: fc0a 383c 80e5 a4bc df27 debe 826b be3c
000000b0: 028c 033f 677e 023e 4e3f e6be 75bf 5cbe
000000c0: 2179 1b3d 9f1e eebd e5d5 8abe 00f4 f83d
000000d0: 880c 653e 4a59 163d 5120 a13e 481d 263e
000000e0: 4f5f a63e 4390 87bd e36e 27be e24b 0fbd
000000f0: 9e3b 443e bb1e f13d a694 80bd 9b67 243d
00000100: d46b a23d 5479 75bc b745 94bd 870a 7fbe
00000110: 70d7 4cbe 4d59 903d 0179 7b3e 6fab 32bd
00000120: 32e8 d23d d14c 073e 4da7 8e3d c834 a03e
00000130: fa65 47be 95dd 44be 7ba4 94be fb35 913d
00000140: 816e 9bbe 1ded 1a3e 43aa 0cbe 6fa9 29be
00000150: d6fd 9a3e 0eba 263f d037 1abd 5232 2dbe
00000160: 83b9 95bd 769e e6bd 6258 563e 14b4 b3be
00000170: 7b30 cabe d234 b1bd c591 01be 0a7d 4e3d
00000180: ab61 9ebc 409c 013c 85b7 ce3e 40eb 9b3e
00000190: aac2 063e aaf3 06be 78f1 dbbe eb9f c2be
000001a0: 7339 a93d bb6f 3d3f f398 adbe 972a 49bf
000001b0: bc50 023d 8a99 1e3e b92e 1dbe b1b0 843f
000001c0: a3a6 3d3f f12b 023f d60d 533e 08cd 753f
000001d0: b742 c7be 60a5 92be b87c 64bf 5d24 e9bd
000001e0: 2694 3e3e 52ab bfbc 1b68 99bc 978d b43d
000001f0: c974 e2bd ae92 f5be 9175 1fbe 19cd babe
00000200: c34e 5d3e 9013 c23e 1367 c73d 972b 083f
00000210: 551e babe 6ada 05bd 78f5 18bd 0d01 a23d
00000220: ea58 f9bd 046f 6cbd aedf edbd f346 463e
00000230: 9301 6a3d 6e04 3a3e 250d 1ebe 39a1 a13d
00000240: 51d6 903e 014e cd3d 7a74 58bd e26f 00be
00000250: 4d5d 5fbd dcb7 a63e e18e ca3e a86b 6fbe
00000260: b033 9dbe adb1 403e 0ec2 04bd 7465 31be
00000270: 74af ba3e 20a3 cf3e 2aa5 03bd 80a8 8f3e
00000280: b25a 0c3f 0f62 223c e954 02be d1da 0fbf
00000290: 5668 8c3e 652d b63e faad 36be 7624 a0be
000002a0: 6ffb 133e c032 213c 8973 86be 57e8 ea3e
000002b0: 38b1 58bc 2611 a33c 4630 d8bd eaba 003f
000002c0: 2b0a 1dbe 370d 91be 3c36 e1be 815f 0b3f
000002d0: 83ab 9b3d 1b5f 03be 09f5 8ebc 07e9 f23e
000002e0: 52dc 95bd 7d98 61bd 9f8f b23d bbe4 a2be
000002f0: d9da 8c3e fd01 e93d 2c01 f0bc 3b2f 883b
00000300: 7f2b e2be 79ac 4b3e 77fb eb3d 9317 353f
00000310: 3779 81bc 30e7 82be df3d 4dbe 94dd 043e
00000320: 506b 80be 2ca8 353f 989e 033f 7892 133e
00000330: 686f ce3e 61e8 d93e 5a9d a5be 85e5 4fbe
00000340: 6192 b7be f97f 26bf ece6 293e e11a 39bf
00000350: 4964 19bf 4e9d 853d 1842 64bd 7dc0 74be
00000360: a5ea 0f3f 3417 cc3e c1f0 b43e c1b6 d53c
00000370: e343 97bc 15a6 75be 7074 77be 56c5 01bf
00000380: f6f0 413f 2e2c 99bd b299 7f3e dfbf b63d
00000390: a68b 2d3e 2ad1 a33d 09fb 3f3d e5d0 8dbe
000003a0: 9a2e a9be 0da9 8cbe 97b2 d93e 7762 2fbe
000003b0: bca5 ae3e c272 033c d811 313e 2f9b b7be
000003c0: bf9c 643d 4ad5 353e cc6d 893d b2ce 703d
000003d0: 3449 46be b2ab 66be a588 eabe 98ff aabe
000003e0: 69d5 f3bd a597 3e3f 1d03 68be e251 c33e
000003f0: 115b 78be 625d 613d 1a1c 733d 779d 24be

weight_hh_l2 f4 [60, 15]
-0.21313336 0.3257699 -0.4414088 -0.23738371 0.118878685 0.09823743 0.17592373 -0.43192583
0.15731214 -0.44006422 0.1523375 -0.415977 -0.37364656 -0.3252853 0.25172403 -0.01689087
0.0028004728 -0.16373414 -0.37498888 -0.4582573 0.22509454 0.08803898 -0.10469591 -0.05698393
0.13385952 0.11047145 -0.19073263 -0.019620392 -0.14856552 0.19859327 0.094758876 -0.26579705
0.047952194 -0.008947043 -0.1696735 0.14410175 -0.14618386 -0.42073032 -0.11605353 -0.09756797
0.048357297 -0.098145045 0.020465016 -0.1356864 -0.15687186 -0.13019596 -0.12273946 -0.09465779
-0.2318739 -0.13570602 0.2862389 0.30019742 -0.30223966 -0.08300282 -0.11948535 0.034040608
0.1832512 -0.08040038 -0.09547623 -0.19251658 0.1768231 0.20658247 -0.22860916 0.010004497
-0.14219022 0.106863216 0.00084979914 0.5072885 0.23127519 -0.2851662 -0.050731577 -0.14255288
-0.12763049 -0.028380709 -0.05695474 -0.04886566 -0.04621527 -0.057554603 0.021209175 -0.51428205
0.15552376 0.25318855 -0.2027843 0.4343474 -0.056632422 -0.13483275 -0.02609183 -0.043084804
0.029855235 -0.11199097 -0.13551114 -0.2696313 -0.11572811 -0.074420385 -0.24232745 0.24552494
-0.027285082 -0.25763637 0.22854115 -0.10843768 -0.07846424 0.019015824 0.16118631 -0.00078383804
0.0848977 0.3776575 -0.8282543 0.18559362 0.4188994 -0.40494126 0.118217416 -0.2656943
-0.09748629 -0.19336577 0.41670895 -0.3621224 0.30055216 0.55044955 -0.10176834 -0.48914024
-0.33003774 0.13885906 -0.3888463 -0.13029434 -0.14093311 0.23098332 0.0747037 0.17106426
0.017898548 -0.20930998 -0.02115233 -0.12298767 -0.25003386 -0.0841382 -0.14929505 -0.25251693
-0.061097905 0.11790176 -0.1761589 -0.09589767 0.021183725 -0.088981025 -0.1591833 -0.107168294
0.008898784 0.3075168 -0.0019158588 -0.20555738 0.0063676434 0.1514134 0.016154224 0.05213628
0.10528322 0.188475 -0.3299474 -0.090370886 -0.081805274 -0.04266277 0.08299927 -0.18374887
-0.004157121 0.059989914 0.07281155 -0.3180958 -0.0570013 -0.0917198 -0.26445046 -0.003316365
-0.12313132 -0.28061742 -0.23810473 -0.09871668 -0.3842997 -0.29872602 0.20980103 -0.13616073
-0.007170565 -0.07132458 -0.29932037 0.12026602 -0.20037441 0.14046228 -0.3567921 -0.11000429
-0.11965393 -0.13314618 -0.044320077 -0.05213801 0.019343138 -0.03372378 0.10201736 0.01584085
-0.37439224 0.11133288 0.2842134 0.0103161 -0.4331306 0.07682653 -0.31445178 -0.6078977
0.2252489 -0.31834915 0.47155285 -0.16246371 -0.03892133 -0.2048575 0.37264422 -0.036982488
0.06352383 -0.030915942 0.11462934 -0.096049994 -0.29308897 -0.22026917 -0.34444955 -0.16008563
-0.08177175 -0.24332926 -0.34284508 -0.04750215 0.14046465 -0.1706732 0.14446893 -0.4895226
0.24766147 -0.16631027 0.24505343 -0.1624177 -0.21655512 -0.080987744 -0.0035923622 0.27520165
0.35706103 0.09579432 -0.15789135 0.3048907 -0.12134654 -0.12064189 -0.10132257 -0.18181998
0.050091263 0.2517588 0.111886024 0.06390346 -0.588654 -0.15220286 0.16184896 0.23545171
0.3724238 0.022075338 0.3336803 0.1603395 -0.23501903 0.13293174 0.10038709 -0.24514633
00000000: a23f 5abe 50cb a63e 5600 e2be b714 73be
00000010: ab76 f33d b530 c93d 5a25 343e 6225 ddbe
00000020: 6f16 213e 1950 e1be 5dfe 1b3e f0fa d4be
00000030: 9a4e bfbe cb8b a6be f9e1 803e b95e 8abc
00000040: 2388 373b eca9 27be 8bfe bfbe b3a0 eabe
00000050: 2f7f 663e c84d b43d cf6a d6bd fb67 69bd
00000060: 7812 093e db3e e23d 6a4f 43be f2ba a0bc
00000070: 8f21 18be 095c 4b3e f110 c23d 8d16 88be
00000080: 8569 443d 9e96 12bc e4be 2dbe 698f 133e
00000090: 39b1 15be f769 d7be 79ad edbd b7d1 c7bd
000000a0: 4d12 463d 4500 c9bd 40a6 a73c 60f1 0abe
000000b0: 04a3 20be 1752 05be d35e fbbd f2db c1bd
000000c0: 5a70 6dbe 85f6 0abe e88d 923e 7ab3 993e
000000d0: 28bf 9abe 62fd a9bd bcb4 f4bd 2a6e 0b3d
000000e0: 34a6 3b3e f4a8 a4bd 0b89 c3bd 1123 45be
000000f0: 1d11 353e 5b8a 533e 8518 6abe e7e9 233c
00000100: 509a 11be 1adb da3d 0ec5 5e3a a9dd 013f
00000110: 67d3 6c3e 4e01 92be eacb 4fbd 62f9 11be
00000120: 91b1 02be a97e e8bc 6049 69bd 5c27 48bd
00000130: 394c 3dbd 60be 6bbd ddbe ad3c fda7 03bf
00000140: 9f41 1f3e eea1 813e b0a6 4fbe c862 de3e
00000150: 66f7 67bd 9911 0abe 89be d5bc b179 30bd
00000160: f792 f43c 865b e5bd 6fc3 0abe 1d0d 8abe
00000170: dc02 edbd b769 98bd b024 78be e46a 7b3e
00000180: f784 dfbc eae8 83be b106 6a3e 9314 debd
00000190: dcb1 a0bd 13c7 9b3c 060e 253e 7b7a 4dba
000001a0: d8de ad3d 535c c13e 7908 54bf 410c 3e3e
000001b0: fb79 d63e 7654 cfbe f91b f23d 1509 88be
000001c0: e4a6 c7bd ad01 46be e05a d53e 1b68 b9be
000001d0: f9e1 993e 43ea 0c3f eb6b d0bd 9770 fabe
000001e0: b5fa a8be 1231 0e3e dd16 c7be e16b 05be
000001f0: c550 10be e486 6c3e 41fe 983d 782b 2f3e
00000200: fa9f 923c 5b55 56be a747 adbc f6e0 fbbd
00000210: 7004 80be a650 acbd cde0 18be e649 81be
00000220: cc41 7abd 7a76 f13d 0063 34be ff65 c4bd
00000230: 7e89 ad3c af3b b6bd f200 23be 0d7b dbbd
00000240: 35cc 113c d872 9d3e 8e1d fbba a27d 52be
00000250: aaa7 d03b 1d0c 1b3e dd55 843c da8c 553d
00000260: bb9e d73d 97ff 403e deee a8be 5f14 b9bd
00000270: 8689 a7bd 28bf 2ebd 85fb a93d aa28 3cbe
00000280: 7538 88bb fcb7 753d 391e 953d 74dd a2be
00000290: 327a 69bd 97d7 bbbd 0d66 87be 5f57 59bb
000002a0: 462c fcbd 16ad 8fbe bad1 73be f92b cabd
000002b0: eec2 c4be 9ef2 98be 15d6 563e b86d 0bbe
000002c0: 0ff7 eabb 9f12 92bd 8540 99be 084e f63d
000002d0: f32e 4dbe 58d5 0f3e 74ad b6be ee49 e1bd
000002e0: 1f0d f5bd 7957 08be f888 35bd aa8e 55bd
000002f0: 8075 9e3c f221 0abd 7aee d03d acc4 813c
00000300: 57b0 bfbe 7e02 e43d 6b84 913e dc04 293c
00000310: 4bc3 ddbe 3a57 9d3d d3ff a0be 2f9f 1bbf
00000320: a6a7 663e a9fe a2be 606f f13e e35c 26be
00000330: f96b 1fbd 2ac6 51be 39cb be3e f37a 17bd
00000340: c818 823d 6e43 fdbc cac2 ea3d dcb5 c4bd
00000350: c20f 96be 3e8e 61be b15b b0be 7ded 23be
00000360: f277 a7bd 4e2b 79be 6489 afbe 9d91 42bd
00000370: f7d5 0f3e f5c4 2ebe aaef 133e b5a2 fabe
00000380: f89a 7d3e 3d4d 2abe 49ef 7a3e d350 26be
00000390: a0c0 5dbe e7dc a5bd d66d 6bbb 3be7 8c3e
000003a0: b4d0 b63e d02f c43d 45ae 21be a21a 9c3e
000003b0: 8984 f8bd 1813 f7bd 3582 cfbd 042f 3abe
000003c0: 7f2c 4d3d 88e6 803e 8024 e53d d1df 823d
000003d0: 07b2 16bf 11db 1bbe bcbb 253e 411a 713e
000003e0: 55ae be3e 57d7 b43c 25d8 aa3e 0a30 243e
000003f0: d4a8 70be 421f 083e bf97 cd3d a407 7bbe

bias_ih_l2 f4 [60]
0.21325947 0.11938743 -0.035751514 0.18828997 -0.08668845 -0.118730165 0.31006613 0.23562329
-0.1421337 0.08682715 -0.0026916198 0.20310754 -0.06667627 0.20969102 0.36080843 -0.13049358
-0.20226443 -0.07960106 -0.0056057153 0.10014122 -0.040025182 0.162844 0.091298744 -0.35033628
-0.29293594 -0.15055688 0.009029847 -0.066173814 0.082303844 -0.07331731 0.060827814 -0.14820553
-0.09681941 -0.049355317 -0.20296754 0.1990385 0.028057346 -0.18197943 -0.030695423 -0.051139083
0.19007953 0.071559064 -0.04687454 0.05405319 -0.13818514 -0.08286477 0.31621248 0.48644206
0.25804374 0.012170798 -0.042917896 0.09786496 0.2538139 0.07941252 0.04452428 0.31617263
0.42734057 0.16266271 0.61009383 0.21684055
00000000: b160 5a3e 6681 f43d 2e70 12bd 16cf 403e
00000010: b789 b1bd cd28 f3bd fdc0 9e3e 3b47 713e
00000020: 7f8b 11be 6fd2 b13d e365 30bb 6cfb 4f3e
00000030: 918d 88bd 3eb9 563e e2bb b83e 1ca0 05be
00000040: 681e 4fbe e105 a3bd 26b0 b7bb d716 cd3d
00000050: 72f1 23bd 94c0 263e d6fa ba3d 475f b3be
00000060: b3fb 95be 952b 1abe ecf1 133c 2386 87bd
00000070: eb8e a83d 6327 96bd 9626 793d 31c3 17be
00000080: 4149 c6bd cd28 4abd b9d6 4fbe c0d0 4b3e
00000090: 85d8 e53c d158 3abe f874 fbbc 3777 51bd
000000a0: 35a4 423e 8f8d 923d 85ff 3fbd e166 5d3d
000000b0: 6880 0dbe 01b5 a9bd 9ae6 a13e ef0e f93e
000000c0: 4f1e 843e 0768 473c adca 2fbd 6d6d c83d
000000d0: e5f3 813e 08a3 a23d 175f 363d 61e1 a13e
000000e0: 62cc da3e 0e91 263e 1c2f 1c3f 730b 5e3e

bias_hh_l2 f4 [60]
0.055576496 0.4222534 0.14680144 0.32947114 -0.05917658 0.06339805 0.53086036 0.45205167
-0.005038364 0.14486504 0.18197101 0.12593038 0.03436478 0.49631715 0.6899092 -0.055230312
-0.27253538 0.08569098 -0.18384199 -0.11627783 -0.4161586 -0.03378791 0.049613263 -0.39021745
-0.40127128 0.1533009 -0.19841085 -0.26332584 -0.00055777025 -0.1059422 -0.035521727 -0.26817912
0.033757947 -0.035395183 -0.009016995 0.17870001 0.064462245 -0.07387164 0.167774 -0.08464498
0.22723572 -0.18546222 0.06939645 -0.01450488 0.058394697 -0.16892095 0.34193558 0.32545218
0.38165635 -0.15783595 0.050662678 0.11253791 0.51182956 0.1442761 -0.06439855 0.053484425
0.15110244 -0.09029098 0.14249681 0.3662609
00000000: 2ea4 633d 9931 d83e 1e53 163e 71b0 a83e
00000010: 2463 72bd d6d6 813d 77e6 073f 5173 e73e
00000020: dc18 a5bb 8057 143e 9c56 3a3e e5f3 003e
00000030: 15c2 0c3d 481d fe3e e49d 303f 2e39 62bd
00000040: c289 8bbe c17e af3d 1341 3cbe 1223 eebd
00000050: bd12 d5be 3165 0abd 4737 4b3d 95ca c7be
00000060: 6e73 cdbe e9fa 1c3e 372c 4bbe a5d2 86be
00000070: 5437 12ba 39f8 d8bd 3b7f 11bd c64e 89be
00000080: c645 0a3d 8afa 10bd 05bc 13bc 23fd 363e
00000090: c804 843d 044a 97bd f3cc 2b3e 595a adbd
000000a0: 7bb0 683e cfe9 3dbe ba1f 8e3d e0a5 6dbc
000000b0: 472f 6f3d 9df9 2cbe 2e12 af3e aba1 a63e
000000c0: 7668 c33e bf9f 21be ab83 4f3d 477a e63d
000000d0: 4307 033f 1dbd 133e 63e3 83bd 7c12 5b3d
000000e0: 99ba 1a3e 7aea b8bd afea 113e 8c86 bb3e

weight_ih_l0 f4 [8, 2]
-0.36804983 -0.20922971 0.5053119 -0.43652138 -0.11137282 0.12518612 0.84295917 -0.09303548
-0.781237 -0.7587576 0.21808863 0.45836258 -0.53773016 0.24977954 0.86262137 0.44829786
00000000: 0771 bcbe 5040 56be 1f5c 013f bb7f dfbe
00000010: 6f17 e4bd ca30 003e 2ccc 573f 6389 bebd
00000020: 26ff 47bf f03d 42bf a052 5f3e 80ae ea3e
00000030: afa8 09bf 35c6 7f3e c1d4 5c3f 4c87 e53e

weight_hh_l0 f4 [8, 2]
-0.086700425 -0.33348036 0.47588748 -0.3805277 -0.027848378 -0.21324663 0.30401495 0.59749174
-0.45385894 -0.87629235 0.41239324 0.15103437 -0.23425734 0.63649184 0.11736999 0.044379562
00000000: fe8f b1bd f0bd aabe 86a7 f33e 87d4 c2be
00000010: 4822 e4bc 535d 5abe d9a7 9b3e 38f5 183f
00000020: 3360 e8be b254 60bf 3525 d33e c1a8 1a3e
00000030: 28e1 6fbe 21f1 223f ad5f f03d 58c7 353d

bias_ih_l0 f4 [8]
-0.38676617 0.17534834 0.12544705 0.3665463 -0.13459054 0.7145592 0.7383871 -0.39325842
00000000: 3706 c6be 848e 333e 3175 003e f5ab bb3e
00000010: 1ad2 09be 5aed 363f f006 3d3f 2b59 c9be
