experiments/DT-VAE-GAN_traffic_increasing_decreasing/saved_model/vae_gan_trained_model.pth (torch, 392498 bytes, 83 tensors)

weight_ih_l0 f4 [4, 1]
0.44592914 0.420623 -0.47822493 0.64239943
00000000: d350 e43e e65b d73e e6d9 f4be 4a74 243f

weight_hh_l0 f4 [4, 1]
0.6590434 0.023037478 -0.70929086 -1.0067631
00000000: 11b7 283f 18b9 bc3c 1694 35bf 9ddd 80bf

bias_ih_l0 f4 [4]
0.6892764 -0.20471847 -0.8928262 0.9244902
00000000: 6b74 303f b8a1 51be 4290 64bf 64ab 6c3f

bias_hh_l0 f4 [4]
0.2446499 0.15906131 0.27229956 -0.6069672
00000000: 8185 7a3e f8e0 223e d96a 8b3e 3462 1bbf

weight f4 [32, 1]
-0.82372695 -0.15965448 0.36099613 0.84223694 0.16042966 -0.33803123 -0.0869244 0.9670893
-0.31753224 -0.1566973 -0.7541483 -0.3531661 0.101877145 0.811217 -0.07145231 -0.057854887
-0.6970385 -0.86720824 -0.63009965 -0.50291634 -0.16578822 0.44251806 0.89474493 -0.32333675
0.15836565 0.90852827 -0.006684461 0.96611106 0.0535964 1.0729624 -0.5106465 0.88963175
00000000: c5df 52bf 777c 23be 7cd4 b83e d79c 573f
00000010: ac47 243e 6e12 adbe 6b05 b2bd 2a93 773f
00000020: 9693 a2be 4275 20be dd0f 41bf 30d2 b4be
00000030: f7a4 d03d ebab 4f3f 9755 92bd 3ff9 6cbd
00000040: 1d71 32bf 5c01 5ebf 364e 21bf 20bf 00bf
00000050: 63c4 29be ba91 e23e 010e 653f 658c a5be
00000060: 9b2a 223e 4f95 683f 5309 dbbb 0e53 773f
00000070: e687 5b3d d556 893f bbb9 02bf e8be 633f

bias f4 [32]
0.14523457 -0.80602753 0.95070255 -0.54036236 1.020512 -0.6855738 -0.46626228 -0.91424423
-0.16406639 0.6675772 -0.8130973 -0.6098132 -0.42045802 -0.6063127 0.28471348 -0.67392373
-0.08296702 -0.5916601 -0.41286397 -0.3635112 -0.10602207 -0.9165117 -0.110096514 0.2345641
-0.059321325 0.29488936 0.89485836 0.27860123 0.79650176 -0.9483006 -0.85235167 0.111001156
00000000: 5fb8 143e d257 4ebf 3e61 733f 3055 0abf
00000010: 23a0 823f c481 2fbf eeb9 eebe e90b 6abf
00000020: 0501 28be 57e6 2a3f 2527 50bf b81c 1cbf
00000030: 4646 d7be 4f37 1bbf f7c5 913e 4486 2cbf
00000040: 9dea a9bd 0977 17bf e862 d3be 241e babe
00000050: 1922 d9bd 83a0 6abf 487a e1bd 9231 703e
00000060: ebfa 72bd bdfb 963e 7015 653f d2a4 8e3e
00000070: 8ae7 4b3f d4c3 72bf b833 5abf 9354 e33d

weight_ih_l0 f4 [60, 32]
-0.07909938 0.062436443 -0.2745787 0.24714795 -0.29427463 0.13832322 0.22705247 -0.17368215
-0.018152516 0.16177595 -0.17192954 0.144686 -0.20524234 -0.090269014 0.042710684 -0.19313347
-0.051669132 0.18518892 0.13763589 -0.07924219 -0.1458442 0.20794468 0.1592603 0.18973233
0.2144972 0.004019303 -0.14657012 0.089905195 -0.19222224 0.2448522 0.20644996 -0.11285838
-0.0814708 -0.16185859 -0.20037562 -0.016481103 0.2950811 -0.05331544 0.04041273 -0.22599839
-0.23542592 0.12587208 0.06353232 0.10392785 0.042670093 0.16713127 -0.18981208 0.1439459
0.25095248 0.004086396 -0.21831526 -0.23770136 0.019207839 -0.0022838484 0.098156914 0.2879558
0.22311504 -0.05033975 -0.05313362 -0.107227154 0.16990983 0.08590161 0.022784881 0.07307614
-0.012287397 -0.12556751 -0.027379395 0.17348425 -0.21024771 0.041770715 0.200073 -0.2596689
0.051592696 0.14784278 -0.27454573 0.16435774 -0.13496555 -0.054399427 -0.01936072 0.16031574
0.16429463 -0.19384728 -0.20689161 0.15186077 -0.26415935 -0.05028865 0.20565075 0.17689995
0.12989293 -0.15939319 -0.082508095 -0.023167415 -0.14754824 0.10692734 -0.14615335 0.07370603
-0.037330404 0.25373846 0.029702064 -0.22935629 0.034575425 0.266359 -0.02417747 -0.018896408
0.19239984 -0.0601062 0.13594496 0.21951313 0.14935225 -0.020459356 -0.16646388 -0.14929318
-0.01069351 0.09070068 0.18049553 0.18615825 0.20929323 -0.04497125 -0.1334449 -0.18532126
-0.21100381 0.19693293 0.08203997 0.016241228 0.1182547 0.02901902 0.23270139 0.037960194
0.016839646 -0.20354359 -0.14449687 -0.28403458 -0.04506743 -0.34527823 0.053480104 -0.1555822
-0.34507683 -0.039761126 0.16272673 -0.060253374 -0.21603674 -0.28274086 0.29654095 -0.32223067
0.21205312 0.13679154 0.123535596 -0.18813983 0.12022786 -0.33565703 0.12427966 0.2894632
-0.04930158 0.15876138 0.34097606 0.08385535 0.09153768 -0.32984567 0.06549376 -0.12975052
-0.001806648 -0.29131663 0.08849927 -0.19955797 0.15301654 -0.29379106 -0.19614133 -0.15315735
-0.19981039 0.13943891 -0.022804994 0.05488053 -0.05660496 -0.21438973 -0.076197684 -0.32800484
-0.16256252 -0.29400826 -0.09977035 -0.3128795 0.010580788 -0.1165235 -0.27460176 0.31136757
-0.33558267 0.15891409 0.23964983 0.17015451 0.09286051 -0.18415405 -0.27752122 -0.20024563
-0.18447201 0.19445096 -0.13723183 -0.16917513 0.2803307 -0.039335713 -0.1014348 -0.20610435
-0.051721957 0.22901145 0.12807295 -0.25464943 -0.25795454 -0.02926514 -0.030884339 -0.1307152
0.052397497 -0.14657052 0.084472135 -0.2599717 -0.10182854 -0.26924342 -0.00016617183 -0.046618138
0.12279341 0.18103284 0.030626897 -0.0809283 0.037944492 0.12552847 0.17518716 -0.1992402
0.13422447 -0.2840767 0.08660157 -0.30664548 -0.043717884 -0.26028726 0.05758576 0.02067247
-0.25458893 -0.044188835 0.0836953 0.1766788 -0.16359553 -0.26830578 0.20407109 -0.3227522
0.11906205 -0.33513686 -0.097384244 -0.11823344 -0.15668607 -0.041498452 -0.20186915 -0.15765415
-0.008860949 0.035283048 0.19842981 -0.10835769 -0.16385387 0.051435184 0.039142523 0.044217292
00000000: dbfe a1bd 5bbd 7f3d 9495 8cbe 5a14 7d3e
00000010: 2aab 96be 9aa4 0d3e 7180 683e bcd9 31be
00000020: 96b4 94bc 98a8 253e 4c0e 30be 9128 143e
00000030: 0c2b 52be f6de b8bd 66f1 2e3d c8c4 45be
00000040: 03a3 53bd 2aa2 3d3e 6cf0 0c3e bb49 a2bd
00000050: 2f58 15be 73ef 543e 2215 233e 3149 423e
00000060: 27a5 5b3e 5bb4 833b 7a16 16be 3720 b83d
00000070: e8d5 44be 89ba 7a3e 9e67 533e 4b22 e7bd
00000080: 2ada a6bd 42be 25be 442f 4dbe 6103 87bc
00000090: df14 973e 4a61 5abd d287 253d 1f6c 67be
000000a0: 7e13 71be 9ce4 003e 3c1d 823d 20d8 d43d
000000b0: d6c6 2e3d 7624 2b3e 195e 42be 8e66 133e
000000c0: d87c 803e 2de7 853b 098e 5fbe fc67 73be
000000d0: c259 9d3c 9eac 15bb 7e06 c93d f16e 933e
000000e0: 4578 643e 0e31 4ebd a4a2 59bd e999 dbbd
000000f0: d8fc 2d3e 2fed af3d 5ca7 ba3c f1a8 953d
00000100: 1451 49bc c594 00be c14a e0bc dba5 313e
00000110: 2d4b 57be c517 2b3d f0df 4c3e 52f3 84be
00000120: dd52 533d 1964 173e 4291 8cbe 654d 283e
00000130: 6934 0abe efd1 5ebd 5f9a 9ebc cf29 243e
00000140: da3c 283e e77f 46be 65db 53be 6481 1b3e
00000150: e53f 87be 79fb 4dbd 1c96 523e 4325 353e
00000160: a702 053e f837 23be 01fa a8bd 97c9 bdbc
00000170: e316 17be b9fc da3d 39a9 15be 30f3 963d
00000180: c4e7 18bd 02ea 813e be51 f33c 60dc 6abe
00000190: f69e 0d3d 3560 883e d40f c6bc a4cc 9abc
000001a0: 7704 453e eb31 76bd 2835 0b3e 0dc8 603e
000001b0: ccef 183e 619a a7bc 8275 2abe 50e0 18be
000001c0: d533 2fbc 47c1 b93d d2d3 383e 45a0 3e3e
000001d0: f750 563e c633 38bd c8a5 08be dbc4 3dbe
000001e0: 6211 58be c9a8 493e 9204 a83d 530c 853c
000001f0: 852f f23d 4cb9 ed3c 4649 6e3e 267c 1b3d
00000200: 4cf3 893c bb6d 50be fdf6 13be fb6c 91be
00000210: a098 38bd 4fc8 b0be f40d 5b3d f150 1fbe
00000220: e9ad b0be 90dc 22bd d6a1 263e 3ecc 76bd
00000230: bc38 5dbe 69c3 90be 37d4 973e 6bfb a4be
00000240: 7424 593e 1513 0c3e 3b00 fd3d baa7 40be
00000250: 063a f63d 3ddb abbe 5686 fe3d 8534 943e
00000260: 74f0 49bd 5892 223e 6a94 ae3e 5bbc ab3d
00000270: 1b78 bb3d 88e1 a8be 9821 863d 52dd 04be
00000280: 0ccd ecba 7427 95be 1b3f b53d ed58 4cbe
00000290: 5eb0 1c3e c86b 96be 46d9 48be 48d5 1cbe
000002a0: 189b 4cbe 13c9 0e3e 8ad1 babc 68ca 603d
000002b0: 9ada 67bd fb88 5bbe 880d 9cbd 40f0 a7be
000002c0: ca76 26be 4088 96be 6654 ccbd be31 a0be
000002d0: 0b5b 2d3c dfa3 eebd 9a98 8cbe 926b 9f3e
000002e0: 7ed1 abbe 60ba 223e c466 753e fc3c 2e3e
000002f0: a72d be3d e192 3cbe 4317 8ebe 310d 4dbe
00000300: 3be6 3cbe 271e 473e 8086 0cbe 3f3c 2dbe
00000310: 8187 8f3e 7c1e 21bd 0cbd cfbd 050d 53be
00000320: 67da 53bd fa81 6a3e 8e25 033e 6961 82be
00000330: 9e12 84be 72bd efbc 2701 fdbc 35da 05be
00000340: c29e 563d 9516 16be baff ac3d 031b 85be
00000350: 7b8b d0bd 46da 89be 693e 2eb9 a9f2 3ebd
00000360: 1d7b fb3d ac60 393e 42e5 fa3c bdbd a5bd
00000370: af6b 1b3d 898a 003e 4364 333e 9f05 4cbe
00000380: 2472 093e 8072 91be 2a5c b13d a300 9dbe
00000390: 8611 33bd 5f44 85be 0cdf 6b3d 5059 a93c
000003a0: 7b59 82be 5aff 34bd 7168 ab3d 4aeb 343e
000003b0: 9685 27be 605f 89be 03f8 503e c73f a5be
000003c0: ced6 f33d 0f97 abbe 6471 c7bd 6024 f2bd
000003d0: 5072 20be 48fa 29bd c9b6 4ebe 1770 21be
000003e0: 842d 11bc f584 103d 2f31 4b3e a3ea ddbd
000003f0: 4fc9 27be b3ad 523d e953 203d 311d 353d

weight_hh_l0 f4 [60, 15]
-0.00095258164 0.2545681 -0.0016518149 -0.026366528 -0.063541025 0.071002536 -0.22179542 0.083723634
0.1621479 0.047714777 -0.08352655 0.06393593 0.18039834 0.25086978 0.0445656 -0.04183575
0.026568709 -0.17255233 -0.17374401 -0.21106216 -0.010551445 0.017607974 -0.23373204 -0.11621862
0.022643033 -0.24091642 0.15647635 0.07921113 0.25820968 -0.17992434 0.09630114 0.10642369
-0.04564938 -0.1934499 0.10035968 0.02751519 0.0055161766 -0.109015755 0.16157837 -0.021241056
0.119446315 -0.027231045 -0.11239926 -0.18776661 -0.21780959 0.23449382 0.21059573 0.122843474
0.12078354 -0.11591334 0.23710233 0.121983215 -0.116031885 0.12756997 -0.124240145 0.2563416
-0.14998253 -0.158866 -0.083176 -0.18348628 -0.13424882 -0.117374 -0.15507336 -0.2750783
-0.059859816 -0.0377821 0.26937553 0.024903622 0.29130146 0.05091174 0.004763195 0.11709591
-0.04823325 0.2170929 -0.041757286 -0.18349469 -0.13465902 0.1567634 -0.047838476 0.07314412
0.15643369 -0.19336697 0.18306997 0.054292925 0.05024284 0.11822868 -0.17039709 -0.09828217
0.21304847 -0.024524298 0.22447348 -0.28942353 0.21327406 -0.22481205 -0.16735347 -0.036029603
0.014426276 -0.018867375 0.09726561 0.15779355 -0.14701253 -0.15155353 -0.11023534 0.17808987
-0.20463891 0.26388058 0.028948653 0.038200855 0.24769391 -0.09218539 -0.12907378 0.014293516
-0.06414624 0.18881224 -0.14569189 0.092535056 -0.22905517 0.12052724 0.117760494 0.15615404
0.092224054 -0.04428658 -0.11617962 -0.041248925 0.19511585 -0.0502245 0.0053624865 -0.12427416
-0.14259988 -0.15071931 -0.17973058 -0.15487891 0.06530186 -0.030996285 -0.09391568 -0.07779771
0.04314813 0.016890459 -0.20191295 0.10925908 0.069750056 -0.1022904 0.04042556 -0.22524025
-0.097356446 0.17154028 0.26538613 -0.16460024 0.018211532 0.24501179 0.22631621 -0.078309536
-0.2172569 0.20744081 0.19947508 0.10353014 -0.15811118 -0.26954204 -0.18610616 0.16059135
0.022170393 0.1582217 0.026842115 0.03385096 0.011898476 -0.11792172 -0.14442784 0.044736467
0.025380315 -0.2616817 -0.24656475 -0.032490168 0.02364184 -0.14882271 -0.0076664556 0.15279238
-0.13288212 0.0034786658 0.19677062 -0.16010563 0.025265418 0.1449145 0.054185987 -0.16263635
0.24628176 -0.20466374 -0.07393352 -0.083783805 0.23202544 -0.041276194 -0.117999405 0.10659773
-0.20592648 -0.07454559 0.17309263 0.077575594 0.27502564 -0.2314083 -0.12031671 0.23608245
-0.1804744 -0.12125879 -0.095597215 0.121420234 -0.17887674 0.057160486 -0.06799888 0.03220776
0.053164463 -0.03524594 0.15738639 -0.12301712 0.0844 -0.07881861 0.023580013 -0.23089437
0.18209338 -0.11005278 0.16997626 -0.19959016 0.07872324 -0.19121115 -0.07449306 0.0803984
0.18862444 0.114656754 -0.010966075 -0.1526461 -0.1386955 -0.10985414 0.16408719 -0.040748615
-0.03444216 -0.14271577 0.17307608 -0.15506567 0.28966781 0.07268732 0.1375385 -0.16791351
0.09293346 0.18305576 -0.03636396 -0.037697922 0.1148553 0.19691147 -0.06612486 -0.18836448
0.15598145 -0.04777467 0.08051978 -0.2147726 0.13197449 -0.0818741 -0.14039025 -0.08510156
00000000: acb6 79ba c056 823e b681 d8ba 9efe d7bc
00000010: cc21 82bd c769 913d 571e 63be 4c77 ab3d
00000020: 190a 263e 9270 433d f80f abbd d7f0 823d
00000030: 58ba 383e 0172 803e 6b8a 363d f75b 2bbd
00000040: 9fa6 d93c 8fb1 30be f3e9 31be ae20 58be
00000050: f8df 2cbc 993e 903c 7457 6fbe 0704 eebd
00000060: e27d b93c cbb2 76be 563b 203e 7239 a23d
00000070: 0f34 843e 163e 38be 8839 c53d aaf4 d93d
00000080: d8fa 3abd bb17 46be 6089 cd3d 8967 e13c
00000090: 0bc1 b43b a743 dfbd cd74 253e b901 aebc
000000a0: 45a0 f43d a413 dfbc 9531 e6bd e445 40be
000000b0: 7a09 5fbe 261f 703e 68a6 573e 5c95 fb3d
000000c0: 5c5d f73d f963 edbd f4ca 723e 56d2 f93d
000000d0: 20a2 edbd b4a1 023e 9e71 febd 353f 833e
000000e0: 0595 19be c5ad 22be 2e58 aabd d4e3 3bbe
000000f0: 8678 09be c861 f0bd 8dcb 1ebe 10d7 8cbe
00000100: 912f 75bd 67c1 1abd 97eb 893e ae02 cc3c
00000110: 7725 953e d488 503d 9314 9c3b fbcf ef3d
00000120: 3a90 45bd 9a4d 5e3e b009 2bbd 08e6 3bbe
00000130: 0ee4 09be 9686 203e 47f2 43bd 96cc 953d
00000140: 2730 203e fe01 46be b276 3b3e 4262 5e3d
00000150: 70cb 4d3d e121 f23d 937c 2ebe 2a48 c9bd
00000160: 6129 5a3e 2ee7 c8bc 60dc 653e 522f 94be
00000170: 8464 5a3e 2135 66be b55e 2bbe c793 13bd
00000180: 305c 6c3c c18f 9abc 3133 c73d a294 213e
00000190: 748a 16be d930 1bbe 11c3 e1bd 315d 363e
000001a0: dd8c 51be 5b1b 873e ba25 ed3c 8078 1c3d
000001b0: 79a3 7d3e b2cb bcbd eb2b 04be 5a2f 6a3c
000001c0: 1b5f 83bd ff57 413e 4130 15be 0583 bd3d
000001d0: 708d 6abe fcd6 f63d 6a2c f13d d8e6 1f3e
000001e0: f7df bc3d d865 35bd 95ef edbd a2f4 28bd
000001f0: 73cc 473e 35b8 4dbd ccb7 af3b 7383 febd
00000200: b405 12be 2a56 1abe 4b0b 38be 9498 1ebe
00000210: fbbc 853d eceb fdbc dd56 c0bd 6854 9fbd
00000220: 18bc 303d dc5d 8a3c 45c2 4ebe 39c3 df3d
00000230: 1ed9 8e3d a17d d1bd 4695 253d 61a5 66be
00000240: d162 c7bd 41a8 2f3e b1e0 873e f78c 28be
00000250: 5a30 953c 5fe4 7a3e 70bf 673e c060 a0bd
00000260: 9878 5ebe 5d6b 543e 3243 4c3e 9c07 d43d
00000270: e6e7 21be 6a01 8abe 9d92 3ebe 0f72 243e
00000280: af9e b53c df04 223e ffe3 db3c 4ea7 0a3d
00000290: d3f1 423c f180 f1bd e4e4 13be 963d 373d
000002a0: 61ea cf3c 25fb 85be 787b 7cbe 6914 05bd
000002b0: 88ac c13c fb64 18be e436 fbbb 9b75 1c3e
000002c0: 4012 08be 54fa 633b 3d7e 493e bbf2 23be
000002d0: 6cf9 ce3c 7764 143e 20f2 5d3d 258a 26be
000002e0: 4931 7c3e 5f93 51be 756a 97bd d896 abbd
000002f0: 1498 6d3e 3a11 29bd aca9 f1bd e94f da3d
00000300: 64de 52be 5cab 98bd 323f 313e f4df 9e3d
00000310: 29d0 8c3e 4cf6 6cbe 9b68 f6bd 99bf 713e
00000320: 48ce 38be 8756 f8bd 79c8 c3bd 2cab f83d
00000330: 772b 37be 1d21 6a3d ff42 8bbd 49ec 033d
00000340: fbc2 593d 0c5e 10bd e629 213e 66f0 fbbd
00000350: e8d9 ac3d a76b a1bd df2a c13c 936f 6cbe
00000360: b076 3a3e 5a63 e1bd 420e 2e3e 5d61 4cbe
00000370: a639 a13d dbcc 43be d18f 98bd eba7 a43d
00000380: c426 413e 29d1 ea3d 0dab 33bc 424f 1cbe
00000390: 3106 0ebe 35fb e0bd 7906 283e 05e8 26bd
000003a0: 3913 0dbd 1524 12be db3a 313e 89c9 1ebe
000003b0: 574f 943e 17dd 943d e4d6 0c3e 85f1 2bbe
000003c0: e653 be3d f872 3b3e 60f2 14bd 2369 1abd
000003d0: 4139 eb3d 29a3 493e 786c 87bd 9ee2 40be
000003e0: 9ab9 1f3e 5faf 43bd 8ee7 a43d 59ed 5bbe
000003f0: 5224 073e 9cad a7bd 76c2 0fbe ba49 aebd

bias_ih_l0 f4 [60]
-0.24238546 -0.0015588216 -0.007092655 0.123084195 -0.052741203 -0.09478823 0.27658018 0.15814644
0.21516147 0.05633979 0.22055796 -0.17260684 0.017265452 0.052315563 -0.20855397 -0.18267405
-0.17575523 0.05944164 -0.13650918 -0.15828915 0.11977443 -0.05970722 0.078482 0.07782419
-0.005833945 -0.18888748 0.23971969 -0.16895291 0.035395436 0.18515483 -0.20342706 0.11364658
-0.13944027 -0.07162813 -0.2541611 -0.19782573 -0.043695312 -0.22942184 0.09342169 -0.03844366
0.1711515 -0.250149 -0.16847654 0.19243558 -0.14893144 -0.15143566 0.26783952 0.067490235
-0.022537204 0.27303115 0.031379644 -0.15472922 -0.11881933 -0.10481455 -0.18927057 -0.17179482
-0.06202615 0.13809463 -0.08457057 -0.09133696
00000000: e533 78be 6051 ccba 8169 e8bb 9113 fc3d
00000010: 2907 58bd 5520 c2bd eb9b 8d3e 24f1 213e
00000020: 4a53 5c3e 8dc4 663d f2d9 613e d9bf 30be
00000030: 4770 8d3c d848 563d 2c8f 55be e80e 3bbe
00000040: 2ef9 33be 1479 733d 10c9 0bbe 8d16 22be
00000050: 4c4c f53d 8f8f 74bd 2cbb a03d 4a62 9f3d
00000060: ad2a bfbb b86b 41be 1479 753e fe01 2dbe
00000070: cefa 103d 3a99 3d3e 2f4f 50be 8abf e83d
00000080: 6ec9 0ebe c5b1 92bd 6721 82be d492 4abe
00000090: dbf9 32bd 8fed 6abe df53 bf3d 1977 1dbd
000000a0: 5742 2f3e 8813 80be 1d85 2cbe d50d 453e
000000b0: 7c81 18be f311 1bbe 4322 893e 5238 8a3d
000000c0: f19f b8bc bdca 8b3e f187 003d 5671 1ebe
000000d0: 8d57 f3bd 03a9 d6bd 25d0 41be fbea 2fbe
000000e0: 220f 7ebd ae68 0d3e 5633 adbd df0e bbbd

bias_hh_l0 f4 [60]
-0.25260127 0.0103027085 0.08779326 0.010467687 0.05574486 0.29013962 0.19710772 -0.12111967
0.22939536 -0.25620532 0.03158186 0.15829645 0.18597855 -0.121368766 -0.20605482 -0.29437286
-0.15843414 -0.1892409 0.014659046 0.21909802 0.20404847 0.08879991 -0.06662663 0.1131577
-0.08520578 -0.17625235 0.062080134 -0.06203059 -0.19776548 0.18324469 -0.2561898 -0.17921494
0.033196677 -0.15352246 0.19282341 -0.21273585 0.18265288 -0.13847537 0.14025863 -0.1819446
-0.2564828 -0.03935565 0.058952548 -0.25774875 -0.11867947 -0.15869243 0.0233493 0.09500906
0.11497561 0.1783773 0.08022898 0.026523944 -0.062178653 -0.046548918 0.1990675 0.025316674
-0.11435328 0.057197634 0.08754373 -0.18588191
00000000: f454 81be b1cc 283c f4cc b33d a980 2b3c
00000010: b954 643d 2e8d 943e 9bd6 493e 970d f8bd
00000020: 9ee6 6a3e 582d 83be fb5b 013d 7718 223e
00000030: 2971 3e3e 3090 f8bd 0900 53be 0ab8 96be
00000040: 8f3c 22be 5ec8 41be 7f2c 703c 3b5b 603e
00000050: 15f2 503e badc b53d 8b73 88bd 39bf e73d
00000060: 5e80 aebd 7f7b 34be bd47 7e3d ca13 7ebd
00000070: 0983 4abe 7fa4 3b3e 4f2b 83be 1f84 37be
00000080: 3df9 073d fe34 1dbe 8073 453e 6dd7 59be
00000090: 5b09 3b3e 7dcc 0dbe f59f 0f3e af4f 3abe
000000a0: b751 83be 6433 21bd 3a78 713d a5f7 83be
000000b0: 390e f3bd 4580 22be 0847 bf3c 1c94 c23d
000000c0: 5578 eb3d 8aa8 363e 174f a43d be48 d93c
000000d0: 0baf 7ebd 14aa 3ebd 5ad8 4b3e ea64 cf3c
000000e0: 0d32 eabd 1148 6a3d 214a b33d d457 3ebe

weight_ih_l1 f4 [60, 15]
-0.25666627 -0.035183668 -0.061489187 -0.22753794 -0.11644667 -0.19459914 0.16720712 0.02409294
-0.2554882 0.14480588 0.023406092 0.222132 -0.22503103 0.12842405 0.19238566 -0.1941569
-0.13582698 0.01638264 0.17887215 0.25535566 -0.028719312 0.16777013 -0.161088 0.091619834
-0.020474989 -0.1616796 -0.003724122 0.09951425 -0.022976477 0.20679563 -0.024584418 0.093988165
-0.00186709 0.1783521 -0.25665364 0.06579825 -0.082322575 -0.30239677 0.04390143 -0.0697326
-0.23370385 -0.11708073 0.13424061 0.116064206 0.0006829881 0.102459125 -0.13742243 -0.15268078
-0.119516596 -0.14777872 -0.21086013 0.09138444 0.22541471 -0.101974696 -0.21437284 -0.25718796
0.091667935 -0.12798312 0.08381285 0.20579253 0.061264176 0.054867834 0.2312083 -0.15476045
-0.18934603 -0.15485655 -0.015964007 0.22333953 -0.080986634 -0.17755067 -0.0374994 0.14497751
-0.04179465 0.2471338 0.091651 0.24410781 -0.21504895 -0.1038606 -0.11929767 0.16147946
-0.14113039 -0.09918416 -0.20156953 -0.0793085 -0.051881228 -0.16429533 -0.09260532 -0.023789559
0.16957621 -0.07326087 0.16773885 0.005230099 0.14367123 -0.18614584 -0.06546017 0.0558028
0.13025236 -0.1051183 0.018655527 0.06283482 0.22460899 -0.05220586 0.10184356 -0.1629924
-0.19573727 -0.06345185 -0.080618516 -0.16951537 -0.077934094 -0.10804542 -0.1373646 -0.06773285
-0.18523021 0.036351938 0.12965283 -0.20135337 -0.18300499 -0.1500022 -0.14413288 -0.18125507
0.07880202 0.18050945 -0.10775678 0.059473377 -0.09539383 -0.17570777 -0.10639818 0.01596831
-0.18212858 0.13154635 -0.0023771515 -0.10177659 -0.14338648 -0.18420544 0.04781006 -0.20511514
-0.22010678 -0.28172618 0.002284897 -0.17778534 -0.26483163 -6.4951666e-05 0.05148312 0.18803515
-0.07971104 -0.12723061 -0.28551537 -0.22408423 0.09562631 -0.019053316 -0.1084739 0.0985443
0.09838745 0.24483554 -0.03833736 0.09977602 -0.1002465 -0.14393616 -0.021536056 -0.16276178
-0.023764135 0.14875686 -0.03852635 -0.18111247 0.060862307 0.06378336 -0.101340175 0.1710784
0.1762448 0.013523633 0.13474545 -0.23142122 -0.34818807 0.018533865 -0.01577715 -0.2629831
0.04063823 0.10750811 -0.20170845 0.14393742 -0.19990839 0.14028452 -0.006955667 0.17834371
-0.06848314 0.154885 0.0063607553 -0.30397063 0.19166696 -0.12575221 -0.03222824 0.10284991
-0.020767733 -0.19779605 -0.0061286767 0.23510164 0.15899642 -0.23654321 0.15217431 0.26953003
-0.011453638 0.13337612 -0.122934945 -0.21291254 -0.18384136 0.24675179 -0.19692479 0.28928638
-0.17308319 0.21394332 -0.15057193 0.2342704 0.14206006 0.006326412 0.16246799 0.16213973
-0.044867545 -0.25816792 0.24123734 -0.15527979 -0.091731094 -0.070760526 0.15169728 0.21836455
-0.008783853 0.1224722 -0.08869739 -0.23990253 0.002061414 -0.042981245 -0.042978365 -0.21242908
0.05923934 0.11006067 0.014184341 0.11572297 -0.0142657515 -0.14903472 0.12984319 0.25864595
-0.25359008 0.0011701736 -0.0864291 0.066530816 0.03456117 -0.13897733 0.09723693 -0.10094577
-0.055264395 -0.20771576 -0.161758 0.07289385 0.26207227 -0.13221303 -0.13208665 -0.06896038
00000000: c369 83be c01c 10bd 16dc 7bbd b5ff 68be
00000010: 977b eebd ff44 47be 5838 2b3e 8f5e c53c
00000020: 59cf 82be fe47 143e 22be bf3c 9276 633e
00000030: 896e 66be 9881 033e bf00 453e 11d1 46be
00000040: 3a16 0bbe e334 863c 432a 373e fabd 823e
00000050: c344 ebbc efcb 2b3e 41f4 24be 2ea3 bb3d
00000060: 2abb a7bc 568f 25be 6610 74bb 21ce cb3d
00000070: 2a39 bcbc 3cc2 533e 4365 c9bc de7c c03d
00000080: 25b9 f4ba efa1 363e 1b68 83be 3cc1 863d
00000090: bd98 a8bd c0d3 9abe fcd1 333d f7cf 8ebd
000000a0: 1050 6fbe 06c8 efbd 5f76 093e 12b3 ed3d
000000b0: 8e0a 333a 17d6 d13d 77b8 0cbe 5a58 1cbe
000000c0: 1ec5 f4bd 4e53 17be b8eb 57be c427 bb3d
000000d0: 1dd3 663e 1cd8 d0bd 8e84 5bbe 24ae 83be
000000e0: 66bc bb3d 020e 03be 12a6 ab3d 47bb 523e
000000f0: 25f0 7a3d 18bd 603d dec1 6c3e 8679 1ebe
00000100: ede3 41be b792 1ebe f3c6 82bc 1eb3 643e
00000110: 52dc a5bd d8cf 35be f998 19bd fc74 143e
00000120: de30 2bbd a510 7d3e 85b3 bb3d 66f7 793e
00000130: cb35 5cbe deb4 d4bd 5652 f4bd df5a 253e
00000140: 7c84 10be 1121 cbbd 3e68 4ebe 7f6c a2bd
00000150: 6981 54bd 093d 28be dca7 bdbd 52e2 c2bc
00000160: 63a5 2d3e cc09 96bd bcc3 2b3e 4061 ab3b
00000170: 8d1e 133e 049d 3ebe fb0f 86bd 7a91 643d
00000180: e060 053e 4348 d7bd 7ad3 983c 8baf 803d
00000190: e6ff 653e d0d5 55bd 5b93 d03d 7be7 26be
000001a0: 5a6f 48be 0bf3 81bd 521b a5bd 7095 2dbe
000001b0: e99b 9fbd eb46 ddbd 4ea9 0cbe 85b7 8abd
000001c0: fdac 3dbe c5e5 143d b6c3 043e 942f 4ebe
000001d0: a965 3bbe 2d9a 19be 9297 13be ee9a 39be
000001e0: f462 a13d 78d7 383e 96af dcbd 5b9a 733d
000001f0: d75d c3bd bdec 33be 4ae7 d9bd f9cf 823c
00000200: ea7f 3abe 16b4 063e fcc9 1bbb 3f70 d0bd
00000210: e8d3 12be 5aa0 3cbe 7bd4 433d b409 52be
00000220: ac63 61be 6a3e 90be 36be 153b 5c0d 36be
00000230: 0398 87be a936 88b8 f7df 523d 498c 403e
00000240: 8b3f a3bd be48 02be 122f 92be 5676 65be
00000250: bad7 c33d b315 9cbc 9027 debd 98d1 c93d
00000260: 5c7f c93d 2bb6 7a3e a307 1dbd 5f57 cc3d
00000270: 094e cdbd 0064 13be 626c b0bc 06ab 26be
00000280: 01ad c2bc b853 183e cecd 1dbd 8c75 39be
00000290: c14a 793d daa0 823d 708b cfbd 2d2f 2f3e
000002a0: 8479 343e 3a92 5d3c b6fa 093e aff9 6cbe
000002b0: b545 b2be 55d4 973c 153f 81bc b9a5 86be
000002c0: 4674 263d 362d dc3d a98c 4ebe 5564 133e
000002d0: c9b4 4cbe bfa6 0f3e 5dec e3bb bc9f 363e
000002e0: e340 8cbd 2c9a 1e3e e26d d03b 0aa2 9bbe
000002f0: 5844 443e 30c5 00be c201 04bd f9a2 d23d
00000300: 1821 aabc 0c8b 4abe 11d3 c8bb 7cbe 703e
00000310: f5cf 223e 6238 72be 95d3 1b3e d7ff 893e
00000320: 0aa8 3bbc c093 083e 51c5 fbbd bf05 5abe
00000330: e940 3cbe 80ac 7c3e a7a6 49be 581d 943e
00000340: b83c 31be f513 5b3e 872f 1abe 94e4 6f3e
00000350: 3178 113e ca4d cf3b 025e 263e f507 263e
00000360: 08c7 37bd 962e 84be ec06 773e aa01 1fbe
00000370: 83dd bbbd e5ea 90bd 8856 1b3e f59a 5f3e
00000380: 26ea 0fbc b4d2 fa3d faa6 b5bd 02a9 75be
00000390: ca18 073b 1a0d 30bd 150a 30bd 0287 59be
000003a0: f3a4 723d 7d67 e13d 7065 683c 2a00 ed3d
000003b0: e6ba 69bc 8f9c 18be 9df5 043e 3e6d 843e
000003c0: 8fd6 81be 8360 993a bd01 b1bd 4f41 883d
000003d0: 0390 0d3d 1350 0ebe 2824 c73d a8bc cebd
000003e0: eb5c 62bd 71b3 54be e4a3 25be 5f49 953d
000003f0: 562e 863e da62 07be b941 07be 1a3b 8dbd

weight_hh_l1 f4 [60, 15]
-0.14985347 -0.22783375 -0.2978002 -0.032476448 0.2060705 -0.060710683 0.18486097 0.15526156
-0.22774082 0.10692022 0.08104547 -0.11383533 -0.026137121 -0.21173908 0.020686377 -0.08241699
0.05993607 0.04183846 0.15749973 -0.26685864 -0.22627021 0.055615347 -0.05806207 0.025462257
0.1119738 -0.21973008 -0.20338205 0.1767527 -0.08906645 -0.12960295 0.18718225 0.20669967
0.16182098 0.13394493 0.09978436 0.04179725 -0.23778893 -0.06090301 -0.15048897 -0.21892877
0.015700765 -0.038663898 -0.11515368 0.052258547 0.1690378 0.19038418 0.03309093 -0.2116357
-0.16842157 0.16807015 -0.13830326 0.16310932 0.2852336 -0.15296024 -0.18537709 0.16685618
0.037384752 0.062911734 -0.20375524 -0.18795575 0.23605119 0.12705185 0.22058146 -0.15093125
-0.26822674 -0.12376522 0.03566948 -0.11762503 0.078036755 0.24142723 0.22591396 -0.16339058
0.11101707 -0.23140754 -0.17924762 -0.23321918 0.0024832052 0.20541885 0.25331753 0.19568615
0.022440128 0.0033542686 0.05592993 0.2033218 0.040188756 -0.06783004 0.20560052 0.079313904
0.09241269 0.23164107 -0.08798855 0.16528279 -0.13851567 -0.02302842 0.15788561 0.14432618
0.27925134 0.22971028 -0.12288138 -0.15585494 -0.041589536 -0.28104007 -0.2396409 -0.044479582
0.09379068 0.24488477 -0.20180938 -0.23930874 0.19169194 -0.20473923 0.026585419 0.20666456
0.13734719 -0.14375536 -0.1601338 -0.14982286 -0.18864456 -0.20105648 0.16255514 0.22198129
-0.22166975 -0.14383224 0.23393986 0.19024399 -0.058987923 -0.09498362 0.13547789 0.3194711
-0.073477365 -0.26126742 -0.27250582 -0.07272738 -0.0013617469 0.04745904 -0.052628335 -0.14190783
-0.0021533826 -0.14539243 -0.14928469 0.19965914 0.053898934 0.06399704 0.05326056 0.17541572
0.1937915 -0.15879564 -0.17436281 -0.17951545 0.07703237 0.2053391 -0.02692386 0.25617206
-0.06341031 0.07071136 0.0102972705 -0.0065912483 -0.22424531 0.113982834 -0.11270573 -0.2473198
-0.12707059 0.040640887 0.18379758 -0.13883719 0.03874774 0.010446705 0.3402809 0.22931966
-0.19042073 -0.16841574 -0.19543739 0.19116652 0.27818653 -0.2302748 -0.21228683 -0.20765118
-0.07542454 -0.025914641 -0.09900579 0.008818467 -0.18717772 0.017331615 0.21841867 0.2149496
-0.01151274 -0.10051872 0.06692368 0.3039121 -0.2226347 0.15857269 -0.23372832 0.13400987
-0.24517572 0.2182962 0.27450395 -0.056212444 -0.09337779 -0.10332067 -0.012276638 0.18247351
-0.09035194 0.1215229 -0.04836355 -0.20588599 -0.23622671 0.08010392 0.17800415 -0.005708129
0.14215063 -0.20427695 -0.12886438 -0.042131506 0.020064121 -0.12844662 -0.10397798 -0.20466667
-0.21898618 0.08822349 -0.16860963 -0.13557263 0.096893825 -0.1286785 0.12778741 -0.16587864
0.20882258 0.16354221 0.18616213 0.13173798 0.20610742 0.07318543 0.005058585 0.22579986
-0.12831917 -0.13897286 0.043489557 -0.07124596 0.10453253 0.19184886 -0.10342129 0.17346962
-0.0028551675 -0.20474023 0.03620106 0.11130531 -0.28089008 0.10701342 0.17190027 -0.13748817
-0.057227 -0.16565599 -0.16477199 -0.1379931 -0.049458463 -0.08063211 0.118172444 0.1093803
00000000: 3073 19be 404d 69be 4579 98be 0606 05bd
00000010: 2504 533e c4ab 78bd 324c 3d3e e3fc 1e3e
00000020: e434 69be fdf8 da3d 2bfb a53d 7f22 e9bd
00000030: 841d d6bc 21d2 58be 7a76 a93c 3dca a8bd
00000040: 867f 753d ce5e 2b3d 9c47 213e b2a1 88be
00000050: 61b3 67be ebcc 633d 7ed2 6dbd 3996 d03c
00000060: 8552 e53d ec00 61be 6243 50be a9fe 343e
00000070: 7968 b6bd a3b6 04be b4ac 3f3e 14a9 533e
00000080: 66b4 253e dc28 093e be5b cc3d 9833 2b3d
00000090: f17e 73be 6f75 79bd c819 1abe dd2e 60be
000000a0: e49e 803c 095e 1ebd b1d5 ebbd 0f0d 563d
000000b0: 3f18 2d3e 12f4 423e 5b8a 073d 07b7 58be
000000c0: b476 2cbe 951a 2c3e 5f9f 0dbe 2106 273e
000000d0: 230a 923e 9ca1 1cbe 7ed3 3dbe 59dc 2a3e
000000e0: c120 193d ded7 803d 37a5 50be 7977 40be
000000f0: 67b7 713e e119 023e 1be0 613e b98d 1abe
00000100: 0455 89be 9f78 fdbd 291a 123d 64e5 f0bd
00000110: bcd1 9f3d b338 773e fd55 673e dc4f 27be
00000120: eb5c e33d 19f6 6cbe b08c 37be 02d1 6ebe
00000130: 45bd 223b 5259 523e d6b2 813e f361 483e
00000140: 5cd4 b73c 4ad3 5b3b c816 653d 9733 503e
00000150: f79c 243d 7aea 8abd f188 523e 546f a23d
00000160: dd42 bd3d 5133 6d3e 5733 b4bd e43f 293e
00000170: 0dd7 0dbe 19a6 bcbc c4ac 213e 3eca 133e
00000180: 08fa 8e3e 2c39 6b3e 3ca9 fbbd 7098 1fbe
00000190: ca59 2abd 7ce4 8fbe 6d64 75be 3930 36bd
000001a0: 5415 c03d 13c3 7a3e 1ea7 4ebe 5a0d 75be
000001b0: e44a 443e 29a7 51be aac9 d93c e09f 533e
000001c0: bea4 0c3e 9b34 13be 1dfa 23be 2a6b 19be
000001d0: 0a2c 41be c0e1 4dbe db74 263e 104f 633e
000001e0: 65fd 62be c248 13be ee8d 6f3e 52cf 423e
000001f0: 529d 71bd c686 c2bd b7ba 0a3e b791 a33e
00000200: 4d7b 96bd d8c4 85be e285 8bbe 18f2 94bd
00000210: a57c b2ba 6964 423d cf90 57bd 4950 11be
00000220: c41f 0dbb c1e1 14be 16de 18be 7273 4c3e
00000230: 21c5 5c3d e110 833d bf27 5a3d 2ea0 333e
00000240: 4771 463e 539b 22be 2a8c 32be e6d2 37be
00000250: 26c3 9d3d 6a44 523e 6d8f dcbc fc28 833e
00000260: 44dd 81bd 1ed1 903d e2b5 283c 66fb d7bb
00000270: 90a0 65be d56f e93d 43d2 e6bd 6741 7dbe
00000280: cb1e 02be 0f77 263d 6f35 3c3e 562b 0ebe
00000290: f3b5 1e3d a828 2b3c 4c39 ae3e c6d2 6a3e
000002a0: a7fd 42be 2d75 2cbe bd20 48be 28c1 433e
000002b0: 776e 8e3e 28cd 6bbe b861 59be 83a2 54be
000002c0: 2e78 9abd f14a d4bc 8cc3 cabd 557b 103c
000002d0: 84ab 3fbe 08fb 8d3c 25a9 5f3e bf1b 5c3e
000002e0: ee9f 3cbc c2dc cdbd 480f 893d 5e9a 9b3e
000002f0: 5afa 63be e160 223e 7a56 6fbe e239 093e
00000300: 580f 7bbe 0a89 5f3e c88b 8c3e 053f 66bd
00000310: db3c bfbd ca99 d3bd f423 49bc 56da 3a3e
00000320: 700a b9bd 00e1 f83d dc18 46bd c7d3 52be
00000330: 6ae5 71be 860d a43d b846 363e 420b bbbb
00000340: ef8f 113e fa2d 51be 06f5 03be 1692 2cbd
00000350: 835d a43c 8387 03be 68f2 d4bd 2494 51be
00000360: ea3d 60be 84ae b43d 01a8 2cbe 8dd3 0abe
00000370: 4570 c63d 4cc4 03be b4da 023e 17dc 29be
00000380: 96d5 553e 9c77 273e 49a1 3e3e 52e6 063e
00000390: d30d 533e 3ee2 953d 7dc2 a53b 1438 673e
000003a0: 1a66 03be e74e 0ebe 1b22 323d 67e9 91bd
000003b0: 2715 d63d 0774 443e 8bce d3bd 05a2 313e
000003c0: c31d 3bbb 6ca7 51be 9047 143d 0af4 e33d
000003d0: d3d0 8fbe da29 db3d a006 303e b3c9 0cbe
000003e0: dc66 6abd b9a1 29be fdb9 28be 104e 0dbe
000003f0: f594 4abd 7322 a5bd 6504 f23d c702 e03d

bias_ih_l1 f4 [60]
0.21305342 -0.03836955 -0.09980452 0.10083756 0.0654341 -0.14202452 0.04902301 -0.0788612
0.08793333 -0.06725526 -0.25142813 0.28464648 0.17026196 0.030219508 -0.19133937 0.16315423
-0.23988958 -0.11970406 -0.20128238 -0.04098878 0.16874015 -0.021951538 0.13626164 0.14437026
-0.0033995323 -0.24422914 0.19127525 0.11410217 -0.06351135 0.0147697665 -0.067208484 0.033880405
0.24680775 0.03290709 0.06529064 -0.05387022 -0.16042365 0.21930584 -0.07720072 0.19916679
-0.17168026 -0.12936865 0.29958987 -0.0027481501 -0.28021258 -0.19698316 -0.22900395 -0.20250867
-0.24199237 -0.16252263 0.23593767 0.16621795 -0.24426673 0.26194912 0.08829234 -0.2350532
-0.031585895 -0.18299633 0.115828164 0.24570616
00000000: ad2a 5a3e 6429 1dbd 5066 ccbd ec83 ce3d
00000010: 5002 863d e06e 11be 5acc 483d fb81 a1bd
00000020: 6416 b43d 20bd 89bd 30bb 80be 2fbd 913e
00000030: 2759 2e3e e78e f73c 78ee 43be e711 273e
00000040: 9da5 75be 6727 f5bd f81c 4ebe dae3 27bd
00000050: 38ca 2c3e b6d3 b3bc 2c88 0b3e ccd5 133e
00000060: b0ca 5ebb 3417 7abe a9dd 433e 66ae e93d
00000070: 3d12 82bd e4fc 713c 9aa4 89bd 2ec6 0a3d
00000080: 2cbb 7c3e 96c9 063d 19b7 853d 05a7 5cbd
00000090: 1946 24be b691 603e 691b 9ebd 61f2 4b3e
000000a0: f3cc 2fbe 3779 04be d863 993e 4f1a 34bb
000000b0: 0678 8fbe f4b5 49be 0380 6abe 6f5e 4fbe
000000c0: d9cc 77be 556c 26be a599 713e 0a35 2a3e
000000d0: 0f21 7abe 321e 863e 9dd2 b43d c9b1 70be
000000e0: 3660 01bd 6463 3bbe 5137 ed3d 659a 7b3e

bias_hh_l1 f4 [60]
-0.2003627 -0.17761137 -0.027202731 0.09376121 0.12819259 -0.06803436 -0.22328107 0.20162989
0.22941726 -0.045009863 0.054591518 0.13324939 -0.18097112 0.20936301 0.18038362 -0.19959925
-0.16073073 0.09209025 0.0913519 -0.27196544 0.0002084748 0.07147149 -0.24522279 -0.15017617
0.11446114 -0.13938238 -0.07252749 -0.15539186 -0.20216355 0.112780415 -0.024523208 0.14092118
0.24002486 -0.05839491 0.19001237 -0.24668929 0.14072897 -0.102547675 -0.23969837 -0.02691507
-0.032349702 0.09258149 0.15735334 -0.1349934 -0.18637902 0.11483663 -0.16130355 -0.032215502
-0.15567216 -0.17463501 0.26170564 0.14716586 -0.024116796 0.32571477 0.19200827 -0.037376538
-0.1884156 0.22454719 0.14970994 -0.12118088
00000000: e12b 4dbe c1df 35be 43d8 debc e105 c03d
00000010: eb44 033e 9955 8bbd cba3 64be 1178 4e3e
00000020: 5cec 6a3e 435c 38bd 5b9b 5f3d 8772 083e
00000030: 7e50 39be 4263 563e 7cb6 383e bf63 4cbe
00000040: 9996 24be d099 bc3d b416 bb3d 0e3f 8bbe
00000050: 079a 5a39 a55f 923d af1b 7bbe c8c7 19be
00000060: 9a6a ea3d 41ba 0ebe 4b89 94bd 0b1f 1fbe
00000070: f603 4fbe 6bf9 e63d e5e4 c8bc a44d 103e
00000080: 14c9 753e 802f 6fbd 9a92 423e 1e9c 7cbe
00000090: 411b 103e 8404 d2bd 7d73 75be fe7c dcbc
000000a0: 1f81 04bd 5d9b bd3d 3c21 213e b63b 0abe
000000b0: 24da 3ebe 782f eb3d c22c 25be 67f4 03bd
000000c0: 8668 1fbe 85d3 32be 48fe 853e a6b2 163e
000000d0: 9690 c5bc 16c4 a63e d19d 443e 2418 19bd
000000e0: 05f0 40be b3ef 653e 904d 193e ae2d f8bd

weight_ih_l2 f4 [60, 15]
-0.04398203 0.14170979 0.22564712 0.17163672 0.15158725 0.15373044 -0.014521193 0.029778067
0.05183005 -0.2531673 0.20919363 -0.24215735 -0.20098619 -0.0099426005 -0.08072863 -0.24181312
0.044157494 -0.14073041 0.17666647 -0.19065884 0.20233378 -0.09218233 0.06598985 0.27557498
-0.10054571 -0.07554723 -0.25278458 -0.30720502 0.14244612 -0.110123456 -0.08696975 0.15751545
-0.13571016 0.3749567 -0.24772213 -0.1690538 0.14343445 -0.17542721 0.32912055 -0.25641608
0.07750337 -0.19741507 -0.13939151 -0.1487942 -0.03943396 -0.16083492 -0.00016042701 -0.25643912
0.12461323 -0.2117381 0.053029798 -0.18237144 0.07293068 0.3107513 -0.16478387 -0.032308444
-0.18437487 -0.15692887 -0.023912514 0.14902626 0.140642 0.12057548 -0.02319664 -0.118382744
-0.024276463 0.25288138 0.01210388 0.16205692 0.16214268 0.021994619 0.027291114 -0.11792388
-0.122277215 0.24839605 -0.073596135 -0.09590819 0.0019058489 -0.17261225 -0.19327521 -0.13885736
0.16112936 0.15183413 -0.16012895 0.2032089 0.020753708 0.19392096 0.23630431 0.043509755
0.07412323 0.05036245 0.17167336 -0.1498266 -0.23528707 0.12199019 -0.18413475 0.012471226
-0.15297422 -0.10818518 0.40893796 -0.03448118 -0.14713275 -0.026283085 -0.013869132 0.054927897
0.08390663 -0.077091046 -0.13541684 -0.00028107726 0.3867807 -0.34846815 0.051971853 0.14211397
-0.073511876 0.08836953 -0.2053871 -0.21853085 -0.035531033 -0.35689408 0.20290959 0.23442039
0.25897107 0.19586568 -0.021150107 -0.039121002 0.0012934784 0.17825672 0.005747848 0.17284589
0.12698615 0.03855755 -0.17128532 -0.29825163 -0.18748942 -0.19164734 0.1447189 -0.11129661
0.059540812 0.1339357 0.28745857 -0.13440989 0.11789181 0.041760243 -0.136499 -0.010271661
-0.28796905 -0.08110623 -0.340894 -0.22006142 0.12551612 0.2456075 0.08325753 0.0037980503
-0.002018622 0.09715417 -0.29825586 0.18539236 -0.00960709 -0.051694103 -0.004412487 0.07902746
-0.4079504 -0.33108258 0.055178184 0.107466415 0.14600812 -0.13035977 -0.1434796 -0.1635873
0.078334965 -0.035940766 0.10996104 -0.18083766 0.07406768 0.009957605 -0.2649167 0.1131707
-0.096377045 0.03821054 0.23615055 0.26792365 0.06468856 -0.13568026 -0.16374312 0.13994046
0.06713705 0.18084691 0.08211155 -0.15820517 0.27328292 -0.11546307 -0.101052724 -0.2939828
0.13734902 -0.12366111 0.20384063 0.18131588 -0.025823679 -0.19209461 -0.068248354 -0.14427057
0.0679285 0.14459491 -0.18821816 0.29300794 0.05914268 0.031570487 -0.33251682 -0.07595896
0.13101853 -0.02173318 -0.12759934 0.15652215 -0.017454674 0.3260411 -0.08165233 -0.038764074
0.031954013 0.22102652 0.13977692 -0.20885961 0.030568533 -0.02448351 -0.27780256 -0.095289946
0.3135029 -0.13322115 0.014939121 -0.28086084 0.3255484 0.008938853 0.17916685 -0.1332984
0.11379858 -0.0956076 -0.2678272 0.12832677 -0.27375937 -0.18922937 -0.06620486 0.28671932
-0.044366088 0.034922607 -0.22175302 0.32075563 -0.059002228 0.2369603 0.17626329 0.36701265
0.13210437 0.05435328 0.07269209 -0.35668018 0.0014349349 -0.051753674 0.26721916 -0.21875782
00000000: 8026 34bd 5f1c 113e 0a10 673e 89c1 2f3e
00000010: b039 1b3e 836b 1d3e 4cea 6dbc 22f1 f33c
00000020: bf4b 543d 259f 81be db36 563e 19f8 77be
00000030: 53cf 4dbe 4ae6 22bc 0d55 a5bd dc9d 77be
00000040: 7dde 343d a21b 10be 0ee8 343e 123c 43be
00000050: 9630 4f3e 17ca bcbd b025 873d 2a18 8d3e
00000060: e9ea cdbd 82b8 9abd fb6c 81be fa49 9dbe
00000070: 65dd 113e 6888 e1bd 321d b2bd bb4b 213e
00000080: 9bf7 0abe 53fa bf3e dfaa 7dbe 701c 2dbe
00000090: 7be0 123e 31a3 33be 7d82 a83e f848 83be
000000a0: 16ba 9e3d 2d27 4abe a6bc 0ebe 825d 18be
000000b0: 8185 21bd e9b1 24be 4c38 28b9 fd4b 83be
000000c0: 3935 ff3d dfd1 58be c635 593d 94bf 3abe
000000d0: ae5c 953d cb1a 9f3e 1abd 28be dc55 04bd
000000e0: c4cc 3cbe f6b1 20be 2de4 c3bc 579a 183e
000000f0: 7504 103e 47f0 f63d e106 bebc a772 f2bd
00000100: 6fdf c6bc ab79 813e 5a4f 463c 40f2 253e
00000110: bb08 263e 0f2e b43c 9d91 df3c 1382 f1bd
00000120: 7a6c fabd 895b 7e3e 92b9 96bd 836b c4bd
00000130: adcd f93a 44c1 30be f0e9 45be a030 0ebe
00000140: 18ff 243e 687a 1b3e d8f8 23be fe15 503e
00000150: ae03 aa3c 3793 463e c2f9 713e 4937 323d
00000160: eccd 973d db48 4e3d 24cb 2f3e 256c 19be
00000170: 18ef 70be fed5 f93d d28d 3cbe 1d54 4c3c
00000180: 46a5 1cbe 3190 ddbd 5160 d13e 233c 0dbd
00000190: f8a9 16be a04f d7bc 5b3b 63bc 13fc 603d
000001a0: 3dd7 ab3d e9e1 9dbd b6aa 0abe 8d5d 93b9
000001b0: 1f08 c63e 6b6a b2be 70e0 543d 5386 113e
000001c0: 658d 96bd 16fb b43d ff50 52be 8dc6 5fbe
000001d0: fd88 11bd d2ba b6be 88c7 4f3e e60b 703e
000001e0: db97 843e 0391 483e fd42 adbc 583d 20bd
000001f0: ef89 a93a ee88 363e 7258 bc3b 83fe 303e
00000200: a808 023e 86ee 1d3d 6b65 2fbe 70b4 98be
00000210: 3afd 3fbe 333f 44be 3131 143e 7aef e3bd
00000220: 11e1 733d 7126 093e c52d 933e bfa2 09be
00000230: 4371 f13d ca0c 2b3d 65c6 0bbe 784a 28bc
00000240: ae70 93be 061b a6bd a989 aebe c857 61be
00000250: 4c87 003e 8880 7b3e ed82 aa3d b6e8 783b
00000260: db4a 04bb c4f8 c63d feb4 98be 7fd7 3d3e
00000270: 0e67 1dbc 32bd 53bd a096 90bb 26d9 a13d
00000280: e0de d0be a883 a9be 8502 623d 5a17 dc3d
00000290: 2783 153e 087d 05be 51ec 12be 6e83 27be
000002a0: 156e a03d a036 13bd 4133 e13d 822d 39be
000002b0: ccb0 973d 3925 233c 29a3 87be 0ac6 e73d
000002c0: 5461 c5bd a882 1c3d 73d1 713e 4a2d 893e
000002d0: 707b 843d c4ef 0abe 47ac 27be 8d4c 0f3e
000002e0: 267f 893d ef2f 393e 1a2a a83d 8900 22be
000002f0: bdeb 8b3e e777 ecbd bbf4 cebd ea84 96be
00000300: 39a5 0c3e 0942 fdbd 99bb 503e dfaa 393e
00000310: 2e8c d3bc 73b4 44be cbc5 8bbd aabb 13be
00000320: 191e 8b3d b010 143e 43bc 40be 2305 963e
00000330: 983f 723d 0e50 013d a53f aabe 5f90 9bbd
00000340: b929 063e c809 b2bc 67a9 02be 5847 203e
00000350: 1bfd 8ebc dcee a63e 5639 a7bd 14c7 1ebd
00000360: 36e2 023d c754 623e ae21 0f3e 4bdf 55be
00000370: dc6a fa3c a491 c8bc 233c 8ebe 6027 c3bd
00000380: 7483 a03e 206b 08be 37c3 743c fecc 8fbe
00000390: 48ae a63e 4474 123c 8477 373e 607f 08be
000003a0: 3b0f e93d ebcd c3bd a620 89be 1868 033e
000003b0: 302a 8cbe 58c5 41be 6a96 87bd e0cc 923e
000003c0: 37b9 35bd 020b 0f3d 3913 63be 153a a43e
000003d0: 52ac 71bd b9a5 723e 5d7e 343e 15e9 bb3e
000003e0: 5e46 073e 8ca1 5e3d 97df 943d c99e b6be
000003f0: 6d14 bc3a a9fb 53bd f3d0 883e 0d02 60be

weight_hh_l2 f4 [60, 15]
-0.27186477 -0.0662304 -0.14968024 0.07896556 0.0055914978 0.110001795 -0.201001 -0.04117111
-0.018136613 0.1374129 0.10811713 0.16860719 -0.050391693 0.088305295 -0.32998195 -0.08996825
-0.25136796 -0.20756604 -0.071138784 0.07610689 0.13185723 0.05826633 -0.0023207464 -0.039868984
0.0010777891 0.07654895 -0.086521395 0.09507453 0.14272834 -0.24877131 -0.028655231 0.11108536
0.1774667 -0.13220437 -0.24612418 -0.20332524 -0.2100271 0.13496496 0.14538568 0.08432198
-0.24946648 0.053268835 -0.07078092 0.14946894 0.06551111 0.107616834 0.13698661 0.19047959
0.22951417 0.044900917 0.15954039 -0.20250894 -0.14628662 0.26002082 0.15590386 -0.12729004
0.26334324 -0.1020046 -0.00056924985 0.1258564 0.14669535 -0.17704435 0.13725342 0.10144576
0.016870057 0.07156645 -0.061254557 0.095901445 0.21971099 0.114750095 -0.14465155 -0.14926355
-0.033922076 -0.09346079 -0.20221528 -0.16331217 -0.027139423 -0.21948342 -0.10048449 0.1416738
0.020876206 -0.031284336 -0.16573948 -0.13388333 0.10480352 -0.08331979 0.2055997 -0.1942447
0.2590602 -0.1598285 -0.12053321 0.07660329 0.14443433 0.12356425 0.14394136 -0.22642684
0.18221584 0.09687348 0.120540544 0.12544489 -0.26639736 -0.14732653 -0.14459488 0.05628823
-0.12841609 0.007721037 0.10995888 -0.041758545 -0.24078013 -0.02336336 -0.15344322 0.0090618655
-0.114635035 0.13564551 0.23253134 0.21807916 -0.186582 -0.15102822 0.016008494 -0.10064739
0.23368222 0.048516303 -0.046541378 -0.23117237 0.24221264 0.22796594 -0.1457348 0.07630585
0.04202223 -0.097529985 -0.03342556 0.26951927 0.21451175 -0.21911918 -0.11434205 -0.13159391
-0.0914796 -0.07648409 -0.033559877 0.07145073 0.10930788 -0.0043061543 0.20404041 -0.03665295
0.16703789 0.203748 -0.185346 0.26629993 0.041269228 -0.21169247 0.008707018 0.12392247
0.14582051 0.0143537 -0.08244224 -0.1746499 0.05609481 0.06071488 0.04608243 0.19857079
-0.13266703 -0.022876123 0.1605017 0.028285714 -0.21445203 0.1230198 0.14482838 0.091487944
0.019967202 -0.080482475 -0.038683463 -0.05128995 0.12530592 0.16146618 -0.046750594 -0.0074216323
-0.11267393 0.16602011 0.18269569 -0.20722504 0.08828351 0.09686316 0.035309825 -0.14553434
-0.027064662 0.008782009 -0.2294698 0.008681287 0.16742525 0.040668696 0.026057571 0.22950867
-0.10703139 -0.04300444 -0.22604479 -0.056396652 -0.09309697 -0.03874244 -0.22173977 -0.20850186
-0.064406715 0.23669823 -0.090626135 0.1257018 0.05713218 -0.17045268 0.013187676 -0.10919204
0.12213092 0.16192852 0.06430227 -0.14895494 0.10495049 0.10153618 -0.0059021935 0.10031204
0.17488438 0.24578403 -0.23788871 -0.10875804 -0.10902677 0.05735485 0.114542775 -0.13348557
-0.067812756 0.034057118 0.24254918 -0.22790965 -0.09290736 -0.0899196 -0.08637459 0.049634397
-0.09033279 0.11350493 -0.21414378 -0.17104082 -0.20064873 -0.18494233 0.27271932 -0.30119166
0.049944032 -0.18405943 -0.14336912 0.16718751 -0.054205317 -0.093514785 -0.15889859 0.04954577
-0.041491073 -0.1607495 -0.17742372 0.1997288 -0.13175808 0.22296718 -0.12027295 0.13324234
00000000: dc31 8bbe cea3 87bd c745 19be b2b8 a13d
00000010: e238 b73b 9f48 e13d 35d3 4dbe 0aa3 28bd
00000020: 3c93 94bc f8b5 0c3e 846c dd3d 5da7 2c3e
00000030: 8567 4ebd 68d9 b43d 65f3 a8be 4641 b8bd
00000040: 4db3 80be 318c 54be 36b1 91bd eedd 9b3d
00000050: 9505 073e ada8 6e3d aa17 18bb a94d 23bd
00000060: 9a44 8d3a b2c5 9c3d 2132 b1bd 6fb6 c23d
00000070: 6127 123e e8bd 7ebe 60be eabc b980 e33d
00000080: d5b9 353e 9560 07be fa07 7cbe 7e34 50be
00000090: 5811 57be 4134 0a3e fcdf 143e 01b1 ac3d
000000a0: 2474 7fbe 6c30 5a3d 96f5 90bd 630e 193e
000000b0: b02a 863d 3766 dc3d 3846 0c3e 150d 433e
000000c0: c305 6b3e 06ea 373d 8e5e 233e 815e 4fbe
000000d0: 29cc 15be 7321 853e 43a5 1f3e 5258 02be
000000e0: edd4 863e cae7 d0bd b639 15ba 80e0 003e
000000f0: 4e37 163e 1d4b 35be 298c 0c3e cbc2 cf3d
00000100: 1333 8a3c 6e91 923d 0fe6 7abd fa67 c43d
00000110: ebfb 603e 1902 eb3d 891f 14be 8bd8 18be
00000120: e0f1 0abd 5f68 bfbd 8611 4fbe 4e3b 27be
00000130: 7f53 debc 43c0 60be d0ca cdbd f012 113e
00000140: 9404 ab3c 0124 00bd 9cb7 29be b618 09be
00000150: 3aa3 d63d 91a3 aabd ba88 523e 15e8 46be
00000160: 8aa3 843e 15aa 23be 1eda f6bd 30e2 9c3d
00000170: 98e6 133e 410f fd3d 5d65 133e 70dc 67be
00000180: ca96 3a3e 9a65 c63d f6dd f63d a074 003e
00000190: 3c65 88be c4dc 16be ae10 14be 7d8e 663d
000001a0: 827f 03be c100 fd3b 1f32 e13d 020b 2bbd
000001b0: 118f 76be 8464 bfbc 3820 1dbe 3878 143c
000001c0: c6c5 eabd a8e6 0a3e b21c 6e3e 2550 5f3e
000001d0: 5a0f 3fbe 24a7 1abe 3f24 833c 3820 cebd
000001e0: 644a 6f3e 08b9 463d 2ca2 3ebd 73b8 6cbe
000001f0: 9706 783e e76f 693e 813b 15be 3e46 9c3d
00000200: 801f 2c3d cdbd c7bd 3de9 08bd 6efe 893e
00000210: f8a8 5b3e c760 60be 2a2c eabd 8ec0 06be
00000220: a859 bbbd b1a3 9cbd 1576 09bd c354 923d
00000230: cfdc df3d a41a 8dbb f8ef 503e 6721 16bd
00000240: fb0b 2b3e 51a3 503e 58cb 3dbe 7758 883e
00000250: ec09 293d e9c5 58be e1a7 0e3c 10cb fd3d
00000260: f951 153e c82b 6b3c 7ad7 a8bd 6cd7 32be
00000270: acc3 653d 2ab0 783d eec0 3c3d 2456 4b3e
00000280: ded9 07be b566 bbbc 8f5a 243e 71b7 e73c
00000290: 5099 5bbe cef1 fb3d e44d 143e 085e bb3d
000002a0: 4292 a33c ffd3 a4bd 8d72 1ebd 6915 52bd
000002b0: 3250 003e 6457 253e 8d7d 3fbd 2a31 f3bb
000002c0: 97c1 e6bd 2d01 2a3e 9414 3b3e cd32 54be
000002d0: fccd b43d 3160 c63d 09a1 103d f406 15be
000002e0: b6b6 ddbc 6ae2 0f3c 22fa 6abe f53b 0e3c
000002f0: 8671 2b3e 3894 263d b076 d53c 5204 6b3e
00000300: 4633 dbbd 6c25 30bd 4978 67be 2d00 67bd
00000310: a0a9 bebd 65b0 1ebd c00f 63be 8381 55be
00000320: abe7 83bd 0561 723e 329a b9bd f9b7 003e
00000330: 6f03 6a3d 268b 2ebe 1f11 583c 14a0 dfbd
00000340: c71f fa3d 97d0 253e e9b0 833d a587 18be
00000350: 48f0 d63d 33f2 cf3d 3067 c1bb 6670 cd3d
00000360: e414 333e cfae 7b3e 1999 73be 89bc debd
00000370: 6d49 dfbd ebec 6a3d 6795 ea3d 71b0 08be
00000380: 6ae1 8abd 7a7f 0b3d d05e 783e 2661 69be
00000390: 3746 bebd c427 b8bd 29e5 b0bd 704d 4b3d
000003a0: 6600 b9bd 4675 e83d 8248 5bbe 5325 2fbe
000003b0: dc76 4dbe 8661 3dbe dea1 8b3e cb35 9abe
000003c0: 1d92 4c3d 137a 3cbe 5bcf 12be 3433 2b3e
000003d0: 6506 5ebd ae84 bfbd 50b6 22be 81f0 4a3d
000003e0: 8bf2 29bd 849b 24be 90ae 35be b585 4c3e
000003f0: 97eb 06be 8251 643e aa51 f6bd ae70 083e

bias_ih_l2 f4 [60]
0.048986796 0.12931582 0.077923544 -0.23101492 -0.06885468 0.18253489 -0.24021173 -0.10288636
-0.30633748 0.007986987 -0.014476347 -0.29753286 -0.10510437 0.033040203 0.021008153 0.11843449
0.0070212535 0.20197317 -0.09802604 -0.23648478 0.14660385 -0.09175446 0.029914115 -0.10230754
0.09960982 -0.033400726 0.0037494996 0.013003031 -0.20929739 0.009798007 -0.19643548 -0.012492778
0.19881725 0.04605974 -0.03786627 0.04420333 -0.111921005 -0.16352703 -0.056852303 -0.09564531
0.010758823 0.082972586 0.06504654 0.007168534 -0.21519512 0.11702303 -0.044754174 -0.04499341
-0.30315572 0.21444027 -0.14511888 0.0052666343 -0.2219214 0.09958929 0.08212322 -0.26365417
-0.34455094 -0.19343711 -0.3029865 0.009986706
00000000: 61a6 483d 5e6b 043e 6196 9f3d 2d8f 6cbe
00000010: af03 8dbd 6dea 3a3e 10fa 75be 15b6 d2bd
00000020: 44d8 9cbe dadb 023c 332e 6dbc 3a56 98be
00000030: f640 d7bd 2a55 073d 4a19 ac3c c88d f23d
00000040: 8b12 e63b 0ed2 4e3e e0c1 c8bd 1129 72be
00000050: 521f 163e c3e9 bbbd 720e f53c 9e86 d1bd
00000060: 3c00 cc3d 33cf 08bd 2aba 753b aa0a 553c
00000070: 0e52 56be d287 203c 6226 49be 82ae 4cbc
00000080: c096 4b3e 23a9 3c3d a919 1bbd 8d0e 353d
00000090: d736 e5bd a173 27be f6dd 68bd b0e1 c3bd
000000a0: c645 303c 88ed a93d 1f37 853d 06e6 ea3b
000000b0: 1c5c 5cbe c5a9 ef3d 2750 37bd 034b 38bd
000000c0: 3a37 9bbe 3b96 5b3e 0b9a 14be bb93 ac3b
000000d0: 5d3f 63be 78f5 cb3d 3830 a83d aefd 86be
000000e0: fb68 b0be 6114 46be 0c21 9bbe 489f 233c

bias_hh_l2 f4 [60]
0.18338713 -0.26869807 -0.09584792 -0.24330886 0.20233606 -0.18878672 -0.3865153 -0.31222653
-0.16995189 -0.31420568 -0.17321466 -0.346695 -0.28631803 -0.0949807 -0.2474147 -0.10378543
-0.35301006 -0.1519657 -0.17733006 -0.0041041574 -0.2015832 -0.0003777131 -0.08099062 0.060040142
0.16077764 0.076684766 0.12566134 -0.2726441 -0.20183732 -0.16900708 0.11630513 0.02264184
0.13154596 -0.0379209 -0.010649154 -0.017558314 -0.089174636 0.03914612 -0.15014686 0.20677447
0.008530629 -0.10933104 -0.06710932 -0.062471174 0.20691632 0.049655702 -0.108471945 0.13695316
-0.07755624 -0.16724572 0.08686942 0.08591738 -0.24203439 -0.04454864 -0.2461133 -0.37648293
-0.19145991 -0.03781746 -0.13936456 0.070002556
00000000: d6c9 3b3e cb92 89be ea4b c4bd f525 79be
00000010: 2f31 4f3e 4e51 41be 55e5 c5be 28dc 9fbe
00000020: de07 2ebe 91df a0be 2f5f 31be 0282 b1be
00000030: 4798 92be 3e85 c2bd 475a 7dbe 758d d4bd
00000040: bcbd b4be e59c 1bbe 0396 35be 2b7c 86bb
00000050: d46b 4ebe cb07 c6b9 69de a5bd a7ec 753d
00000060: e5a2 243e e70c 9d3d 5ead 003e 0298 8bbe
00000070: 71ae 4ebe 3110 2dbe 6231 ee3d 617b b93c
00000080: fcb3 063e f252 1bbd ca79 2ebc 74d6 8fbc
00000090: 31a1 b6bd af57 203d 19c0 19be b0bc 533e
000000a0: 0dc4 0b3c f4e8 dfbd 9c70 89bd c6e1 7fbd
000000b0: dfe1 533e c763 4b3d 8a26 debd 733d 0c3e
000000c0: ced5 9ebd 7642 2bbe 98e8 b13d 74f5 af3d
000000d0: ddd7 77be a278 36bd 2005 7cbe 5fc2 c0be
000000e0: 110e 44be 7be6 1abd 95b5 0ebe 805d 8f3d

weight_ih_l0 f4 [4, 1]
0.59817594 0.13808805 1.2848959 -0.992664
00000000: 0f22 193f f466 0d3e 7877 a43f 3a1f 7ebf

weight_hh_l0 f4 [4, 1]
0.26089063 0.42944664 -0.25686458 0.02382639
00000000: 7593 853e 6ee0 db3e c183 83be 902f c33c

bias_ih_l0 f4 [4]
-0.3055056 -0.26780987 0.7836233 -0.06721232
00000000: 3b6b 9cbe 601e 89be 899b 483f 9da6 89bd

bias_hh_l0 f4 [4]
-0.17747036 0.11709067 0.20846528 -0.59027857
00000000: caba 35be 3ccd ef3d ec77 553e 7f1c 17bf

weight f4 [32, 1]
-0.51149166 0.70942825 0.7998137 0.36276013 -0.89260733 0.73814493 -0.6890966 -0.41249985
-0.56876093 0.1084478 0.59402853 -0.9177365 -0.87906575 0.95524514 -0.42061818 -0.8093978
0.35828918 -0.3676518 -0.42424694 -0.6568839 0.020781621 0.23516302 0.027310262 0.99578
0.09048832 -0.21510258 0.49687967 -0.524582 0.91802436 -0.8339162 0.32650152 0.4748696
00000000: 1ef1 02bf 179d 353f 97c0 4c3f b2bb b93e
00000010: ea81 64bf 11f7 3c3f a368 30bf 2e33 d3be
00000020: 519a 11bf e119 de3d 4112 183f c7f0 6abf
00000030: 740a 61bf f28a 743f 445b d7be b234 4fbf
00000040: ae71 b73e db3c bcbe e536 d9be 8b29 28bf
00000050: 383e aa3c 93ce 703e c5b9 df3c 70eb 7e3f
00000060: f151 b93d da43 5cbe 0367 fe3e 024b 06bf
00000070: a503 6b3f 887b 55bf 352b a73e 1c22 f33e

bias f4 [32]
0.6433008 -0.964179 0.47663683 0.21837677 0.24370879 -0.6762057 -0.3999171 -0.8235186
0.7274677 0.56376183 -0.6947681 -0.33685273 -0.56432223 -0.96357745 -1.0094163 -0.4195517
-0.59113115 -0.3999021 0.3850757 -0.6694116 0.4916897 0.69076526 0.83183354 -0.08098234
-0.9360952 -0.7468848 0.019461881 0.22855422 -0.65145403 0.7786931 0.4596964 0.3744661
00000000: 5caf 243f 6fd4 76bf be09 f43e 299e 5f3e
00000010: cc8e 793e d11b 2dbf efc1 ccbe 1dd2 52bf
00000020: 533b 3a3f b252 103f 52dc 31bf f677 acbe
00000030: 6c77 10bf 03ad 76bf 8e34 81bf 7bcf d6be
00000040: 5f54 17bf f8bf ccbe a428 c53e 8f5e 2bbf
00000050: c1be fb3e fed5 303f 0bf3 543f 12da a5bd
00000060: efa3 6fbf d833 3fbf 866e 9f3c 1e0a 6a3e
00000070: b1c5 26bf 6e58 473f 545d eb3e 05ba bf3e
