experiments/DT-VAE-GAN_county_decreasing_late_peak/saved_model/vae_gan_trained_model.pth (torch, 300018 bytes, 73 tensors)

weight_ih_l0 f4 [8, 2]
000000 4e 3f 98 3e 82 49 0c 3f d1 a7 4b bf ec aa 84 3e
       0.29735798 0.54799664 -0.7955294 0.25911653
000010 62 59 8d 3e de 6d 8c bd 78 76 8f bf 24 62 8f bf
       0.27607256 -0.06856893 -1.1208029 -1.1201825
000020 81 b3 65 3f 5e d9 d6 3e d7 78 6b bf 7a fc 0a 3f
       0.89727026 0.41962713 -0.9198126 0.542915
000030 e4 c8 8a 3e 1d 26 a1 3e e2 4f ef be 06 a9 a2 bf
       0.27106392 0.3147439 -0.46740633 -1.2707832

weight_hh_l0 f4 [8, 2]
000000 8c a2 27 bf 3b 41 a2 3e 30 f3 a3 3e 24 c8 0d 3f
       -0.654824 0.31690392 0.32021475 0.55383515
000010 64 e9 b2 be a5 c7 3d be fa 85 63 be 2d e1 17 3f
       -0.34943688 -0.1853319 -0.22219077 0.59327966
000020 61 a1 9c be 03 cf 85 bc 7f 16 da be 06 08 a1 be
       -0.30591872 -0.016334062 -0.42595288 -0.31451434
000030 e9 c1 0c bd 0d 5d 78 3f 0e 1c 6b bd e1 bf 04 bc
       -0.034364615 0.97016984 -0.057399802 -0.008102388

bias_ih_l0 f4 [8]
000000 40 74 26 be d5 68 18 bf 6f 54 0f bf d6 32 e3 be
       -0.16255283 -0.5953496 -0.5598821 -0.44374722
000010 22 8e 23 3d 88 32 8b 3e 07 8e 62 3f 71 44 3a be
       0.03993047 0.2718699 0.88497967 -0.18190171

bias_hh_l0 f4 [8]
000000 0f bb e8 3e 61 47 37 3f 68 1f d0 bd b3 d5 23 3f
       0.45455214 0.7159329 -0.1016224 0.63997954
000010 67 d2 2a 3e 79 ae 2a 3f 7e 14 f8 bd c7 cd 24 3f
       0.16681825 0.66672474 -0.121132836 0.6437649

weight f4 [32, 2]
000000 70 96 a7 3e 44 f5 31 bf 99 05 59 3f 8f 31 f8 be
       0.32731962 -0.6951487 0.84774166 -0.4847531
000010 4b 38 71 3f ce dc fd be e5 a2 69 be b6 06 3e bf
       0.9422652 -0.49582523 -0.22816046 -0.7422899
000020 4c 81 1a 3c 95 84 01 3f b2 1f 3e bf a3 4e df be
       0.009430241 0.5059293 -0.74267113 -0.43614683
000030 8a 89 4f bd 4b ad 05 bf a9 1d 86 3e d6 c6 0f bf
       -0.050668277 -0.5221755 0.26194504 -0.56162775
000040 14 3c 73 be ff 3b 97 be a0 24 af bd 6b c1 d0 be
       -0.23753387 -0.2953796 -0.085519075 -0.40772566
000050 a3 6d 9f 3e ed 21 48 bf 67 e4 b9 bd ae cb 85 3e
       0.31138334 -0.78176767 -0.090767674 0.26131958
000060 bf ae 4c 3e dc 45 39 3d dc ff 20 3f bd 14 8b 3e
       0.19988535 0.04523264 0.6289041 0.2716426
000070 1b 76 4f 3f 90 9b 2b bf 7c 87 f6 be 89 56 27 3c
       0.8103959 -0.67034245 -0.4815024 0.010213503
000080 2b de 2b bd e6 8d db bd f3 d2 75 bf 2c f4 20 3f
       -0.041959923 -0.10720424 -0.9602501 0.62872577
000090 35 d6 94 bf 43 53 bd 3e f7 fe 42 3f 17 39 31 bf
       -1.1627871 0.36977586 0.76170295 -0.6922774
0000a0 c3 e3 db be 0a 05 24 3f 5c e3 60 bf aa 90 cc 3e
       -0.42947206 0.6407019 -0.8784692 0.3995412
0000b0 ac 6d 63 bf 1e 9c ac be 57 da f9 3e 9c 9c 2a bf
       -0.8883922 -0.33712858 0.48799393 -0.66645217
0000c0 17 a1 a6 3d e0 f8 c8 3e 14 4c e2 3c 22 2a 36 be
       0.08136194 0.39252377 0.027624168 -0.1778951
0000d0 40 f2 4a bf 38 e1 05 3f 0b ef 80 3e 6a 31 1c 3f
       -0.79275894 0.5229678 0.25182375 0.610129
0000e0 77 46 40 3f 85 e3 69 3d 80 31 b4 be f8 16 ae 3e
       0.7510752 0.057101745 -0.35194016 0.340019
0000f0 1a e8 08 bf a9 b7 38 3f 0a 59 33 3f bb 4c 03 bf
       -0.5347916 0.72155243 0.7005774 -0.51288956

bias f4 [32]
000000 06 e0 a1 be 26 52 9c be 32 b8 13 bf e6 13 25 bd
       -0.3161623 -0.30531424 -0.57702935 -0.04030218
000010 89 1d 4a 3f 66 88 a6 bd 52 84 5e 3e 25 71 0f bf
       0.7895132 -0.08131485 0.21730164 -0.5603202
000020 3f 06 00 bf cd ed 7e 3e 61 cc 99 3e 56 2e e9 3e
       -0.5000953 0.24895401 0.3003874 0.45543164
000030 b9 2a 55 3e bb 36 20 3f 5b 64 19 bf 40 a2 ed 3e
       0.20817079 0.6258351 -0.59918755 0.4641285
000040 e6 f0 22 3f 1a 6e c2 3d fb 0c f2 be 0d db 03 bf
       0.6364883 0.094936565 -0.47275528 -0.5150612
000050 57 2e fd 3d 27 6d d1 3d 41 b5 95 3e f6 5e 42 3f
       0.12362354 0.10225897 0.29239848 0.7592615
000060 7a fd 43 3f e6 6f 0a bf bd 36 ab be 82 84 2f bf
       0.7655865 -0.54076993 -0.334402 -0.68561566
000070 ca 55 b9 3e cb bb 98 3e 02 ea 50 3e 42 79 48 3e
       0.36198264 0.29830775 0.20401767 0.19577506

weight_ih_l0 f4 [60, 32]
000000 43 77 d3 bd a6 42 41 be d9 96 2e be d9 a3 08 3e
       -0.10325482 -0.1887308 -0.17049731 0.13343753
000010 1c 8e 2d be 67 cc 1a 3c 23 57 15 3e a8 7a 9f be
       -0.16948742 0.009448147 0.14584021 -0.31148267
000020 2e 38 cc 3c d9 49 3b 3e e2 50 87 be 4e 0e 76 3e
       0.024929132 0.1828989 -0.26428896 0.24028894
000030 d6 27 9b bd 1e b1 03 3c c8 88 13 be 43 17 8c 3e
       -0.075759575 0.0080378335 -0.14407647 0.27361497
000040 5b 6b 5b 3e 22 8f 15 be 79 0a 6e be 00 d8 65 3d
       0.21427672 -0.14605382 -0.23246183 0.056114197
000050 7e dd 17 be 1f 7f 0a bc a6 55 5b 3e 95 df 55 3e
       -0.14830586 -0.00845316 0.21419391 0.20886071
000060 46 b6 47 3e 12 ce 87 be 97 e0 04 be cf ba ff bd
       0.19503126 -0.26524407 -0.12976299 -0.12486803
000070 c3 71 f1 bd c9 fa 67 3e 27 29 20 bd b3 31 c3 3d
       -0.117892765 0.2265426 -0.039101746 0.09530964
000080 d2 e6 06 be a4 87 c0 3d 92 39 9b bd d2 f0 be be
       -0.13173988 0.094008714 -0.0757934 -0.37293106
000090 47 6d 44 3e d2 42 f0 3d cb f6 07 3e f3 43 31 be
       0.19182311 0.11731495 0.13277738 -0.17311077
0000a0 dd 71 0e 3d 6e 47 24 3e dc a9 88 3e af ba a6 3e
       0.034776557 0.16042873 0.26692092 0.32564303
0000b0 9c 8f 85 3e 6f 6b ab 3d 31 03 89 be 13 5d 0a bd
       0.26086128 0.08370101 -0.26760247 -0.03378017
0000c0 c1 0a 23 3e e6 3e 27 3e b6 20 1c 3c 4c 59 0b 3d
       0.15922071 0.16332588 0.009529283 0.034020707
0000d0 68 c5 9b 3e 7b ef cd 3c 11 36 41 bd 13 6a ed bb
       0.30424047 0.025138607 -0.047170702 -0.007245311
0000e0 bc a9 d4 bd d4 8c 96 3d 4a b1 62 bd 05 89 08 be
       -0.10383937 0.073510796 -0.055344857 -0.13333519
0000f0 8d 9e 8f 3e 29 ac 02 3e 71 41 a9 3e e6 55 22 3e
       0.28050652 0.12760986 0.3305774 0.1585308
000100 12 2b 8c be 5d b2 77 be 72 7e cc be c4 17 bb be
       -0.2737661 -0.24189134 -0.3994022 -0.3654157
000110 ad f3 94 3c 78 92 bb be ea 13 e2 bc 0c e8 6c be
       0.0181826 -0.36635184 -0.027597386 -0.23135394
000120 5c ab bc be ec fa a7 bd 8a c0 3a 3e 0f 79 50 3e
       -0.36849487 -0.082021564 0.1823751 0.2035868
000130 99 0a c4 3c d4 0d 83 bd 72 03 14 bc 73 ec 09 bd
       0.023930835 -0.06399122 -0.009034025 -0.03367276
000140 93 f2 80 3e 88 64 ab 3e 84 a2 10 3e 4b 18 84 be
       0.2518507 0.33475137 0.14124495 -0.25799784
000150 57 09 b0 3e 77 6c 17 be 19 71 57 3e 71 c3 88 3e
       0.34382126 -0.1478747 0.21039237 0.2671161
000160 51 ca 4d 3e b6 5a 4f be 26 ba 50 3e 9c 49 0b be
       0.20096709 -0.20249447 0.2038351 -0.13602298
000170 4f 92 d0 3d 58 8a 0d bd f7 6b aa 3e c7 6c 5c 3c
       0.10184156 -0.034555763 0.33285496 0.013453669
000180 5e b4 7b be 7d 25 9d be 0b f8 1b be ea 4d 87 be
       -0.24580523 -0.30692664 -0.1523134 -0.2642663
000190 54 64 91 3e 45 da e3 be f5 90 84 3e 0d b3 88 be
       0.28396857 -0.44502464 0.25891843 -0.26699105
0001a0 91 d1 a3 be 32 70 d5 3e fa 2c 0d 3f 54 f6 b9 3e
       -0.31995824 0.4168716 0.55146754 0.36320746
0001b0 f0 57 89 3e c8 69 0f 3e 6b a5 af be cb 15 62 bd
       0.26824903 0.14005196 -0.3430589 -0.055196565
0001c0 4b 57 56 3c 45 f8 4d be 64 23 cc be 9c e2 bf be
       0.013082336 -0.20114239 -0.3987075 -0.37477577
0001d0 aa c9 32 3e f0 19 15 bd f4 df 8a bc ec 39 14 3f
       0.17459741 -0.03640169 -0.016952492 0.5790088
0001e0 e2 42 f6 bc 73 79 57 be 34 7a be be 89 7c 81 be
       -0.03006119 -0.21042423 -0.3720261 -0.25290325
0001f0 f7 ef 93 3e c7 ab 92 3d 6c 2c b1 bd ed d1 13 3f
       0.28894016 0.0716167 -0.08651051 0.57742196
000200 6c fa 96 be 8e e8 72 3e b0 a7 67 be 05 a0 73 be
       -0.29487932 0.23721525 -0.22622561 -0.23791511
000210 bd 8d be 3e 10 4b 23 be 35 0b 73 3e b2 e7 90 be
       0.37217513 -0.15946603 0.23734744 -0.2830177
000220 e1 f5 0f be 0a ef c5 3e 2e 32 da 3e 21 3d be bd
       -0.14058639 0.38658935 0.4261641 -0.09289003
000230 5c 99 9c bd 08 85 25 3e 6b 43 0b be ab 6f 7f bb
       -0.076464385 0.16164029 -0.13599937 -0.0038976471
000240 2f 3d 38 3e 22 13 45 be 8d 65 8f bd 31 ab 8f be
       0.1799209 -0.1924558 -0.07001791 -0.28060296
000250 a1 1f 80 bd 90 97 a5 be 3b 38 e7 bb 38 e8 e0 3d
       -0.06256033 -0.32342196 -0.0070562637 0.10981792
000260 33 61 92 3e 39 dc b9 bc be 86 6a be df 03 a9 be
       0.28589782 -0.022688018 -0.22902963 -0.33010766
000270 ef 21 2d 3e 5c e2 68 3e f3 30 54 3e 84 3e 20 3d
       0.16907476 0.22742599 0.20721798 0.03912212
000280 d1 eb 92 3d ef a6 e4 bd 7a a7 1e 3d ae 97 74 be
       0.07173885 -0.111646526 0.038733937 -0.23885986
000290 5f e5 e7 bd f4 13 66 be 9c c4 38 3e 38 2a c1 3d
       -0.11323046 -0.22468549 0.1804375 0.09431881
0002a0 40 75 2c be ca 14 e9 bd 6c 26 c1 3e f6 58 8a 3e
       -0.16841602 -0.11380918 0.37724626 0.27020997
0002b0 94 ba 84 bd 36 b5 17 be 4b 4e 0b 3e d6 47 87 be
       -0.064808995 -0.1481522 0.13604085 -0.26421994
0002c0 6d 03 bb 3d 92 6e c4 be ad cd df bd d7 7c 9e ba
       0.09131513 -0.38365608 -0.109279014 -0.0012091649
0002d0 b4 b8 05 be 66 b0 e2 bd 09 16 94 be 19 ea 26 be
       -0.1305874 -0.110688016 -0.2892306 -0.16300239
0002e0 9a fe a1 3d ca 2e 11 be 7a 83 7f bd bd 33 94 be
       0.079098895 -0.14178005 -0.062381245 -0.28945723
0002f0 ea a9 45 be d2 0d e3 3d 35 44 52 3d 30 5c d2 3e
       -0.19303098 0.110866204 0.05133458 0.41085958
000300 c7 af ae be 4b 03 a9 bd 66 ff 8f be bc 45 72 be
       -0.34118482 -0.08252581 -0.2812454 -0.23659414
000310 7e c9 9f 3e b9 f8 19 3e 7c 8a 78 be 93 ed fb 3d
       0.31208414 0.15036286 -0.24271578 0.12301173
000320 0b a0 95 be 05 83 8f bc 6b d7 e8 bc bc 45 ae bc
       -0.29223666 -0.01751853 -0.028423032 -0.021273486
000330 bf 30 5e 3e f3 dd 9a bb f2 b4 91 3b d2 fa 7f 3c
       0.21698283 -0.0047261654 0.004446619 0.015623765
000340 c3 01 e7 ba a5 14 03 3e 4f d6 54 be 55 69 93 bc
       -0.0017624426 0.12800844 -0.20784877 -0.017994562
000350 9e 95 c2 bd 24 d7 48 bd 3c c7 a7 3e 97 48 6e be
       -0.095011935 -0.0490333 0.3276919 -0.23269878
000360 9a cf 44 3e fc 52 a8 be 84 31 d8 bd 03 06 69 be
       0.19219819 -0.32875812 -0.10556319 -0.227562
000370 e1 10 60 be 4d d4 b7 3e 11 3d 96 3d b8 09 c8 be
       -0.21881439 0.3590416 0.07335866 -0.39069915
000380 0c 55 80 3c 93 8d cf bd cf 4b 44 bd d0 c7 a0 bd
       0.015665554 -0.10134425 -0.04792386 -0.07850611
000390 ec ca d1 3e d6 a6 ab bd f8 23 22 3e f8 04 88 bd
       0.4097513 -0.08381431 0.15834033 -0.06641573
0003a0 55 c6 64 bd 45 e0 99 3e bb 2e 9b bd c7 b4 e6 3d
       -0.055853207 0.30053917 -0.075772725 0.11264949
0003b0 73 5e ac 3e 7e 2c bb 3e b9 29 47 be ce e2 81 3d
       0.3366581 0.36557382 -0.1944951 0.06342088
0003c0 1b a0 85 3d 86 6f ff bd 8b e1 d1 be d7 7e 47 be
       0.06524678 -0.12472443 -0.40992388 -0.1948198
0003d0 44 c5 4f 3c 88 dc f3 bc de 4f 9a 3d 16 3a 78 3e
       0.012681309 -0.029768243 0.07534765 0.24240908
0003e0 5a 73 1d 3e 6a 99 11 be f9 d1 0a be 2c 4c 80 be
       0.15376034 -0.14218679 -0.1355666 -0.25058115
0003f0 13 b3 84 3e ea ad be 3c 98 d9 3d 3e 52 52 6b 3e
       0.25917873 0.023276288 0.18540037 0.22980621

weight_hh_l0 f4 [60, 15]
000000 01 53 f7 bd 60 75 4b bd 0e 58 55 3e 4f 74 1c bc
       -0.120763786 -0.049672484 0.20834371 -0.0095492145
000010 50 d9 1c 3e 97 b9 9a 3c 9a e9 d4 bc 71 5b 95 3d
       0.15317273 0.018887324 -0.025990296 0.07292832
000020 e9 09 ce 3d 26 92 29 3e cf f4 d8 bd b4 56 52 be
       0.10060484 0.16559657 -0.105935685 -0.20540887
000030 39 b1 39 be af ff 2e 3e 5f 5d d6 bc 49 20 f3 3d
       -0.18134011 0.17089723 -0.02616757 0.11871392
000040 29 a6 17 3e b8 f4 5b be 59 88 2e 3e 1b 23 14 bd
       0.14809479 -0.21480072 0.170442 -0.03616629
000050 14 14 b8 3c 36 a4 c4 3d 5e e9 81 be 42 af be 3d
       0.022470511 0.09601633 -0.25373358 0.093107715
000060 19 0d 07 3e 4e 6a cc bd 05 98 27 3e ba fa 86 be
       0.1318859 -0.099812135 0.16366585 -0.26363164
000070 9a 11 24 3e f3 16 26 be b7 07 52 be fc d9 cb bd
       0.1602234 -0.16219692 -0.20510755 -0.099536866
000080 5b 6b 9e bd 03 0b 8b bd d2 17 67 bd 0e 22 0f 3e
       -0.0773532 -0.0678921 -0.0564192 0.13977835
000090 ee 4f 54 be ea 15 62 be 9f 25 db bc 8c 19 7d 3d
       -0.20733616 -0.22078672 -0.026751338 0.06179194
0000a0 ba 19 3d bd 41 fe 6b 3e 47 83 cc 3c 0e d5 5c 3e
       -0.046167113 0.23046209 0.024964942 0.21565649
0000b0 a5 a1 6f 3e aa ad e6 bd 68 e7 60 be c5 85 a2 bb
       0.23401506 -0.112635925 -0.21963274 -0.004959794
0000c0 77 30 0e be 9d ef c7 3d 9e a9 7d be 8b 20 5f bc
       -0.13885675 0.097624995 -0.24771735 -0.013618599
0000d0 8d b4 9e be c1 b9 6c 3e de 15 c0 bc fd 7f 85 3e
       -0.30997124 0.23117734 -0.023447927 0.2607421
0000e0 42 6d 36 bd c0 e5 30 be 8d d6 3c 3d f9 a7 cf bd
       -0.04453779 -0.17275143 0.04610305 -0.1013946
0000f0 58 2c 0a 3e e1 3f 39 be c4 de 4d 3d d1 e5 84 be
       0.13493478 -0.18090774 0.050261274 -0.25956586
000100 63 9d 46 be f1 09 97 be dd 7e 8f be 56 d9 99 be
       -0.19395976 -0.29499772 -0.28026477 -0.30048627
000110 89 98 02 3e fe 4c 37 be 1b 16 1d bd 78 0d c1 bd
       0.127535 -0.17900464 -0.03835116 -0.09426397
000120 54 3e fc bc 09 e7 2e 3d e0 84 a4 be 74 c9 3e 3d
       -0.03079144 0.0427008 -0.32132626 0.04657884
000130 b1 67 a9 bc 61 12 92 be 2c 0c e0 3c 43 04 97 be
       -0.020679327 -0.28529647 0.027349554 -0.2949544
000140 f2 ab ba bd 26 b7 df 3d f3 ea 88 3e 5d 4a 81 be
       -0.09114827 0.10923605 0.26741752 -0.25252047
000150 da 01 d5 3b b3 c4 b4 3e ad 66 b4 3d c5 ea 1b be
       0.006500465 0.3530632 0.08808646 -0.15226276
000160 66 0e 23 be 95 f5 cb 3e a3 7d 2a 3e 86 2d c7 3d
       -0.15923461 0.39835802 0.16649489 0.0972548
000170 1a ab 4a be 77 05 88 be e3 3a 88 be 48 4b 29 3e
       -0.19791833 -0.2656667 -0.26607427 0.16532624
000180 2b e8 0f 3a e5 63 1b 3e c1 c4 cb 3d a7 a3 27 bd
       0.0005489613 0.15174825 0.09949637 -0.040927555
000190 c0 e2 4c 3e a6 4f 1c be 63 c4 47 be 93 84 76 3d
       0.20008373 -0.15264758 -0.1950851 0.060185026
0001a0 a3 4f 1d bc 30 81 9d be 4f 42 a5 be 7d 8d 50 be
       -0.009601506 -0.30762625 -0.32277152 -0.20366473
0001b0 ac 9a 34 bc 19 e6 74 be 3d 8b 00 3d 89 62 d6 3c
       -0.011023205 -0.239159 0.031382788 0.026170032
0001c0 b8 09 6d bd 14 6b 4b bd 73 e2 f4 3d ff 1f 90 3a
       -0.057870597 -0.049662665 0.11957254 0.0010995864
0001d0 6e 77 bd be e5 65 e8 bc 13 1d fc 3e 3f 91 e8 bd
       -0.3700518 -0.0283689 0.49240932 -0.113558285
0001e0 4d 74 16 3e 5d 56 6f be c1 00 7f 3e 11 47 da bd
       0.14692803 -0.23372789 0.24902631 -0.10658086
0001f0 e7 df a5 3e da f7 04 be b8 29 1b be 41 0f 88 bd
       0.32397386 -0.12985173 -0.15152633 -0.066435345
000200 15 2f 45 be 49 97 31 be e5 26 09 3e 30 a7 36 3e
       -0.19256242 -0.17342867 0.13393743 0.17837214
000210 e6 9d 97 3e fc af 8f be 0a d8 bc be 09 8c 5e 3e
       0.29612654 -0.28063953 -0.36883575 0.21733107
000220 1d a1 86 be bd 24 59 be 15 4b 29 be e3 e0 97 3d
       -0.26294795 -0.21205421 -0.16532548 0.074159406
000230 bf 35 3b be c2 96 1e bd 63 6a c2 bd df cf 5b bc
       -0.18282221 -0.038717993 -0.09492948 -0.01341626
000240 b7 29 da 3b b7 02 2b 3d fa 02 08 3d 26 18 5b be
       0.006657805 0.041750636 0.033205964 -0.2139593
000250 98 8d 63 3e 6e 07 19 bd d8 c2 cb 3d f0 48 74 be
       0.22221982 -0.0373606 0.09949273 -0.23855948
000260 8b 7a cc 3d 26 25 86 bc 4a 9a 6e 3e 66 d3 a0 bc
       0.09984311 -0.016375136 0.23301044 -0.019632053
000270 a5 94 98 3d b0 bb ff bd 8a b2 78 be e6 40 2b 3e
       0.07450227 -0.124869704 -0.24286857 0.16723976
000280 f3 ba 2d 3e 18 fe 54 bd 3b dd e0 bd 1f 88 72 3d
       0.16965847 -0.052000135 -0.10979696 0.059211846
000290 f5 c8 db bb 90 46 cf be bc 71 3e be 74 11 b7 bd
       -0.0067073056 -0.40483522 -0.18598074 -0.08938876
0002a0 60 22 86 be 08 4f 97 be 2b 4b 24 bd d9 45 f1 be
       -0.261981 -0.29552484 -0.04011075 -0.47123602
0002b0 97 3b d7 3c 07 b5 d7 3d a7 85 d0 bd 81 36 31 3d
       0.026273532 0.10532575 -0.10181742 0.04326487
0002c0 28 53 b3 3d 09 a1 3a 3d 67 7d 28 3e 1b 44 14 be
       0.08756095 0.04556373 0.16454087 -0.14479105
0002d0 8a 52 b9 3d d0 9e a1 3d 35 36 71 bd 87 47 af be
       0.09048946 0.07891619 -0.058889586 -0.3423426
0002e0 b7 db 80 3d 65 cf 55 be 64 e7 11 bd d0 9c d5 be
       0.06291907 -0.20879896 -0.035621062 -0.417212
0002f0 04 78 9a 3e 89 0f 86 be 58 e3 1b bd 79 e8 ac bd
       0.3016969 -0.26183727 -0.03805861 -0.08442778
000300 4b df 82 be ce e1 00 be 0a 21 3b 3e cc 5d 04 be
       -0.25560984 -0.12586138 0.18274322 -0.12926406
000310 59 ee 6a be 90 89 10 3e 69 7a 94 3a 6a c1 b7 bc
       -0.22942485 0.14114976 0.0011327985 -0.022431094
000320 e4 94 d4 bd b0 fd b2 3d cf 02 4f be 70 a6 86 3e
       -0.10379961 0.08739793 -0.20215915 0.26298857
000330 96 ac 57 3d f4 9c 50 be 56 d5 c6 3d de e2 9f bc
       0.052654825 -0.20372373 0.09708659 -0.019517358
000340 6c fe 5b be ec b8 c6 3d db fc 08 be 56 37 43 bd
       -0.21483773 0.0970324 -0.13377707 -0.047660194
000350 17 a0 f6 bd 3b 55 af bd ab fa 85 3c 17 89 20 be
       -0.120422535 -0.08561178 0.01635488 -0.15677296
000360 a5 b1 32 be 0c 95 99 be ee ae 35 3d ed 97 4b be
       -0.17450579 -0.29996526 0.04435628 -0.19882174
000370 ef 04 1e 3e 09 f8 bf be 80 d9 3b be 11 35 07 3f
       0.1543157 -0.37493923 -0.18344688 0.5281535
000380 75 c3 4c be c6 8d e9 bd d8 da b1 bd 05 11 3e be
       -0.19996436 -0.11403994 -0.08684319 -0.1856118
000390 28 76 4f be bf ed da bd d0 7d 35 be 48 0b 23 3d
       -0.20259917 -0.10689878 -0.17723775 0.03980568
0003a0 66 40 3e 3e 92 18 b7 3b c8 f0 63 3d fb 09 7f bd
       0.18579254 0.005587646 0.05564955 -0.062265377
0003b0 39 af 26 be d9 dc b0 3c 2a d9 53 3e 91 58 86 3e
       -0.1627778 0.021589683 0.2068831 0.26239446
0003c0 de dc 5b 3e 18 b6 59 be d8 99 9b be 01 8e 8c be
       0.21470973 -0.2126087 -0.3039081 -0.2745209
0003d0 37 8a 4b be 6d e6 bd bd bc b5 ed 3d 15 e9 2c 3e
       -0.19876944 -0.09272466 0.11606929 0.16885789
0003e0 72 67 dc 3d f8 e3 4f be 5d 92 11 be ec 71 49 be
       0.10761918 -0.20301807 -0.1421599 -0.19672364
0003f0 0b a8 10 3e 17 67 7e 3e 79 c5 a8 bc 2c 86 ae 3e
       0.14126603 0.24844013 -0.020601975 0.3408674

bias_ih_l0 f4 [60]
000000 a3 91 21 3c b6 7e ae 3e fd 0a 98 3e 1e b2 54 3d
       0.009861383 0.34081048 0.29695883 0.05192768
000010 d7 ef b2 3e ce e6 5a be ec a7 30 3d 57 33 b2 3e
       0.34948608 -0.21377108 0.043128893 0.34804794
000020 56 95 61 3e 54 74 03 3e 93 15 b7 bd cb e1 08 ba
       0.22029623 0.12837344 -0.08939662 -0.0005221634
000030 eb 7e cc bc 13 3b 6d 3d 5c 2e 68 3e a9 08 7b 3e
       -0.024962863 0.057917666 0.22673935 0.24515022
000040 3f 92 87 3e 5b 71 af bc 61 f1 be 3c 00 d9 2d 3e
       0.26478764 -0.021416357 0.023308458 0.1697731
000050 ea e5 d6 bd 47 a3 25 be 3a 7e 60 b8 44 fc ee bc
       -0.104930714 -0.16175567 -5.352332e-05 -0.029173024
000060 5e ae 00 be 5c 7f 88 3e ea 4d a5 be bc f1 44 be
       -0.12566516 0.26659667 -0.32286006 -0.1923284
000070 ae 3d 5c bd 56 c8 a6 be 4f 85 28 3e b9 be 9f be
       -0.05376976 -0.3257472 0.16457103 -0.31200197
000080 b7 9d 43 3e 59 79 ac be 50 a7 ac 3d 79 ca 34 be
       0.19103132 -0.3368633 0.0843035 -0.17655362
000090 6a c2 8b be 02 b1 55 bd 3b e7 31 3e 85 10 c5 be
       -0.27296764 -0.05217076 0.17373364 -0.38489166
0000a0 7e 9e c9 bd b8 82 b3 bd 88 ce d9 3c ab 55 e4 3d
       -0.09844683 -0.08765167 0.02658774 0.11149152
0000b0 c2 8a 0c 3e 77 cd 6b 3e 57 44 22 3e 44 b8 39 3e
       0.13724807 0.23027597 0.15846382 0.18136698
0000c0 99 79 35 bd dd a6 44 3d 0f 29 84 3e a3 d4 97 3c
       -0.044305418 0.048010696 0.25812575 0.01853401
0000d0 7c 10 a2 3d 0f af 8b 3d a6 41 57 3e 39 08 b9 bd
       0.079133004 0.06820499 0.21021137 -0.090347715
0000e0 4e b2 42 3b ff 8a b5 3d 50 a6 7e 3e a8 e5 ca bd
       0.0029708329 0.08864402 0.2486813 -0.09907085

bias_hh_l0 f4 [60]
000000 f3 20 a8 bd f9 82 96 bd c3 dc b3 3e 88 35 91 3e
       -0.082094096 -0.073492 0.35129365 0.28361154
000010 de fa b7 bd b9 fc 13 3e 28 cb 86 3d f4 38 ea 3e
       -0.08983396 0.14451875 0.06581718 0.45746577
000020 9e 20 13 be e8 c1 b0 3e 12 04 87 3e d3 db 85 3d
       -0.14367911 0.3452294 0.26370293 0.06536069
000030 a3 62 e1 bc d9 60 8b 3e 79 fa b9 3e 0e 38 94 3e
       -0.027512854 0.27222326 0.36323908 0.28949016
000040 38 b4 aa 3b 89 0d f8 3d d6 e7 a9 bd 24 08 15 3e
       0.005209472 0.121119566 -0.08296172 0.14553887
000050 ee 50 ac bd 55 a7 09 be 8c 09 98 bd a2 ee 9f 3d
       -0.084138736 -0.13442738 -0.07423696 0.078091875
000060 d2 66 cc 3c 7f f8 80 3e 58 e7 17 be 8c 80 7c 3d
       0.024951372 0.25189587 -0.14834344 0.06164603
000070 62 d7 ce 38 ec 34 68 3d ec 77 ac be 5a 04 ae bd
       9.8629636e-05 0.056691095 -0.33685243 -0.08496924
000080 88 30 11 bd 2e 14 ce be 7e 87 60 bc b6 d5 7f bd
       -0.035446674 -0.4024977 -0.013704179 -0.06245967
000090 c2 a6 92 be 33 69 15 be b4 fc 60 3e 06 ae 4c bd
       -0.2864285 -0.14590912 0.21971399 -0.04997065
0000a0 61 54 2d 3d f4 f0 fc 3d e1 a3 ce bd 1d af 00 be
       0.042316798 0.12350646 -0.10089851 -0.125668
0000b0 27 57 e1 bd 9c 2e 4a bd 0f f1 c3 bd 61 2f 84 3e
       -0.11002951 -0.049360856 -0.09567463 0.25817397
0000c0 5b a1 9e 3e d4 a5 d2 bb af 6b 22 be 08 d5 5e be
       0.3098248 -0.0064284597 -0.1586139 -0.21760952
0000d0 26 bf a8 3e 9d 5b 9b bd dd d3 0a 3e 88 f1 8e 3e
       0.32958335 -0.07585833 0.13557382 0.2791865
0000e0 16 41 a2 3e 12 a9 17 3e f4 9d 07 3f 3d d0 3b bd
       0.31690282 0.14810589 0.5297539 -0.04585289

weight_ih_l1 f4 [60, 15]
000000 2e 80 7b bf b7 31 66 bf bc d6 08 bd e3 2d b6 be
       -0.9824246 -0.8991961 -0.03340791 -0.35581884
000010 2e bc 01 bf 7f bb fe be a5 83 5a bf ad b2 f8 be
       -0.50677764 -0.49752423 -0.85357124 -0.4857382
000020 2a 8d f9 3e b5 52 ad be df e0 10 3f 3b 44 a2 3d
       0.48740512 -0.33852163 0.56593126 0.0792317
000030 81 0b 2c bf f0 4b 4e 3e c1 9e 91 be 85 6a 2e bd
       -0.67205054 0.20146155 -0.28441432 -0.042582054
000040 df 0d ab be 84 2a 3c 3e 63 1d 10 bf 5c 0c 90 be
       -0.3340902 0.18375593 -0.5629484 -0.2813443
000050 b0 a1 8c be de f1 c4 be e8 32 f4 be 6c 5c ef 3e
       -0.27467108 -0.3846578 -0.47695088 0.467502
000060 96 16 01 be 34 4d e4 3d 3f 32 3e 3e 70 71 35 be
       -0.12606272 0.11147538 0.18573855 -0.17719054
000070 b7 ae 5e 3e de e6 24 bf e5 b5 18 bf 57 cc e0 be
       0.21746336 -0.64414775 -0.5965255 -0.439059
000080 e8 d5 c2 3d 79 4b 12 bf cf f6 88 be c1 8d 65 be
       0.09513456 -0.5714641 -0.267508 -0.22417356
000090 c5 8f 91 be 08 e2 1e bf 24 14 e5 3e b0 e8 20 bf
       -0.2843 -0.62063646 0.4474193 -0.6285505
0000a0 ba 42 93 3d 13 82 86 be 0d b1 0e bf 63 e4 3d 3d
       0.071904615 -0.26271114 -0.5573891 0.046360385
0000b0 7c f7 3a be 9b 2e 9f be c6 ff 88 be 49 c0 98 3d
       -0.1825847 -0.31090245 -0.2675764 0.074585505
0000c0 a9 d9 c0 be 4d c6 d8 bc 2f 52 8b bd 3c 11 a1 be
       -0.37666062 -0.026461745 -0.06802785 -0.3145846
0000d0 76 9c dc be 3e 7e 1a bc c6 63 94 be ce 4e 15 be
       -0.4308812 -0.009429513 -0.2898237 -0.14580843
0000e0 b9 60 8d 3e 80 32 93 3e 75 a9 f7 bd 7c 1d f3 bd
       0.27612856 0.28749466 -0.12092868 -0.11870858
0000f0 9c 19 47 be 2e 7d 9c be 1b b3 05 3e 97 01 85 be
       -0.19443363 -0.30564255 0.13056605 -0.25977775
000100 54 a2 d8 be b2 00 2b be 77 09 e6 bd 73 ae 10 bf
       -0.42311347 -0.16699484 -0.11232274 -0.5651619
000110 85 21 f5 3e 8e 74 e7 be 9f b3 41 3e f3 cf 87 bc
       0.47877136 -0.45206112 0.18916176 -0.01657865
000120 d1 63 17 be c6 1d 90 be 07 9c c8 be 2e 86 e6 be
       -0.1478417 -0.28147715 -0.3918154 -0.45024246
000130 fc ac 06 bf dd 41 76 bc 0a 4f aa bd 1f 5f 26 be
       -0.52607703 -0.0150303515 -0.08315857 -0.16247223
000140 17 f0 89 be 0d 09 ce be fc 74 0f bf ab b5 f4 3c
       -0.26940987 -0.4024128 -0.5603788 0.029871782
000150 4c 1f 36 be 02 84 8f 3e 6a 97 57 bd 2c 5a 4b 3d
       -0.17785376 0.280304 -0.052634634 0.04964654
000160 77 72 e0 3e ef b3 02 3d dd a3 f1 bd f8 97 9f bc
       0.4383733 0.03190988 -0.117988326 -0.019481644
000170 df 88 48 3d 8a dd b1 be b9 ed 20 be d5 16 87 be
       0.048958655 -0.34739333 -0.15715684 -0.26384607
000180 dd 7b 13 be d2 46 05 be 1b da 29 3e be b9 d0 be
       -0.14402719 -0.13015297 0.16587107 -0.4076671
000190 9c 7e 10 3e ec f4 8b bb ea 8c 6e be 3c c8 62 3e
       0.14110798 -0.0042711403 -0.23295942 0.22146696
0001a0 0e 37 e2 3c 45 2d b2 3d e2 15 17 3e 76 4a 09 be
       0.027614143 0.08700041 0.14754441 -0.13407311
0001b0 f6 94 99 be 29 3b 81 bd 77 c6 f8 bd 56 af 77 be
       -0.2999646 -0.06310112 -0.12147229 -0.24187979
0001c0 5e 36 45 bd c7 e4 35 3e 38 19 86 be 93 70 3d 3e
       -0.04814755 0.17763053 -0.26191115 0.18499975
0001d0 43 69 62 bd 9c 48 69 3e 0b 3d 81 3d da 57 a5 3d
       -0.055276167 0.22781605 0.06310471 0.08073397
0001e0 da de b3 be 56 2a 27 be 8e c9 cf bd b5 d0 1b bf
       -0.3513096 -0.16324744 -0.101458654 -0.60865337
0001f0 60 f3 ee bd 41 1a b0 be 96 ab af be d3 5b 85 be
       -0.11667514 -0.3439503 -0.34310597 -0.2604662
000200 d7 49 f0 3e 13 55 16 bf c8 a2 75 3e 57 28 88 3c
       0.46931335 -0.5872356 0.23987877 0.016620798
000210 7b b9 0f be d0 b8 61 bd 48 ea a0 3d 2f 5f a3 bd
       -0.14035599 -0.05510789 0.078571856 -0.07977139
000220 2a 26 bb be 05 ef 66 3d 92 60 da be 38 ea e5 be
       -0.36552554 0.05638029 -0.42651802 -0.44905257
000230 af 89 c3 be 9a 05 c6 bd 46 60 01 bf f8 82 f7 3e
       -0.38190982 -0.09669037 -0.50537527 0.4834211
000240 b0 26 ed be 65 82 e7 3e d5 4a 90 be a6 ad 7a 3d
       -0.4631858 0.4521667 -0.28182092 0.06120076
000250 98 fd b6 3e 93 e3 1d bd c9 a6 95 be e3 94 5c be
       0.35740352 -0.03854711 -0.2922881 -0.21541171
000260 38 71 0b be a8 c9 1f bf 0f a7 00 be 9a 49 da be
       -0.13617408 -0.6241708 -0.12563728 -0.4263428
000270 23 5c fd be e0 12 e9 be 86 61 14 3f f1 e4 2f be
       -0.49484357 -0.45522213 0.5796131 -0.17177178
000280 7e 18 c8 3e cd a2 79 3e ef d8 c4 be 19 44 40 bd
       0.39081186 0.2437851 -0.38446757 -0.046939943
000290 8a e1 8b be df 26 a9 bd 07 84 e2 bd 24 2d ed 3c
       -0.2732051 -0.08259367 -0.110603385 0.028952189
0002a0 6c 9e cb bd bc a4 a3 3d 48 a0 04 be bd 54 2c 3c
       -0.09942326 0.07990405 -0.12951767 0.01051825
0002b0 70 ab 64 be d1 6c 88 bd d6 05 01 3d 77 ab 44 3e
       -0.22331023 -0.0666138 0.031499706 0.19206034
0002c0 c2 8c 11 be 7a 8b a8 3c ef d6 49 be 16 89 49 be
       -0.14213851 0.02057432 -0.19710897 -0.196812
0002d0 c8 f3 1a bf 67 c2 45 bf 8b 36 0b 3e 3b 01 43 bf
       -0.6052823 -0.7724976 0.13595025 -0.7617375
0002e0 27 87 f1 be 6b 1b 0d bf 18 02 44 bf 40 a1 ee be
       -0.47173426 -0.5511996 -0.76565695 -0.466074
0002f0 0e 9c 68 3f 0d fa 46 bf f0 7d 8b 3e 54 66 b5 be
       0.9086312 -0.777253 0.2724452 -0.35429633
000300 03 ea f3 be db 4f 6d 3e d3 92 e1 be 4f c6 bb bd
       -0.47639474 0.23174994 -0.4405733 -0.09168684
000310 bc c2 89 be 1d 13 7b 3e 73 af e2 bd 8c cc 8a be
       -0.26906383 0.2451901 -0.110686205 -0.27109182
000320 24 b3 f3 3d 07 29 49 be 99 43 e8 be b6 dc 91 bd
       0.11899403 -0.19644557 -0.45364073 -0.071221754
000330 e8 24 d6 be 23 cf f4 bb d0 d0 e7 3d 5f 20 83 be
       -0.41825032 -0.0074709817 0.11319125 -0.25610635
000340 b6 0e 2f 3e bf 7c 78 bd fd a3 6c bc 1c 6b 9b 3a
       0.17095456 -0.060665842 -0.014443395 0.0011857483
000350 76 75 c5 3e f5 6e 69 3d be 90 91 be 5c 0f 82 3d
       0.38566178 0.056990582 -0.28430742 0.06350586
000360 fc 14 94 3d b5 f3 2e 3e 98 4a 36 be 9c dd 0d 3e
       0.07230565 0.17085154 -0.17801893 0.13854069
000370 fd 15 67 be 63 ee 65 3e 83 a8 7f 3e ca 7d c3 be
       -0.22566982 0.22454219 0.24966626 -0.38181907
000380 74 e3 fb bc 4b 35 b7 bc 23 ca 22 3e e2 f9 6a bd
       -0.030748107 -0.02236428 0.15897422 -0.057367213
000390 e6 08 fa 3c 2f 29 b5 3d 4c 64 8c 3e e7 59 64 3e
       0.030521821 0.08845746 0.2742027 0.2229992
0003a0 17 a9 0e be 0b 32 b5 bc a2 09 9c bd 57 5e 7c 3d
       -0.1393169 -0.022118589 -0.07619025 0.061613407
0003b0 99 50 01 be 73 b6 31 3e 8c 6c 08 3d 62 2c 18 3d
       -0.12628402 0.17354755 0.033306643 0.0371517
0003c0 83 93 fd 3d 46 2c a4 bc ea 8e ea 3e eb 34 09 be
       0.12381651 -0.020040642 0.4581216 -0.13399093
0003d0 db 66 a1 bd f5 38 a1 be e2 20 7c 3d 33 67 c0 3d
       -0.07880946 -0.31488767 0.061554797 0.09394684
0003e0 b0 92 c9 3d a0 00 ce bc 2f a9 31 be 46 88 60 3b
       0.098424315 -0.025146782 -0.17349695 0.0034260913
0003f0 2a 6d 1b 3e c2 06 48 3d 79 f3 da be 53 41 25 bd
       0.15178362 0.04883457 -0.4276388 -0.0403455

weight_hh_l1 f4 [60, 15]
000000 15 43 75 be 77 58 08 bf a8 25 1c 3e 84 79 9c be
       -0.23951371 -0.53259987 0.1524874 -0.3056146
000010 88 77 ef 3e 1e 49 d0 3d 09 0e 5a 3e 7a a6 9a 3e
       0.46770883 0.10170196 0.21294416 0.30205137
000020 91 3f d6 3e 5b f9 b9 be 14 e5 49 bd c8 54 85 be
       0.41845372 -0.36323056 -0.04929073 -0.26041245
000030 36 cb 81 be 74 d4 72 be 48 c8 2b 3d a6 3b 4a 3e
       -0.2535035 -0.23713857 0.04193905 0.19749317
000040 b5 62 88 bd 0d 27 92 3c 4b d7 57 be 83 f5 8d 3e
       -0.06659452 0.017840886 -0.21078221 0.27726373
000050 31 84 4a 3d cb d1 41 3e c1 df 4f 3e 75 3f 20 3e
       0.049442474 0.18927686 0.20300199 0.15649207
000060 9c 71 a5 bc a7 e9 3c 3e ee b6 60 be 87 cc d3 3d
       -0.020195775 0.18448506 -0.21944782 0.10341745
000070 af 1f 4a be 6f 9b cb bd b3 7c 85 3e f0 4d 8b be
       -0.19738649 -0.09941756 0.260717 -0.272079
000080 2c 20 95 3e ee 71 58 3e bb 59 5a 3e 58 ff 3c be
       0.29126108 0.2113721 0.21323292 -0.18456781
000090 b0 97 f3 39 50 7c 1b 3e 58 6a 9b 3e 94 db fc be
       0.00046461588 0.1518414 0.3035457 -0.49386275
0000a0 72 28 4a bd 82 51 b1 3e 96 dd e7 be 0d 26 0c bf
       -0.049354978 0.34632498 -0.45286244 -0.5474556
0000b0 79 cc 00 be 3b 46 b3 bd 3c 13 2a bc cf a7 2a 3c
       -0.12578 -0.0875363 -0.010380562 0.010415985
0000c0 fd 4d 06 3d c5 36 c6 bd 5e 78 e7 3c f5 ec a2 3d
       0.03278922 -0.09678415 0.028255638 0.07955352
0000d0 52 83 de bd 36 fe 1a bd c0 ec 68 3e ec 82 91 3e
       -0.10864891 -0.03784009 0.22746563 0.28420198
0000e0 4f fc 7b be 98 b8 4f be ab 6f 17 3e eb 34 a7 3d
       -0.24607967 -0.2028526 0.14788692 0.0816439
0000f0 4d dd cf bd 32 7f c6 be a9 08 8c 3e 9b 1f 42 3e
       -0.10149632 -0.38768917 0.27350357 0.18957369
000100 56 fa e7 3d d8 66 eb be b0 98 21 be 5f d6 49 3e
       0.11327045 -0.459769 -0.15780902 0.19710682
000110 e5 28 94 3d 91 17 a4 3d 0f 55 34 bd e6 e1 c4 bd
       0.072343625 0.080123074 -0.04402643 -0.09613399
000120 ab 0d df be b0 bf 9c be 1a 4d c6 be 8f d5 e8 3e
       -0.43565115 -0.30614996 -0.387307 0.45475432
000130 1b 9f 2b bd cf 5f e1 bd 05 60 f0 be 8c 83 d5 3e
       -0.04189978 -0.11004602 -0.46948257 0.41701925
000140 05 5d 8b 3e 5a 0b 80 3e e7 73 91 bd bc e8 67 be
       0.27219406 0.2500866 -0.07102185 -0.22647375
000150 e0 a9 78 3d b3 58 ae 3e dd 4c d1 be b8 97 0a bc
       0.06070888 0.34052047 -0.40878955 -0.008459024
000160 7b b5 59 be 93 9b e5 3d bf 37 8b 3b 53 25 db bd
       -0.21260636 0.11211314 0.004248589 -0.107004784
000170 0c 9f 3e be d6 9b 80 3d ef 00 ef bc 4e c7 94 be
       -0.18615359 0.06279723 -0.02917525 -0.29058307
000180 b1 ab 9b bd ca b3 0c 3e 5a d3 b0 3e d9 0e 90 be
       -0.07601107 0.13740459 0.34536248 -0.28136328
000190 20 01 d0 bd df ca 66 3d 97 e9 2d 3d 11 d4 2d 3e
       -0.101564646 0.056345817 0.042459097 0.16975428
0001a0 95 e1 e5 be 1f 23 fd bd 9c a6 9a be db e4 b3 3e
       -0.44898668 -0.123602144 -0.30205238 0.3513554
0001b0 5b 74 a0 3d 3d 51 1d be 3d 08 d9 be ce 44 5f be
       0.07834693 -0.15363021 -0.42389098 -0.2180359
0001c0 71 17 0c 3d 8e 07 3b 3d 00 56 90 bd f8 41 ba 3c
       0.034202043 0.0456615 -0.07047653 0.022736534
0001d0 6a 5d 01 be 92 bb 84 be 15 ea 4a 3e 83 da 59 3e
       -0.12633291 -0.25924355 0.19815858 0.21274762
0001e0 ac 4d 80 bc 51 49 04 bf 40 66 1d 3e 3b 64 df bc
       -0.015662037 -0.5167437 0.15371037 -0.027269473
0001f0 49 9e 52 3d 1f 7f fb 3d ab 26 91 bd 05 61 00 3f
       0.051420484 0.12280106 -0.070874535 0.5014804
000200 85 22 bd bd de 1a 8a 3e 94 79 fc 3e ec 27 10 be
       -0.092351 0.26973623 0.49311507 -0.14077729
000210 5b 5b e7 bd 70 72 a7 be 3f b9 cd be d5 da 8e 3e
       -0.112967215 -0.32704496 -0.40180394 0.2790133
000220 91 41 b1 be 52 44 a4 3d 46 c2 c3 be 02 31 94 3b
       -0.34620336 0.080208436 -0.38234156 0.0045224437
000230 b3 88 3c be 0d df 7a 3e c0 4e dd 3e cd a4 3b 3d
       -0.18411522 0.2449915 0.43224144 0.045811463
000240 18 72 35 3e b5 61 7c bc ff 6d b5 be ef a4 3a be
       0.17719305 -0.015404155 -0.35435483 -0.1822698
000250 6b bc 55 be 3d 99 8b be a0 0a e2 3d 80 29 e5 be
       -0.20872657 -0.2726535 0.11037183 -0.44758224
000260 29 5f d3 be 11 50 71 be bf fb 15 3e e2 c4 cb bd
       -0.4128354 -0.23565699 0.14646815 -0.09949662
000270 30 91 ec 3e 76 67 15 3e 63 02 ba 3e 72 0a 75 be
       0.4620452 0.14590248 0.36329946 -0.23929766
000280 a9 46 ce 3e f5 2b 13 be 62 54 b3 3d 33 71 0f be
       0.40288284 -0.14372237 0.08756329 -0.14008026
000290 11 7f 6f 3d a9 92 2d 3d d1 8f 97 bd 29 ef 96 3e
       0.05847079 0.042376194 -0.07400478 0.2947934
0002a0 79 bb 9d be 88 ff f9 bd 54 0d 0f 3d 08 ea 05 3c
       -0.30807093 -0.12206942 0.03492482 0.008173473
0002b0 31 48 16 3e b7 5e 11 3e 74 79 9c bb 82 be 2d 3e
       0.14675976 0.14196287 -0.0047752205 0.16967204
0002c0 b3 ab 68 3c 97 7c 65 be 1b 20 13 3d 90 63 db bc
       0.0142010925 -0.22410809 0.03591929 -0.026780874
0002d0 7e c7 aa 39 b2 9c 17 be ca f7 b5 3c 99 43 eb be
       0.0003257356 -0.14805868 0.022212882 -0.4595001
0002e0 0f a1 19 3e a2 c1 8a bd 66 8c 27 3e cd 97 34 3d
       0.15002845 -0.06775214 0.16362152 0.04409008
0002f0 74 66 8b 3e f2 c1 ad be 87 dd 38 3e 10 98 33 bd
       0.27226603 -0.3393703 0.18053256 -0.04384619
000300 35 a3 70 3e 9a 62 f8 be 9c 2a a7 3c 5e 8a b0 bc
       0.23499759 -0.48512727 0.02040606 -0.021550354
000310 09 c0 c4 3d 5a a0 4f be 10 7b 5f be e0 1c f0 bd
       0.0960694 -0.20276013 -0.21824288 -0.117242575
000320 ac 22 9e bb 79 87 95 3e 9c 07 94 3e 3f 3f 48 bc
       -0.0048259106 0.2920492 0.28912055 -0.01222211
000330 b7 6d cd be 1b 4e 6d be ed 70 ae be e5 7f 25 be
       -0.40122768 -0.23174326 -0.3407053 -0.16162069
000340 2a f0 1a be 3e c2 e8 bc 94 f6 aa be 88 13 c3 bd
       -0.15130678 -0.028412934 -0.3339125 -0.0952521
000350 91 f9 14 3e d0 2c 9a bd ab 0d 24 be d4 c7 2b 3e
       0.14548327 -0.075280786 -0.16020839 0.16775447
000360 fa 70 3b be d9 cb 65 be d6 c0 13 bf 3e d7 df 3e
       -0.18304816 -0.22441043 -0.5771612 0.43718904
000370 a6 72 a7 3d d9 9e 4c be b4 9e 0d 3e e0 b7 2c bd
       0.08176164 -0.1998247 0.13830072 -0.042167544
000380 92 7e 8b be 14 fd d6 bd ed f1 b1 3c 13 a2 bb bc
       -0.27245003 -0.104974896 0.021721805 -0.022904431
000390 a7 99 e1 bc fd e7 85 be 64 bd 38 be 61 57 3c be
       -0.027539087 -0.26153556 -0.18040997 -0.18392707
0003a0 23 90 eb bb b0 0d cb bd ac 65 14 bd d0 17 40 3c
       -0.0071888133 -0.0991472 -0.036229774 0.011724427
0003b0 fb e4 f4 3d 8a 78 b8 3d 12 e4 b1 bd 3d d7 d6 3e
       0.11957737 0.09007366 -0.08686079 0.4196109
0003c0 8a 23 5a bc 87 3c e9 bd c1 0e b8 3e 45 d1 56 be
       -0.013314137 -0.11388498 0.35948756 -0.20978267
0003d0 26 c5 f9 3d af 36 3e be 70 fb 0c be 38 93 99 bd
       0.12195806 -0.18575548 -0.13767791 -0.07498783
0003e0 b7 93 1c bd ae 6c 46 3e 47 f9 9f bd 8a 29 88 3e
       -0.03822681 0.19377396 -0.07811218 0.26594192
0003f0 31 07 9d be 52 b7 8b 3d e2 36 57 be 9b 71 fa 3d
       -0.3066955 0.06822075 -0.2101703 0.122287

bias_ih_l1 f4 [60]
000000 11 01 4f 3f 7a 26 7e 3e 8f 4c 93 3e b1 d5 b5 3e
       0.80861 0.24819365 0.28769347 0.35514596
000010 fe 9c e4 3e 54 a9 5b 3e 0c 5f 82 3e 95 90 fa 3d
       0.44651026 0.21451312 0.2546314 0.12234608
000020 85 05 13 3e f4 53 0d 3f 04 26 10 3f 4e 43 58 bd
       0.14357574 0.5520623 0.5630801 -0.05279856
000030 37 be 09 3f 67 18 a6 3e bf 96 c5 3d de b9 c1 be
       0.5380587 0.32440493 0.09647893 -0.37837118
000040 bf 40 80 3d f1 d0 e2 3d 05 a8 4d be b2 a0 8f bd
       0.06262349 0.11075009 -0.20083626 -0.07013072
000050 44 8d ba 3d b7 57 38 3d b6 09 98 3d 31 ca 26 be
       0.091089755 0.045005526 0.07423727 -0.16288067
000060 88 91 31 be fb 00 fa bc 26 01 dc 3d 56 6d 84 3e
       -0.17340672 -0.030518046 0.107424065 0.25864667
000070 21 c6 a3 3e 28 65 34 3d 21 cd 96 3e a3 60 a3 be
       0.31987098 0.044041783 0.29453376 -0.31909665
000080 6b 22 66 3d b7 78 6a bd a5 03 b6 bd b2 9b f7 bd
       0.056185167 -0.05724403 -0.08887414 -0.120902434
000090 6b 6c 95 bd 7b a3 9a 3d 8e b6 ce 3d 7b ce 2a be
       -0.0729607 0.07550713 0.10093413 -0.16680329
0000a0 1c c6 ec bd 84 bb 4d 3d 63 96 47 be 36 9c fb bd
       -0.11561224 0.050227657 -0.19490962 -0.12285654
0000b0 ee 0a 19 be 1f ea e8 3e fc 10 d0 3e bd 0d 1f 3f
       -0.14945576 0.4549112 0.40637958 0.6213034
0000c0 34 5a 00 3e f3 a9 fe 3e 09 f3 e6 3e 11 c0 60 3e
       0.1253441 0.49739036 0.45107296 0.21948268
0000d0 00 0b ab bd 4a 08 14 3f 69 41 04 3f e1 9c 83 3e
       -0.083517075 0.5782515 0.5166231 0.25705627
0000e0 7e 62 67 3e 98 f0 32 3f 21 c0 d4 3e a9 cb 40 3e
       0.22596166 0.69898367 0.41552833 0.1882769

bias_hh_l1 f4 [60]
000000 16 18 48 3f e9 50 05 3f d0 5a 12 3f 70 c6 f7 3d
       0.7816175 0.52076584 0.5716982 0.12098396
000010 d3 3a ca 3e 68 da fd 3d 05 f2 e6 3e 93 b5 53 be
       0.39498004 0.12395173 0.4510652 -0.20674734
000020 d0 b0 4e 3e c3 10 6b 3e d6 df 9c 3e ac e2 f7 bd
       0.20184636 0.22955613 0.30639523 -0.12103781
000030 8b d9 0d 3f 93 d4 22 3e ca b1 6f 3d c0 1b 5a be
       0.5541007 0.15901403 0.058519162 -0.21299648
000040 b6 d4 28 3e c1 f7 e5 bd 03 93 30 bd f4 69 97 3e
       0.16487393 -0.11228896 -0.04310895 0.29573023
000050 c1 7c c9 bc 37 d2 3e 3e b4 d2 3d bd 25 e4 64 be
       -0.02459562 0.18634878 -0.04634352 -0.22352655
000060 00 54 52 3e a2 b9 bf be 02 5e 22 3d 2d 50 81 3e
       0.20539856 -0.37446314 0.039640434 0.25256482
000070 5c 61 51 3d 65 ae 81 3e f5 ab 0e be 56 5e a9 be
       0.05111824 0.25328365 -0.13932784 -0.33079785
000080 6e d1 24 3d a3 76 12 be d4 63 bd 3e b4 bd 29 be
       0.04023879 -0.14303069 0.36990225 -0.16576272
000090 2f a7 76 3e 47 f8 ff bc ac 7e 81 bd 53 6b 2c be
       0.24087213 -0.031246318 -0.06322989 -0.16837816
0000a0 df 16 93 bd 3c 02 86 be 00 ba 50 bd 3a 57 89 be
       -0.07182097 -0.2617358 -0.050958633 -0.2682436
0000b0 35 2a 5d 3d d8 51 d5 3e 36 f1 32 3e 73 46 5a 3e
       0.05399533 0.41664004 0.17474827 0.21315937
0000c0 42 8d 4b 3e 1d e3 00 3f 81 e9 6e 3e 5b 24 9d 3e
       0.19878104 0.5034655 0.23331262 0.306918
0000d0 da 09 16 3d 63 84 99 3e fd 22 98 3e e0 85 fc 3e
       0.03663049 0.29983816 0.29714194 0.4932089
0000e0 3d a1 a8 3e 34 62 3a 3f ea b3 24 3e ac 8c e3 bd
       0.32935515 0.72806096 0.16084257 -0.111108154

weight_ih_l2 f4 [60, 15]
000000 52 29 33 be d1 c8 b0 3d a2 ca 30 3e 65 17 fe 3b
       -0.17496231 0.08632053 0.17264798 0.0077542537
000010 b3 f3 7b 3e 8d 5e d2 bd a2 59 d7 3d 6c b9 8e 3c
       0.24604683 -0.102719404 0.10515143 0.0174224
000020 a8 99 3e be 21 5a fb 3e 1a ec ee 3d b2 28 1d be
       -0.18613303 0.490922 0.116661265 -0.15347555
000030 2c 3a 26 be de c3 84 be 45 2f eb be f2 ce 75 bd
       -0.16233128 -0.25930685 -0.459345 -0.06001181
000040 8b 95 8f be c3 3b 85 3e 3b e2 d0 be d7 7d 57 3f
       -0.2804378 0.26022157 -0.407976 0.8417639
000050 42 21 4b be 9b 69 57 3e 18 97 44 3f 3e f6 b5 3c
       -0.19836906 0.21036379 0.7679305 0.022212144
000060 c1 7f 2c 3e 6c 52 92 3e 6d 3e e1 be d0 b8 2c bf
       0.16845609 0.28578508 -0.4399294 -0.674695
000070 64 09 08 bf 60 15 83 3d 02 99 0a bd bc fb 56 be
       -0.5313933 0.06400561 -0.033837326 -0.20994467
000080 7e d8 a1 be a6 60 b5 be dd 64 d1 3e 3f 27 fa 3d
       -0.31610483 -0.354253 0.40897265 0.12214517
000090 4f 3b fe 3e 9e 9a 4e 3e 75 da 0f 3e 91 6a ce 3c
       0.49654624 0.2017617 0.14048178 0.0251973
0000a0 2c 46 50 3d 2e e9 2a bf a1 da 16 bf fd 92 6b bc
       0.05084817 -0.66762054 -0.5892735 -0.014378306
0000b0 65 5e b5 3e 06 1e ac be 72 70 86 be 29 67 10 3e
       0.3542358 -0.33616656 -0.26257664 0.14101852
0000c0 67 cc 9a be 16 46 f0 3d d0 ff 4a be 1d ed 23 bc
       -0.30234072 0.11732118 -0.19824147 -0.010005263
0000d0 f6 28 7e 3e 6f b4 8b be 1a b9 af 3e 2a 56 95 3e
       0.24820313 -0.27286097 0.3432091 0.291673
0000e0 cf 63 8c bd 24 38 b0 bd 07 61 09 be f9 91 93 be
       -0.068549745 -0.08604458 -0.13415919 -0.28822306
0000f0 f9 79 0b bd 1f 3c 10 be a1 e8 3c 3e 81 33 a4 3e
       -0.03405187 -0.14085434 0.18448116 0.32070544
000100 f2 80 ac 3e 03 79 13 be c1 90 27 be 75 6a a9 3d
       0.33692127 -0.14401631 -0.16363813 0.08272258
000110 5b 95 06 be b8 65 59 be 2f f1 b6 3d ab db ad be
       -0.13142912 -0.21230209 0.08932721 -0.33956656
000120 33 e0 ce be 4c 25 62 bd a6 d6 a5 3c 61 04 b4 be
       -0.40405425 -0.05521135 0.020243954 -0.3515959
000130 bb ea 96 be d4 c9 3d 3e 05 d4 7f be 6c 71 e1 3d
       -0.2947596 0.18534023 -0.24983223 0.11007962
000140 64 f3 13 bf 6b 78 09 3f 55 42 22 be 83 be 07 be
       -0.5779326 0.5369937 -0.15845616 -0.13256268
000150 b4 12 43 3d 3f 53 97 3e 73 95 0d bf 30 3c 86 bf
       0.04762526 0.295557 -0.55306166 -1.0487118
000160 68 e9 3e bd 2e 23 e2 bd ad 1e 64 be f6 57 98 3d
       -0.046609312 -0.11041866 -0.22277327 0.07438652
000170 d8 3e 17 be 7d 53 8b be fc 0f 41 be fa 4d 97 3e
       -0.14770067 -0.27212134 -0.18853754 0.2955168
000180 ef 22 14 bd 65 36 97 be 60 48 7c 3d df 0e f6 3e
       -0.036166128 -0.29533687 0.06159246 0.4805822
000190 04 59 4e bd a8 4a 8d be 75 1b 22 bf 7e ae 87 bd
       -0.05037786 -0.2759602 -0.63323146 -0.066250786
0001a0 3d e8 24 be e4 72 df 3b 4d 2a e2 3d 96 ba 80 be
       -0.16104217 0.006819116 0.110432245 -0.25142354
0001b0 64 ac f7 3d 7b e1 5c be 4d ac af bd 07 93 49 3e
       0.12093428 -0.21570389 -0.08577786 0.19684993
0001c0 db a8 eb bd 0a 20 9e bc 45 1e 99 3e e1 ba 47 3e
       -0.11506816 -0.019302387 0.29905906 0.19504882
0001d0 15 5a 3a be 84 68 9c be 9e bc a1 3d 69 2d 1b 3e
       -0.18198426 -0.3054849 0.07897304 0.15154041
0001e0 eb b2 27 3e 43 c5 ad be eb bb 24 3e ab c0 11 bf
       0.16376846 -0.3393956 0.1608731 -0.56934613
0001f0 c1 e6 4b 3f e5 c4 72 be f8 03 08 3b 91 f9 8a 3e
       0.7964898 -0.23707922 0.0020754319 0.2714353
000200 31 cf 46 3e d6 26 d4 3d 1c d2 d2 3e 10 15 3c be
       0.19414975 0.1035897 0.41175926 -0.1836741
000210 ff 90 0c bf 93 ff 07 bf ac 48 8b be 6e f9 e4 bd
       -0.54908746 -0.5312435 -0.27203882 -0.111803874
000220 b1 75 95 bd 05 92 18 3e 36 4e d5 be d5 6c c0 3e
       -0.072978385 0.14899452 -0.41661233 0.37583032
000230 73 fb 9b 3d 9d 22 44 3e 26 8c 46 be 39 d6 82 be
       0.076163195 0.19153829 -0.193894 -0.25554064
000240 56 ca a5 3e 73 c3 83 3d 65 70 ec be ac 48 b9 be
       0.32380933 0.06433763 -0.461795 -0.36188257
000250 11 64 ae 3c ed 43 97 3e 7f 4c 4e 3d df 6a d6 bd
       0.02128795 0.2954401 0.05036592 -0.10469603
000260 c1 9a a9 bd 52 08 ae 3d 35 11 c5 3d 0b 99 03 bd
       -0.0828147 0.08497681 0.096224226 -0.032128375
000270 b0 26 45 3e 40 cd 95 3d a1 81 a7 be 51 2b 90 3c
       0.1925304 0.07314539 -0.32716087 0.01759878
000280 90 85 6e 3e af 5d 93 be 00 e5 17 be 84 68 81 be
       0.23293138 -0.28782412 -0.1483345 -0.25275052
000290 a3 70 c0 3e 3e 04 8f bc 52 d1 72 bd 1d 3c 4f bd
       0.37585935 -0.017458078 -0.059281655 -0.050594438
0002a0 14 a8 94 be d1 7e 44 3e 56 12 bc be c0 43 e3 3e
       -0.29034483 0.19189002 -0.3673274 0.44387627
0002b0 cc a4 61 be 0e 3d 62 be f2 46 5a bd 07 aa 99 3e
       -0.22035521 -0.22093603 -0.053290315 0.30012533
0002c0 5d 62 35 bf f1 85 7f bf f5 f6 52 be 90 67 aa 3e
       -0.70853215 -0.99813753 -0.20602019 0.33282137
0002d0 09 a3 57 3e cd 40 ba bd 93 04 fc bb c3 9b 3e 3d
       0.21058287 -0.09094391 -0.007690975 0.046535265
0002e0 c2 7b 41 3e e0 70 00 3d b4 b3 58 3f d2 11 27 be
       0.18894866 0.031357646 0.84649205 -0.16315392
0002f0 08 cb a3 3e 08 9c 4f be 1e 1f dd 3d 3f 95 59 bf
       0.31990838 -0.20274365 0.10796951 -0.84993356
000300 88 98 5f bf 77 a5 45 bd 0d 41 6e 3e 4c a6 0c be
       -0.8734212 -0.048253503 0.23267002 -0.13735312
000310 a1 b8 e8 3c ea 9b d4 3d 02 b4 e0 be 68 4b 19 3e
       0.02840835 0.10381301 -0.43887335 0.14970171
000320 e2 59 f3 3c ef 50 aa 3e 1d 8f a2 3e e9 ce 9d be
       0.029705945 0.33264872 0.31749812 -0.30821922
000330 47 4b 95 3e 06 a9 0f 3d 55 fb 08 bf b2 4b 19 bf
       0.29158995 0.035073303 -0.535085 -0.59881127
000340 b5 0d d3 bc 3e b7 82 bd 67 42 1e bf 13 be 32 be
       -0.025763372 -0.06382607 -0.6182007 -0.1745532
000350 90 d2 20 3e a0 59 2c be 04 d5 b5 bd bc dc 04 bf
       0.15705323 -0.16831064 -0.0887852 -0.51899314
000360 6d 47 25 3d 8b 81 dd 3d c3 6a 0a bf 9f 2d 16 3f
       0.04035132 0.10815724 -0.54069155 0.5866336
000370 7d 54 aa 3a d1 59 74 be fb f5 ac be 64 2c 26 be
       0.001299515 -0.23862387 -0.33781418 -0.16227871
000380 d4 e9 26 3e 16 f9 8d bd 37 61 cb 3d 95 c5 b8 3d
       0.16300136 -0.06932275 0.09930652 0.09022061
000390 4c a1 ee 3d 51 59 f9 3d 55 40 47 3d 00 f4 2e 3d
       0.11651859 0.12175239 0.048645336 0.042713165
0003a0 77 f9 a0 3d 4d ba 99 be 4d eb ca 3e e3 25 9a bc
       0.07860082 -0.3002495 0.39632645 -0.018816894
0003b0 4c 7e 97 3c 90 f4 20 be 8a ad 6a bd 50 94 80 be
       0.01849284 -0.15718293 -0.057294406 -0.25113153
0003c0 a4 0d f5 3d bb c9 64 3e 1b c6 fc 3d 5d ed 29 be
       0.11965492 0.22342579 0.12342473 -0.16594453
0003d0 72 54 d4 3d 92 c5 a3 bc 07 c0 5b be 20 a5 0d 3e
       0.10367669 -0.01999167 -0.21459971 0.13832521
0003e0 be bd 32 be c9 e8 5f 3e 91 dd 0b be 33 ad bd be
       -0.17455193 0.21866144 -0.1365874 -0.37046203
0003f0 0c dd fe be 08 8d 8e be 01 5b c5 3e b6 3f 6d be
       -0.4977802 -0.27841973 0.38545993 -0.23168835
