experiments/DT-VAE-GAN_energy_increasing_decreasing/saved_model/vae_gan_trained_model.pth (torch, 392498 bytes, 83 tensors)

weight_ih_l0 f4 [4, 1]
0.9077351 0.7415815 -0.9333116 1.3461524
00000000: 5461 683f 49d8 3d3f 82ed 6ebf b94e ac3f

weight_hh_l0 f4 [4, 1]
0.5605358 0.016137632 -0.73475826 -1.1275715
00000000: 467f 0f3f 1133 843c 1e19 3cbf 4354 90bf

bias_ih_l0 f4 [4]
0.7740567 -0.21326126 -0.82887393 1.0034068
00000000: 9428 463f 2961 5abe 1531 54bf a26f 803f

bias_hh_l0 f4 [4]
0.3294311 0.15051852 0.33625364 -0.5280508
00000000: 31ab a83e 8721 1a3e 7029 ac3e 562e 07bf

weight f4 [32, 1]
-1.0271567 -0.047818474 0.31893015 0.7292625 -0.13059066 -0.4770503 -0.003105043 1.033639
-0.47251883 0.06550344 -0.67020434 -0.269264 0.044319928 0.68219185 0.029980797 -0.026143374
-0.7286163 -1.0256693 -0.7160696 -0.655488 -0.32653716 0.34882778 0.9305761 -0.41052428
0.2863289 1.0554503 0.13647166 1.1514875 0.021444654 1.1583331 -0.6374485 0.9796664
00000000: df79 83bf 4edd 43bd d04a a33e f2b0 3a3f
00000010: 8fb9 05be f03f f4be fa7d 4bbb 484e 843f
00000020: fded f1be ab26 863d 8392 2bbf f9dc 89be
00000030: d088 353d 20a4 2e3f 4a9a f53c a12a d6bc
00000040: 9986 3abf 2249 83bf 5650 37bf 10ce 27bf
00000050: e12f a7be 8e99 b23e 3c3a 6e3f 3d30 d2be
00000060: b499 923e ff18 873f 3abf 0b3e f163 933f
00000070: b3ac af3c 4244 943f d32f 23bf 6bcb 7a3f

bias f4 [32]
0.15784414 -0.78345686 0.94241977 -0.5141737 1.0684975 -0.66410017 -0.48063388 -0.87793124
-0.15625174 0.60948634 -0.7994444 -0.6061397 -0.4027822 -0.6153866 0.22967736 -0.68873763
-0.10782126 -0.5763454 -0.41517827 -0.35336167 -0.103429995 -0.90221786 -0.07098906 0.219483
-0.06444662 0.2703166 0.85731 0.2652163 0.81298757 -0.9316825 -0.8439991 0.1106264
00000000: e5a1 213e a190 48bf 6c42 713f e3a0 03bf
00000010: 87c4 883f 7802 2abf a515 f6be 1ac0 60bf
00000020: 7500 20be 4c07 1c3f 63a8 4cbf f92b 1bbf
00000030: 7839 cebe fa89 1dbf 8b30 6b3e 1c51 30bf
00000040: 65d1 dcbd 5f8b 13bf 3f92 d4be d2eb b4be
00000050: 1bd3 d3bd c0f7 66bf b662 91bd 27c0 603e
00000060: 97fc 83bd f066 8a3e ab78 5b3f 6eca 873e
00000070: f41f 503f bf82 6ebf 5310 58bf 1890 e23d

weight_ih_l0 f4 [60, 32]
0.1390558 -0.122403145 -0.098773986 0.045040026 -0.107970655 -0.025162045 0.041321546 -0.37478372
0.1605816 0.3433041 -0.32786146 -0.030096676 -0.39178845 -0.29005688 0.23221454 -0.37871376
0.1908554 0.14079888 0.07128266 -0.10523475 0.042187482 0.016636541 -0.061313014 0.39791176
-0.005939654 -0.14961825 0.035319358 -0.057650954 -0.008379307 0.042259958 0.044618934 -0.3501891
-0.10611865 -0.22080706 -0.13021283 -0.02898873 0.3535073 -0.13493475 -0.016254991 -0.24822225
-0.5902671 0.17471488 -0.03765178 0.029985001 -0.0017398701 0.14953369 -0.14027384 0.085375026
0.10933881 -0.16827796 -0.37367836 -0.42258582 -0.20773596 -0.03965246 0.13918394 0.29990458
0.23346223 0.27383167 0.0022312435 0.17196949 0.2253062 0.06672099 -0.06334829 0.21309564
0.0051462757 -0.12137081 -0.036244806 0.16763626 -0.21497327 0.054272495 0.20387915 -0.2638647
0.17865819 0.14448762 -0.25823316 0.1725859 -0.13282233 -0.05931346 -0.022270944 0.16512401
0.21845613 -0.15459968 -0.17022784 0.19575155 -0.15330519 -0.050444353 0.18617176 0.1852629
0.11164735 -0.31344336 -0.087503225 -0.16263217 -0.15188564 0.10153017 -0.13295083 0.020909157
0.06791726 0.21691552 0.05654679 -0.30360207 0.0739465 0.2515744 -0.062892705 -0.08630299
0.5400866 -0.0177189 0.13685955 0.19626805 0.102309875 -0.09054041 -0.12190578 -0.18725672
0.17905723 0.17607264 0.24703021 0.2855873 0.44073159 -0.09877791 -0.24956849 -0.10917949
-0.30514953 -0.10975813 0.120697394 -0.30979806 0.15842347 -0.0407921 0.22148864 -0.16619025
-0.03230692 -0.18638095 -0.15558314 -0.24609135 -0.06294647 -0.3336808 0.07017856 -0.122359335
-0.4241214 -0.058458142 0.16396824 -0.047098946 -0.19577882 -0.24843042 0.25085333 -0.3006882
0.0962264 0.11637821 0.09965976 -0.20471728 0.028560271 -0.31030804 0.189383 0.25102714
-0.0088253105 0.43652317 0.31969172 0.32837316 0.07359145 -0.2937921 0.07517715 0.027204001
-0.10506622 -0.19575457 -0.005806766 -0.09685162 0.056123678 -0.19721368 -0.101777405 -0.05196681
-0.12831025 0.043376897 0.068436876 0.14977342 0.04045917 -0.11313957 -0.1880644 -0.22981301
-0.2662421 -0.20568979 -0.015940621 -0.22030067 0.0861972 -0.017993707 -0.16494726 0.20929456
-0.23695849 0.074989915 0.14092122 0.1595527 -0.0034114083 -0.08229982 -0.1820327 -0.07188827
-0.19110465 0.1081526 -0.037299905 -0.20237036 0.3651011 -0.15541509 -0.18446301 -0.24942286
-0.3484127 0.30533975 -0.009723556 -0.35878384 -0.32810843 -0.06840352 0.04733285 -0.21601734
-0.05838584 -0.35686907 -0.11345797 -0.4792233 -0.31084937 -0.3307402 0.02246777 -0.0150065
0.11384523 0.39702392 0.11394691 0.104366496 0.120319024 0.08520177 0.05407808 -0.09362671
0.16201882 -0.35639617 0.16551471 -0.35290837 0.030062024 -0.34415376 -0.015283482 -0.031268604
-0.45037234 0.021251861 -0.012035551 0.09645196 -0.22753103 -0.31813994 0.26701087 -0.3954085
0.075853534 -0.46464622 -0.22028385 -0.25410077 -0.28075507 -0.10239042 -0.21674994 -0.111798204
-0.0469139 0.1149979 0.26838115 -0.05609171 -0.091937326 0.0009206244 -0.047836084 0.08555168
00000000: a564 0e3e 80ae fabd 044a cabd e47b 383d
00000010: b81f ddbd a220 cebc c840 293d a7e3 bfbe
00000020: 816f 243e 8ec5 af3e 75dd a7be 4e8d f6bc
00000030: 7f98 c8be 5682 94be a6c9 6d3e c5e6 c1be
00000040: 996f 433e 952d 103e a5fc 913d 5185 d7bd
00000050: c8cc 2c3d 5b49 883c 5b23 7bbd 17bb cb3e
00000060: 6ea1 c2bb 8735 19be 08ab 103d 6823 6cbd
00000070: 5c49 09bc c718 2d3d 58c2 363d fc4b b3be
00000080: bc54 d9bd 3f1b 62be 8356 05be c679 edbc
00000090: e9fe b43e 562c 0abe 3029 85bc f92d 7ebe
000000a0: bf1b 17bf 75e8 323e c138 1abd 1ba3 f53c
000000b0: 5a0c e4ba 5c1f 193e f2a3 0fbe 1ad9 ae3d
000000c0: 07ed df3d 0f51 2cbe c552 bfbe 2b5d d8be
000000d0: bcb8 54be 9e6a 22bd 3c86 0e3e 188d 993e
000000e0: b910 6f3e aa33 8c3e 0e3a 123b c518 303e
000000f0: abb6 663e 04a5 883d c0bc 81bd be35 5a3e
00000100: 17a2 a83b 4291 f8bd 6f75 14bd d7a8 2b3e
00000110: f421 5cbe d64c 5e3d b2c5 503e 4619 87be
00000120: 2cf2 363e 90f4 133e 2337 84be 5cba 303e
00000130: 9402 08be acf2 72bd 8e71 b6bc 4516 293e
00000140: f7b2 5f3e 614f 1ebe 3550 2ebe 1873 483e
00000150: 09fc 1cbe bd9e 4ebd cfa3 3e3e 8fb5 3d3e
00000160: 5ea7 e43d a67b a0be e434 b3bd 0c89 26be
00000170: e987 1bbe 0def cf3d 4324 08be ae49 ab3c
00000180: 3418 8b3d 1a1f 5e3e 9b9d 673d bb71 9bbe
00000190: 4371 973d 5cce 803e e4cd 80bd 9fbf b0bd
000001a0: 1e43 0a3f 3a27 91bc e924 0c3e 7efa 483e
000001b0: d787 d13d 406d b9bd bda9 f9bd 3ac0 3fbe
000001c0: c75a 373e 634c 343e 7df5 7c3e 8038 923e
000001d0: 92a7 e13e 134c cabd e28e 7fbe 7f99 dfbd
000001e0: 8f3c 9cbe dfc8 e0bd 3230 f73d da9d 9ebe
000001f0: c339 223e 9e15 27bd ebcd 623e c72d 2abe
00000200: 4354 04bd a6da 3ebe 3051 1fbe 5fff 7bbe
00000210: 14ea 80bd 36d8 aabe c7b9 8f3d 8897 fabd
00000220: 7126 d9be ce71 6fbd 4ae7 273e d3ea 40bd
00000230: 3e7a 48be 8b64 7ebe d96f 803e cef3 99be
00000240: 5912 c53d b357 ee3d 6b1a cc3d 68a1 51be
00000250: 3bf7 e93c b2e0 9ebe 9eed 413e a186 803e
00000260: 0998 10bc f77f df3e a2ae a33e 8720 a83e
00000270: 1db7 963d eb6b 96be 7af6 993d edda de3c
00000280: f52c d7bd e373 48be af46 bebb 245a c6bd
00000290: f1e1 653d 62f2 49be ac70 d0bd 26db 54bd
000002a0: c363 03be f9ab 313d a228 8c3d 345e 193e
000002b0: 84b8 253d b8b5 e7bd f493 40be 1a54 6bbe
000002c0: e250 88be 58a0 52be e895 82bc 8096 61be
000002d0: 2888 b03d 8a67 93bc efe7 28be 5051 563e
000002e0: 3fa5 72be 5094 993d a74d 103e c861 233e
000002f0: ef91 5fbb cf8c a8bd c866 3abe 283a 93bd
00000300: f0b0 43be 1c7f dd3d c9c7 18bd 2d3a 4fbe
00000310: 88ee ba3e 2225 1fbe dfe3 3cbe b568 7fbe
00000320: 2663 b2be 7e55 9c3e 8d4f 1fbc 84b2 b7be
00000330: d4fd a7be 2517 8cbd 17e0 413d a633 5dbe
00000340: fe25 6fbd 8bb7 b6be a75c e8bd c25c f5be
00000350: a627 9fbe c856 a9be 540e b83c d3dd 75bc
00000360: b027 e93d b846 cb3e ff5c e93d 1abe d53d
00000370: d269 f63d 447e ae3d fa80 5d3d 5cbf bfbd
00000380: 43e8 253e 8f79 b6be b07c 293e 68b0 b4be
00000390: a244 f63c ec34 b0be 9267 7abc 8213 00bd
000003a0: 3497 e6be 6218 ae3c c230 45bc 9b88 c53d
000003b0: e5fd 68be 3de3 a2be a6b5 883e fc72 cabe
000003c0: 1959 9b3d 1ce6 edbe 1792 61be 7f19 82be
000003d0: 21bf 8fbe 12b2 d1bd b2f3 5dbe 75f6 e4bd
000003e0: ca28 40bd 0584 eb3d 4169 893e 6cc0 65bd
000003f0: a349 bcbd 0f56 713a c5ef 43bd b835 af3d

weight_hh_l0 f4 [60, 15]
0.12174905 0.115099184 0.2857307 -0.26865235 -0.3125212 -0.2016988 0.003471254 0.06741045
0.10224129 0.035936646 -0.3258669 -0.1660897 -0.059767 -0.052811302 0.14682345 -0.060607903
-0.08859652 -0.03867801 -0.26503146 -0.33611548 -0.116836354 0.17177418 -0.31423113 -0.015187721
-0.1491252 -0.35539562 0.052668493 -0.039239023 0.13710278 -0.08285087 0.2687004 0.20183943
-0.009147777 -0.2576053 0.09565318 0.021502756 -0.052918952 0.008558116 -0.0059845303 0.15142374
0.11797292 -0.024331903 -0.110360876 -0.2153268 -0.15329537 0.19003248 0.16994937 0.08864754
0.13998179 -0.1146063 0.24531274 0.15273882 -0.16831264 0.27062187 -0.16631074 0.25958654
-0.15628542 -0.15787494 -0.08577891 -0.2806311 -0.27314547 -0.14479604 -0.12324255 -0.34289324
-0.103786245 -0.064565375 0.29948708 0.033399634 0.2781178 0.04406747 -0.03081799 0.078930944
-0.096053205 0.19418418 -0.047536835 -0.07906516 -0.066175826 0.23539622 -0.068985716 0.06859747
0.14125937 -0.20368165 0.31685 -0.044841252 0.19825679 0.11781074 -0.15470468 -0.093762614
0.21027647 0.026788833 0.24459247 -0.27135873 0.235164 -0.28670028 -0.1853713 -0.060420904
-0.0032702682 -0.03271632 -0.0714014 0.18033628 -0.16836993 -0.18917754 -0.15212521 0.12909438
-0.033814605 0.21096538 -0.15837604 0.23887932 0.07722179 -0.26423776 -0.2669246 0.21584277
-0.15066755 0.3498498 -0.34613127 -0.07514211 -0.3934487 -0.07306796 -0.08481914 0.2534148
0.16615267 -0.3673691 0.31753057 -0.43299848 -0.18044376 -0.34469715 0.48683304 -0.40498948
-0.009889075 -0.3818919 -0.5089678 -0.5411211 -0.3710201 -0.559415 0.1427924 -0.026604876
-0.22401845 0.42131203 -0.6017507 -0.21704674 -0.20359696 0.24756844 -0.19204056 -0.103322856
-0.26999602 -0.1318417 -0.07739493 -0.542515 -0.4190352 0.4065103 0.13282357 -0.16756545
-0.26952687 0.27424955 0.20523797 0.12325149 -0.11394285 -0.35107556 0.13832769 -0.038801588
0.055630796 0.17030038 0.046498943 0.044809826 -0.08071879 -0.03692345 -0.15649804 0.099919975
-0.050020102 -0.29901177 -0.2747614 -0.040717322 -0.033567496 -0.29115686 0.038311698 0.09491388
-0.18670689 -0.071527295 0.13500579 -0.02199103 -0.04986232 0.0388815 0.13903064 -0.1845314
0.1771096 -0.23636176 0.07298789 -0.14040954 0.3577548 -0.18073054 -0.18689948 0.053690262
-0.26137796 -0.14186783 0.078253664 0.05380351 0.16162568 -0.23392943 -0.11660666 0.18218622
-0.17424361 0.10125828 -0.28211197 0.25593644 -0.33109772 0.018248994 -0.11957975 -0.01246596
0.01817216 -0.18028243 0.25493336 0.025717879 0.13691284 -0.12721358 0.01516439 -0.2739495
0.07415282 -0.047948882 0.02320054 0.018923623 0.08346368 -0.20193693 -0.08015414 0.051101446
0.2885729 0.19467223 -0.042047095 0.0018321844 -0.24251668 -0.23127913 0.0112712355 0.075991385
0.015848268 -0.18287215 0.15849264 -0.269302 0.1764006 -0.05167416 -0.011717582 -0.13307023
-0.12939502 0.122686274 -0.011962849 -0.029011456 0.07562593 0.19152227 -0.0061451895 -0.2559969
0.21003866 -0.13836269 0.041639186 -0.23530056 0.09993579 -0.109926745 -0.17916855 0.13426042
00000000: 9157 f93d 1fb9 eb3d 4b4b 923e cd8c 89be
00000010: c702 a0be 218a 4ebe fa7d 633b 7d0e 8a3d
00000020: e263 d13d 4e32 133d 07d8 a6be 6b13 2abe
00000030: 3ece 74bd aa50 58bd e358 163e fe3f 78bd
00000040: 1872 b5bd d56c 1ebd 34b2 87be 5417 acbe
00000050: e647 efbd 92e5 2f3e e7e2 a0be ebd5 78bc
00000060: 47b4 18be 6af6 b5be ebba 573d 19b9 20bd
00000070: ac64 0c3e b8ad a9bd 1993 893e ffae 4e3e
00000080: 8fe0 15bc d8e4 83be d0e5 c33d 8c26 b03c
00000090: 8bc1 58bd 5737 0c3c e119 c4bb d30e 1b3e
000000a0: c99b f13d b353 c7bc e204 e2bd a17e 5cbe
000000b0: 76f9 1cbe e097 423e 3507 2e3e d78c b53d
000000c0: 6357 0f3e b5b6 eabd 4333 7b3e 9167 1c3e
000000d0: 265a 2cbe f38e 8a3e 5d4d 2abe 87e8 843e
000000e0: 4909 20be f8a9 21be daac afbd e1ae 8fbe
000000f0: b9d9 8bbe 6a45 14be 9766 fcbd b48f afbe
00000100: e28d d4bd da3a 84bd 5f56 993e 0ece 083d
00000110: 7565 8e3e 1780 343d 0276 fcbc 8ca6 a13d
00000120: 8bb7 c4bd 38d8 463e fcb5 42bd eaec a1bd
00000130: 3187 87bd b50b 713e 6248 8dbd d57c 8c3d
00000140: 4ca6 103e ec91 50be 2a3a a23e 76ab 37bd
00000150: d403 4b3e c246 f13d e76a 1ebe 9d06 c0bd
00000160: b752 573e 4174 db3c 7376 7a3e 88ef 8abe
00000170: d5ce 703e 61ca 92be f9d1 3dbe e97b 77bd
00000180: ff51 56bb 8c01 06bd e63a 92bd 13aa 383e
00000190: 2b69 2cbe c2b7 41be b6c6 1bbe 5131 043e
000001a0: 2f81 0abd 4f07 583e 542d 22be c89c 743e
000001b0: 7526 9e3d 2c4a 87be 57aa 88be e305 5d3e
000001c0: 9848 1abe 831f b33e 1e38 b1be 1be4 99bd
000001d0: 1c72 c9be a8a4 95bd a8b5 adbd 96bf 813e
000001e0: ed23 2a3e cd17 bcbe 5e93 a23e fab1 ddbe
000001f0: 40c6 38be 257c b0be 2e42 f93e c85a cfbe
00000200: c905 22bc 5687 c3be b74b 02bf ea86 0abf
00000210: 59f6 bdbe d235 0fbf 2c38 123e 78f2 d9bc
00000220: 1865 65be 36b6 d73e 550c 1abf 8041 5ebe
00000230: b97b 50be 9582 7d3e 48a6 44be ef9a d3bd
00000240: eb3c 8abe 8301 07be 3c81 9ebd 43e2 0abf
00000250: c88b d6be 1e22 d03e e702 083e 4796 2bbe
00000260: 6dff 89be 706a 8c3e e729 523e 476b fc3d
00000270: de5a e9bd 2dc0 b3be c6a5 0d3e 6aee 1ebd
00000280: 1edd 633d 3963 2e3e ad75 3e3d 828a 373d
00000290: e54f a5bd 0b3d 17bd 0641 20be d8a2 cc3d
000002a0: e1e1 4cbd 1218 99be 87ad 8cbe 35c7 26bd
000002b0: 127e 09bd 8312 95be baec 1c3d 3562 c23d
000002c0: 1730 3fbe e77c 92bd f53e 0a3e 8826 b4bc
000002d0: 6f3c 4cbd 3542 1f3d 0c5e 0e3e cdf5 3cbe
000002e0: 385c 353e d108 72be ad7a 953d 85c7 0fbe
000002f0: a32b b73e 6d11 39be 9462 3fbe 52ea 5b3d
00000300: 55d3 85be cd45 11be 7543 a03d 1261 5c3d
00000310: 3481 253e 328b 6fbe 79cf eebd 068f 3a3e
00000320: eb6c 32be 8060 cf3d fb70 90be 1a0a 833e
00000330: a485 a9be ea7e 953c 3ae6 f4bd 073e 4cbc
00000340: c8dd 943c f59b 38be a086 823e 4dae d23c
00000350: e132 0c3e 4744 02be 1074 783c 1c43 8cbe
00000360: 6fdd 973d 0c66 44bd 0f0f be3c b705 9b3c
00000370: 02ef aa3d 8ec8 4ebe db27 a4bd c04f 513d
00000380: d4bf 933e 2858 473e 9339 2cbd e825 f03a
00000390: 4b56 78be 70d4 6cbe fdaa 383c 5fa1 9b3d
000003a0: 3ad4 813c d642 3bbe e54b 223e f4e1 89be
000003b0: 5ca2 343e 49a8 53bd 1afb 3fbc 9043 08be
000003c0: 2180 04be f142 fb3d d3ff 43bc 6fa9 edbc
000003d0: c5e1 9a3d 6a1e 443e 965d c9bb 0712 83be
000003e0: 6014 573e f3ae 0dbe da8d 2a3d a1f2 70be
000003f0: 23ab cc3d 4621 e1bd f677 37be 907b 093e

bias_ih_l0 f4 [60]
-0.057091452 0.051244967 -0.010585489 0.16445732 -0.0719781 -0.1911489 0.35590163 0.22760355
0.50949377 0.34757036 0.29250893 -0.086833395 0.07512796 0.17828842 -0.19328089 -0.07600855
-0.1560696 0.09401915 -0.16050822 -0.09302543 0.18153661 -0.12097436 0.121949285 0.03451819
-0.023049477 -0.25985965 0.27144256 -0.12277905 0.043015026 0.28396615 -0.20042902 0.15437937
-0.13753742 -0.07606896 -0.2463348 -0.119846046 0.002558537 -0.24195036 0.06164041 -0.03036956
0.16957597 -0.3238739 -0.23137368 0.10636178 -0.13771844 0.053106595 0.31718096 0.07600342
0.054128278 0.2985949 0.05870822 -0.083546564 -0.0043642865 0.22403555 0.09469494 -0.16002458
-0.0258665 0.14839068 -0.003471347 0.030148307
00000000: bad8 69bd 3ee6 513d c26e 2dbc 8067 283e
00000010: 4169 93bd 8abc 43be bd38 b63e e810 693e
00000020: 2f6e 023f bef4 b13e bbc3 953e b5d5 b1bd
00000030: b0dc 993d 3d91 363e 6deb 45be 5faa 9bbd
00000040: b6d0 1fbe 1d8d c03d 445c 24be 1e84 bebd
00000050: bce4 393e 68c1 f7bd 8cc0 f93d f262 0d3d
00000060: 42d2 bcbc 530c 85be 85fa 8a3e 9573 fbbd
00000070: 8630 303d 0364 913e 443d 4dbe a015 1e3e
00000080: 9cd6 0cbe 0bca 9bbd 313f 7cbe d871 f5bd
00000090: 21ad 273b d6c1 77be a87a 7c3d 95c9 f8bc
000000a0: 53a5 2d3e cdd2 a5be 39ed 6cbe 34d4 d93d
000000b0: 1006 0dbe 4d86 593d 8b65 a23e aea7 9b3d
000000c0: 9db5 5d3d 6ee1 983e 0878 703d 761a abbd
000000d0: 4a02 8fbb 9369 653e 6cef c13d 7cdd 23be
000000e0: fbe5 d3bc baf3 173e 8a7f 63bb 95f9 f63c

bias_hh_l0 f4 [60]
-0.06730751 0.063106515 0.08430048 0.05184092 0.036507867 0.19377832 0.27642906 -0.051662426
0.5237282 0.035024513 0.10353263 0.24407011 0.24384138 0.0046043047 -0.19078174 -0.18770827
-0.13874856 -0.15466368 -0.009340248 0.28436202 0.26581112 0.027532812 -0.023159448 0.06985186
-0.10242137 -0.24722435 0.09380311 -0.015856838 -0.19014595 0.28205603 -0.25319222 -0.13848203
0.03509985 -0.1579622 0.20064928 -0.13475609 0.22890653 -0.15100393 0.108477555 -0.17387027
-0.25805652 -0.11308095 -0.0039443523 -0.34382156 -0.10746742 0.045849826 0.072690584 0.10352221
0.19164084 0.20394218 0.107557714 0.097706385 0.052276358 0.28230122 0.48303276 0.037087586
-0.07819365 0.06749354 0.16864291 -0.06439663
00000000: 85d8 89bd fd3d 813d bba5 ac3d 2557 543d
00000010: 4689 153d d36d 463e 1c88 8d3e fb9b 53bd
00000020: 0d13 063f dd75 0f3d ea08 d43d 84ed 793e
00000030: 8eb1 793e b5df 963b 4a5c 43be 9936 40be
00000040: 1a14 0ebe 2860 1ebe d707 19bc e697 913e
00000050: 6518 883e 7e8c e13c e2b8 bdbc 7e0e 8f3d
00000060: 4cc2 d1bd 6128 7dbe d81b c03d 33e6 81bc
00000070: 9fb5 42be a669 903e 69a2 81be 3cce 0dbe
00000080: dcc4 0f3d d8c0 21be 0177 4d3e 80fd 09be
00000090: 7966 6a3e c6a0 1abe 7b29 de3d 0c0b 32be
000000a0: fc1f 84be fc96 e7bd a03f 81bb 6109 b0be
000000b0: e117 dcbd 07cd 3b3d cdde 943d 7403 d43d
000000c0: 7f3d 443e 38d6 503e 3847 dc3d 491a c83d
000000d0: bc1f 563d c989 903e 1250 f73e 27e9 173d
000000e0: fe23 a0bd 0e3a 8a3d bab0 2c3e 61e2 83bd

weight_ih_l1 f4 [60, 15]
-0.2318153 -0.18701158 -0.019032115 -0.25825757 -0.13097215 -0.22794804 0.11949475 0.06585101
-0.29093015 0.17054991 0.0019058508 0.20816982 -0.23733138 0.08516322 0.26050624 -0.2108693
-0.49222693 0.06225271 0.10240682 0.15316652 -0.038811773 0.30748105 -0.5444774 0.12890963
-0.30074143 -0.3131766 -0.110160284 -0.0047882507 -0.14885971 0.07262643 -0.06997091 -0.24049067
0.16297676 0.0722123 -0.447135 -0.057412565 0.22881319 -0.58819383 0.27466822 -0.4767987
-0.40126055 -0.2892255 -0.058148753 -0.07542279 0.17464045 0.15868501 -0.22387092 -0.07919936
-0.18976627 -0.21836673 -0.27988502 0.15849847 0.1284281 -0.063775204 -0.29073668 -0.32509094
0.021063082 -0.20661701 0.012477828 0.33101392 0.09900203 -0.018226612 0.4096058 -0.61397517
-0.47342902 -0.2674719 0.097293824 -0.16202503 -0.49215454 0.21963681 -0.4041642 -0.23676956
-0.41702306 -0.11357451 -0.17992797 0.45580387 -0.29780105 0.027996657 -0.26473618 0.0719673
-0.23410228 -0.032486305 -0.33504903 -0.19245926 -0.058658157 -0.26653972 -0.20475972 -0.1333719
0.055547807 0.104773246 0.3168314 -0.3545218 0.40450704 -0.5278225 -0.38010257 -0.18007772
0.5108874 -0.42752057 -0.0969981 0.15798737 -0.06931815 -0.38074607 -0.24188921 -0.50718915
-0.20762008 -0.031523727 -0.2837249 -0.03283428 -0.18397622 -0.24361433 -0.25693053 0.048975203
-0.30997136 0.119065024 -0.026961321 -0.33651358 -0.31779554 -0.28710207 -0.30104262 -0.09249421
0.12104809 -0.045190822 0.22193259 -0.24144723 -0.4104917 -0.38623437 0.30996126 -0.081040695
-0.111848325 -0.056285143 -0.26027748 -0.4014999 -0.5023833 -0.59542435 0.2079609 0.07061631
-0.6839086 0.17090318 -0.5066233 -0.6453467 -0.5805844 0.58589655 -0.4126015 -0.045196604
0.0074283113 -0.530037 -0.77793354 -0.7679891 -0.49257758 0.08982332 -0.22550271 -0.06815804
0.19825393 0.2045776 -0.13541724 0.030754639 0.03897603 -0.30029312 0.20377989 -0.45730752
-0.11479374 0.07193647 -0.1308572 -0.27188304 0.20032991 0.20009181 -0.2684703 0.4579379
-0.06687051 -0.21030273 -0.059070304 0.057560347 -0.34478992 -0.004326925 -0.18804757 -0.44120464
-0.17474723 -0.11252435 -0.44651854 0.48820674 -0.27695394 -0.10002906 0.08418582 0.15175195
-0.1287552 0.11097001 0.14024815 -0.41011032 0.38151416 -0.40609297 -0.09886388 0.04563986
-0.07699788 -0.29561138 0.08032861 0.3531294 -0.18387435 0.21776275 -0.26676288 -0.18142857
-0.34926566 0.63371104 -0.53295296 -0.14367375 -0.26588595 -0.17665468 -0.6831646 -0.2696668
-0.7399439 0.31063062 -0.034816075 0.20638533 0.24692862 -0.15305798 0.079863906 0.097802095
0.0028530583 -0.33938393 0.04161944 0.33049682 -0.2139731 -0.18199655 0.03592417 0.08584172
-0.14007767 0.20063251 -0.16400136 -0.13467875 -0.09352665 -0.115781 -0.13478842 -0.22888845
0.12479448 -0.008144936 0.194416 0.041881822 -0.09778555 -0.22604512 0.008934229 0.38460663
-0.27067834 -0.18065895 -0.091079 0.05188373 0.0020567065 -0.091770165 0.14020224 -0.44267392
-0.029211352 -0.50363666 -0.20518991 0.04136752 0.23452547 -0.183703 -0.3261678 -0.110505655
00000000: fd60 6dbe f77f 3fbe 3de9 9bbc 563a 84be
00000010: 901d 06be 366b 69be aab9 f43d e5dc 863d
00000020: ccf4 94be a3a4 2e3e becd f93a 782a 553e
00000030: ff06 73be 0e6a ae3d 1361 853e 1fee 57be
00000040: 2b05 fcbe b3fc 7e3d abba d13d afd7 1c3e
00000050: 18f9 1ebd 286e 9d3e df62 0bbf e300 043e
00000060: c8fa 99be af58 a0be b79b e1bd c2e6 9cbb
00000070: ae6e 18be 2abd 943d e94c 8fbd 3043 76be
00000080: 61e3 263e 0be4 933d e1ee e4be 7029 6bbd
00000090: 014e 6a3e df93 16bf 50a1 8c3e f61e f4be
000000a0: 0672 cdbe 5d15 94be 632d 6ebd 4477 9abd
000000b0: f2d4 323e 537e 223e 6b3e 65be 4633 a2bd
000000c0: 1752 42be 879b 5fbe 174d 8fbe 6c4d 223e
000000d0: a882 033e 939c 82bd 70db 94be 5272 a6be
000000e0: 7c8c ac3c 6993 53be ce6f 4c3c a87a a93e
000000f0: 94c1 ca3d fa4f 95bc dab7 d13e 7a2d 1dbf
00000100: 4a65 f2be 14f2 88be fc41 c73d e4e9 25be
00000110: aefb fbbe 79e8 603e 9cee cebe b873 72be
00000120: 0c84 d5be c199 e8bd 0a3f 38be 205f e93e
00000130: 6179 98be 3f59 e53c 808b 87be 9763 933d
00000140: 82b8 6fbe 5c10 05bd 8c8b abbe 0a14 45be
00000150: 8943 70bd e577 88be 88ac 51be a592 08be
00000160: 1986 633d 5b93 d63d ba37 a23e e283 b5be
00000170: 8c1b cf3e 601f 07bf ce9c c2be 4b66 38be
00000180: 84c9 023f fae3 dabe f1a6 c6bd 71c7 213e
00000190: adf6 8dbd 26f1 c2be ceb1 77be 26d7 01bf
000001a0: 5c9a 54be 061f 01bd 6444 91be 3d7d 06bd
000001b0: 4364 3cbe 0976 79be 668c 83be 399a 483d
000001c0: 91b4 9ebe 5dd8 f33d fddd dcbc 824b acbe
000001d0: 19b6 a2be 0bff 92be 4222 9abe 9b6d bdbd
000001e0: 10e8 f73d 031a 39bd 4c42 633e f13d 77be
000001f0: f82b d2be 83c0 c5be 3eb3 9e3e aaf8 a5bd
00000200: bc10 e5bd 408b 66bd 1743 85be 6591 cdbe
00000210: 319c 00bf bb6d 18bf b4f3 543e 499f 903d
00000220: a214 2fbf 3e01 2f3e 11b2 01bf 7135 25bf
00000230: 2ea1 14bf 51fd 153f 8140 d3be 1320 39bd
00000240: 3169 f33b 81b0 07bf a726 47bf ef9a 44bf
00000250: 2133 fcbe 4af5 b73d 2fea 66be 7196 8bbd
00000260: 1403 4b3e ca7c 513e d1aa 0abe 27f1 fb3c
00000270: 54a5 1f3d 05c0 99be adab 503e 3624 eabe
00000280: fb18 ebbd 6e53 933d 6eff 05be 4134 8bbe
00000290: 4923 4d3e dee4 4c3e f074 89be d676 ea3e
000002a0: 68f3 88bd 9959 57be b4f3 71bd 66c4 6b3d
000002b0: 4e88 b0be e1c8 8dbb 8b8f 40be 93e5 e1be
000002c0: f0f0 32be 2b73 e6bd 149e e4be 3cf6 f93e
000002d0: e8cc 8dbe 09dc ccbd 9d69 ac3d dd64 1b3e
000002e0: 67d8 03be 3f44 e33d 369d 0f3e fbf9 d1be
000002f0: d355 c33e 6beb cfbe 2579 cabd ddf0 3a3d
00000300: 11b1 9dbd 605a 97be 5483 a43d 60cd b43e
00000310: 8f49 3cbe 33fd 5e3e 2595 88be 69c8 39be
00000320: f3d2 b2be e33a 223f 9b6f 08bf 361f 13be
00000330: 3422 88be f7e4 34be e0e3 2ebf c411 8abe
00000340: f76c 3dbf fa0a 9f3e 4d9b 0ebd ad56 533e
00000350: dbda 7c3e 3bbb 1cbe b08f a33d 774c c83d
00000360: 60fa 3a3b bbc3 adbe 2579 2a3d e136 a93e
00000370: c41b 5bbe 4e5d 3abe 3925 133d c9cd af3d
00000380: 8570 0fbe 9c72 4d3e f9ef 27be 3ae9 09be
00000390: e68a bfbd 971e edbd fa05 0abe bc61 6abe
000003a0: 4094 ff3d 5672 05bc fd14 473e 468c 2b3d
000003b0: ca43 c8bd 5f78 67be df60 123c 29eb c43e
000003c0: 5a96 8abe a9fe 38be a087 babd 0984 543d
000003d0: cfc9 063b fff1 bbbd 2d91 0f3e 28a6 e2be
000003e0: a54c efbc 55ee 00bf 4e1d 52be fd70 293d
000003f0: 7227 703e a41c 3cbe 77ff a6be ca50 e2bd

weight_hh_l1 f4 [60, 15]
-0.09594252 -0.25975147 -0.2853429 -0.06253242 0.2511987 0.059896678 0.08098875 0.1398707
-0.20970419 0.15417962 0.06681935 -0.0065782913 -0.031149747 -0.20179595 -0.013643713 -0.09450421
0.054683086 0.13272682 0.119804755 -0.24570101 -0.37803602 0.18782577 -0.064366184 -0.19564673
0.047089778 -0.081085734 -0.09979972 0.27699387 0.17004052 -0.16869928 0.3038765 -0.03492838
0.319372 -0.043562513 0.2861929 -0.07531442 -0.30535173 -0.30529004 -0.2787375 -0.112116285
0.19748698 0.12617 0.047561247 0.23582636 0.010931441 0.28931758 -0.053695016 -0.16281754
-0.22911999 0.27996865 -0.13847977 -0.00021740788 0.12889951 -0.10228578 0.029775025 0.19503084
0.04341283 0.11043436 -0.28529936 -0.29917318 0.075847276 0.14919901 0.31386852 -0.13207434
-0.12310884 -0.30085057 -0.2766613 -0.13062295 0.07300062 0.47706437 0.20234276 -0.27105367
0.21868168 -0.48148707 -0.33120713 -0.0003012023 -0.07628144 0.2737001 0.1687561 0.3041646
-0.025826283 -0.15981513 -0.00879926 0.13595158 0.1445374 -0.016950289 0.25427085 0.13113451
0.13559112 0.16187176 -0.15955475 -0.18013658 0.22232074 -0.34005573 0.40448162 -0.27367127
0.1610818 0.04863223 -0.4452819 -0.22262895 0.35493612 0.098116755 0.109712236 0.12006554
-0.18416788 0.3536797 -0.29955626 -0.12454841 0.06423304 -0.07423975 -0.00074074365 0.08310355
0.02115921 -0.17630158 -0.026127428 -0.039223384 -0.04783686 -0.086954035 0.18798582 0.08299172
-0.13067572 -0.63364273 0.62726045 -0.19379346 0.28075284 -0.39864123 0.027363487 -0.107384205
-0.18745527 -0.18908784 0.06988583 0.18908249 0.36733308 0.17569067 -0.40773764 0.12976444
-0.55801797 0.42737788 -0.6978805 0.60606974 -0.4381269 -0.2129244 -0.3562038 -0.074240915
0.2542336 0.42611408 0.34950668 0.34230655 0.16852918 -0.15934995 0.1328384 0.08623217
0.022662295 -0.060430303 0.14262488 -0.043072883 -0.2731138 -0.11625284 -0.11129325 -0.0645993
-0.040386885 0.088672385 0.26681188 -0.055719193 -0.09703947 0.37374696 -0.03368115 0.49768996
-0.5405865 0.18105254 -0.33978045 -0.12675482 -0.12333125 -0.13473284 0.18563938 0.027924614
0.10319272 0.20732625 -0.102194175 -0.33269125 -0.11953283 -0.07146524 0.3232778 0.06292853
0.042318508 -0.016554924 0.09371568 0.1907575 -0.29354075 0.19042826 -0.097316325 0.2815954
-0.17294115 0.37196955 0.21406528 0.034067776 -0.53525144 0.3741755 -0.59064484 0.5709385
-0.46966004 -0.06380173 -0.42250958 -0.37122706 -0.047483977 0.5341439 0.5246862 0.4184227
0.18437769 -0.56213623 -0.2349443 -0.15227222 0.1265374 -0.20127562 -0.05967623 -0.3276594
-0.35208327 0.026792176 -0.24863885 -0.06661631 0.18036874 -0.0692675 0.21644895 -0.2190511
0.1435689 0.27173078 0.11699828 0.19024216 0.116369255 0.17086059 0.30073917 0.041494578
-0.19155039 -0.057981543 0.21388745 -0.09414374 0.14580578 0.21327032 -0.2446553 0.08417812
0.122501284 -0.09375107 0.07012675 0.122648 -0.3025352 0.06279963 0.4471263 -0.16539106
-0.2530476 -0.25320864 -0.09501736 -0.084854394 -0.013655133 0.17683387 0.14941035 0.23583075
00000000: 837d c4bd 25fe 84be 7718 92be ff10 80bd
00000010: 1e9d 803e 3856 753d 6edd a53d 443a 0f3e
00000020: b2bc 56be 43e1 1d3e 95d8 883d b58e d7bb
00000030: c12d ffbc 99a3 4ebe e189 5fbc 6c8b c1bd
00000040: 5ffb 5f3d 8ae9 073e 325c f53d 0c99 7bbe
00000050: f08d c1be 6655 403e 6bd2 83bd 9e57 48be
00000060: 36e1 403d 4710 a6bd cc63 ccbd 24d2 8d3e
00000070: 1a1f 2e3e 81bf 2cbe b395 9b3e 1011 0fbd
00000080: ba84 a33e 9b6e 32bd e087 923e 723e 9abd
00000090: 1057 9cbe fa4e 9cbe aeb6 8ebe 399d e5bd
000000a0: 073a 4a3e b532 013e 95cf 423d 777c 713e
000000b0: c919 333c 6f21 943e 4eef 5bbd a4b9 26be
000000c0: 6e9e 6abe 0d58 8f3e a4cd 0dbe fcf7 63b9
000000d0: 3cfe 033e 357b d1bd c1ea f33c 2ab6 473e
000000e0: a7d1 313d 692b e23d c212 92be 3a2d 99be
000000f0: d155 9b3d a0c7 183e 60b3 a03e 7f3e 07be
00000100: 7d20 fcbd 1609 9abe 8da6 8dbe 06c2 05be
00000110: 5981 953d c841 f43e f132 4f3e 8cc7 8abe
00000120: 17ee 5f3e 7985 f6be fb93 a9be b0ea 9db9
00000130: 7239 9cbd 6b22 8c3e 66ce 2c3e 76bb 9b3e
00000140: a491 d3bc 94a6 23be c52a 10bc e436 0b3e
00000150: 9d01 143e 55db 8abc ca2f 823e 2048 063e
00000160: 66d8 0a3e b6c1 253e 5262 23be b975 38be
00000170: 0ca8 633e c91b aebe 3718 cf3e a41e 8cbe
00000180: a1f2 243e 9732 473d fdfb e3be d8f8 63be
00000190: 30ba b53e 70f1 c83d cfb0 e03d ece4 f53d
000001a0: 8196 3cbe 8115 b53e 705f 99be 3d13 ffbd
000001b0: 9d8c 833d 030b 98bd 772e 42ba 3232 aa3d
000001c0: 1456 ad3c 6788 34be 3009 d6bc b3a8 20bd
000001d0: 95f0 43bd f514 b2bd 5b7f 403e 90f7 a93d
000001e0: dbcf 05be 6936 22bf 2494 203f cb71 46be
000001f0: d6be 8f3e b41a ccbe 6429 e03c 40ec dbbd
00000200: 46f4 3fbe 3ea0 41be 4d20 8f3d d79e 413e
00000210: 1513 bc3e 41e8 333e fdc2 d0be f8e0 043e
00000220: 44da 0ebf 46d1 da3e 4ca8 32bf 6327 1b3f
00000230: 2b52 e0be db08 5abe 5860 b6be 9f0b 98bd
00000240: e82a 823e a02b da3e 8af2 b23e ce42 af3e
00000250: ea92 2c3e a22c 23be ca06 083e 7e9a b03d
00000260: 47a6 b93c c485 77bd 420c 123e 316d 30bd
00000270: 92d5 8bbe f815 eebd b7ed e3bd a34c 84bd
00000280: b86c 25bd de99 b53d 919b 883e cf39 64bd
00000290: a1bc c6bd c35b bf3e 3ff5 09bd 38d1 fe3e
000002a0: e063 0abf d665 393e b4f7 adbe 04cc 01be
000002b0: 1895 fcbd 68f7 09be 4018 3e3e 29c2 e43c
000002c0: b456 d33d 554d 543e 2e4b d1bd 8256 aabe
000002d0: a1cd f4bd 5e5c 92bd ab84 a53e ace0 803d
000002e0: 2c56 2d3d 319e 87bc 02ee bf3d ef55 433e
000002f0: f94a 96be a0ff 423e c84d c7bd 462d 903e
00000300: 7c17 31be cb72 be3e ee33 5b3e a78a 0b3d
00000310: 3d06 09bf ee93 bf3e 8034 17bf 0729 123f
00000320: 4877 f0be 7baa 82bd 2d53 d8be 7911 bebe
00000330: 8f7e 42bd a8bd 083f d651 063f 803b d63e
00000340: 81cd 3c3e 29e8 0fbf 3d95 70be 40ed 1bbe
00000350: 0593 013e 321b 4ebe 106f 74bd f9c2 a7be
00000360: 4244 b4be 447b db3c 2f9b 7ebe 226e 88bd
00000370: 95b2 383e 1edc 8dbd cba4 5d3e ee4e 60be
00000380: ba03 133e 4c20 8b3e cb9c ef3d d7ce 423e
00000390: 0153 ee3d 14f6 2e3e 7cfa 993e 38f6 293d
000003a0: c925 44be 0e7e 6dbd 5005 5b3e 6fce c0bd
000003b0: 1c4e 153e 8963 5a3e eb86 7abe 9465 ac3d
000003c0: f4e1 fa3d 9000 c0bd 9d9e 8f3d e02e fb3d
000003d0: e5e5 9abe 189d 803d bded e43e 465c 29be
000003e0: 748f 81be 90a4 81be 7698 c2bd 24c8 adbd
000003f0: c7b9 5fbc f013 353e 07ff 183e 9e7d 713e

bias_ih_l1 f4 [60]
0.22596177 0.07969224 0.05956464 0.16793415 0.46694055 -0.022787755 0.36225167 0.047410224
0.33425763 0.38791716 -0.17025118 0.47354722 0.22511056 0.45771924 -0.07822171 0.24237853
-0.2024938 0.013220841 -0.15449895 0.046387736 0.25564158 -0.029110601 0.26463932 0.059819378
-0.10541935 -0.22821291 0.27539188 0.1724125 -0.105632275 0.04130311 -0.064833686 -0.111266285
0.34955356 0.0015542472 0.30558038 -0.06725633 -0.17895854 0.19825904 -0.056353666 0.25320023
-0.1946997 -0.20870475 0.36297256 -0.019756783 -0.3085066 -0.1179483 -0.081442855 -0.08337967
-0.17684078 0.13174453 0.3452916 0.5095383 -0.11653953 0.48313943 0.5334805 -0.16469276
0.21187478 -0.11238825 0.5117833 0.35728788
00000000: 8662 673e af35 a33d 0dfa 733d eef6 2b3e
00000010: d512 ef3e 63ad babc 0d79 b93e 3931 423d
00000020: d123 ab3e 149d c63e 5356 2ebe c874 f23e
00000030: 6283 663e 2d5a ea3e b432 a0bd 1432 783e
00000040: 895a 4fbe 3a9c 583c f934 1ebe 1101 3e3d
00000050: 74e3 823e 5b79 eebc ce7e 873e 2a05 753d
00000060: 1ae6 d7bd a5b0 69be 2a00 8d3e e78c 303e
00000070: bc55 d8bd 732d 293d 86c7 84bd 94df e3bd
00000080: aff8 b23e e2b7 cb3a 0875 9c3e b0bd 89bd
00000090: e840 37be 6b04 4b3e 1ad3 66bd 76a3 813e
000000a0: 5c5f 47be b3b6 55be 8ad7 b93e fad8 a1bc
000000b0: 94f4 9dbe e18e f1bd 83cb a6bd f6c2 aabd
000000c0: c015 35be 0ae8 063e 10ca b03e 1a71 023f
000000d0: 47ac eebd 0d5e f73e 2e92 083f 38a5 28be
000000e0: b4f5 583e d02b e6bd 3b04 033f 70ee b63e

bias_hh_l1 f4 [60]
-0.18745434 -0.059549607 0.13216642 0.16085781 0.52969944 0.051202435 0.08994804 0.32790124
0.47574154 0.41016266 0.1357686 0.32214993 -0.1261225 0.636864 0.293501 -0.120374836
-0.123334974 0.22501507 0.13813509 -0.18458922 0.08710937 0.064312115 -0.116845824 -0.234727
0.012441549 -0.123366326 0.011588827 -0.097081766 -0.24428423 0.1393135 -0.02214835 -0.0042256066
0.3427707 -0.089747824 0.4303028 -0.2600749 0.12219388 -0.123594336 -0.21885146 0.02711813
-0.055369377 0.013245627 0.22073603 -0.15200192 -0.21467322 0.19387151 -0.013742481 0.08691335
-0.0905207 0.11963227 0.37106064 0.49048594 0.10361018 0.5469051 0.63719505 0.032983918
0.055045627 0.2951551 0.5456651 -0.0095997285
00000000: 08f4 3fbe 4aea 73bd a256 073e e9b7 243e
00000010: 629a 073f a5b9 513d ae36 b83d ace2 a73e
00000020: 6594 f33e d700 d23e ed06 0b3e d6f0 a43e
00000030: 4226 01be 8509 233f c345 963e 1587 f6bd
00000040: 0c97 fcbd 5a6a 663e 4973 0d3e f504 3dbe
00000050: 6666 b23d 12b6 833d dd4c efbd 465c 70be
00000060: a4d7 4b3c 7ca7 fcbd 10df 3d3c ced2 c6bd
00000070: a525 7abe 33a8 0e3e 7570 b5bc f576 8abb
00000080: a47f af3e b5cd b7bd a650 dc3e 8a28 85be
00000090: c940 fa3d 071f fdbd 991a 60be d726 de3c
000000a0: 00cb 62bd 3004 593c a008 623e 64a6 1bbe
000000b0: 4cd3 5bbe 4186 463e 2528 61bc a0ff b13d
000000c0: eb62 b9bd c301 f53d a9fb bd3e f920 fb3e
000000d0: 9331 d43d f901 0c3f 371f 233f 251a 073d
000000e0: 8677 613d 921e 973e b5b0 0b3f 2e48 1dbc

weight_ih_l2 f4 [60, 15]
-0.018747535 -0.5811471 0.56799436 -0.18381886 0.4010327 -0.28886527 -0.10885406 -0.32877615
0.09598926 -0.0520193 0.50978035 -0.2371293 0.16825694 -0.13190296 -0.3809426 0.27364904
-0.86040246 0.12614457 -0.3796717 0.41741833 0.07308416 -0.580547 -0.85704136 0.36625597
0.21489982 0.027596975 -0.3727118 -0.09413167 0.071677834 -0.5715998 0.08485468 -0.2981142
-0.021266973 -0.008035903 0.015937187 -0.22595023 0.013700612 -0.62590474 0.34937873 -0.061750315
0.18327563 -0.24061482 -0.048372928 -0.19418977 -0.2727906 -0.21097153 -0.12181766 -0.24240386
0.09096511 -0.13808171 -0.038148798 -0.3256308 0.008862216 0.29151347 -0.011150393 0.015151143
-0.20487839 -0.12736554 -0.06323342 0.086564995 0.10125494 -0.28396705 0.13759752 -0.3910664
0.2116232 0.06291988 -0.30044615 -0.07954371 0.24983767 0.260878 0.14671083 -0.21313643
0.012816822 0.11363233 -0.32882443 -0.096218616 -0.8122203 0.21313582 -0.6588086 0.20235193
-0.24425143 -0.17524402 -0.5831828 0.31317148 0.21297164 0.44843966 0.19408596 0.40563917
-0.05375346 -0.3415195 0.3387797 -0.3146742 -0.1636727 -0.094673105 -0.02217892 -0.030046038
-0.31602693 -0.2998358 0.4906136 0.30321097 -0.05015707 -0.00037686958 0.06394998 -0.019867495
-0.06657118 0.48852566 -1.0997665 0.38173357 -0.3435321 0.56414527 -0.18318471 -0.82843107
-1.0614274 0.15874547 0.2265283 -0.053388767 -0.06548841 -0.046121977 0.07771538 -0.5074275
0.7005465 -0.44365495 0.14809781 -0.5354904 0.44598195 0.13287503 -0.2318996 -0.5671402
0.25442287 0.32795087 -0.068091586 -0.39955327 -0.074528046 -0.24867584 -0.21952914 -0.09600298
-0.13835904 0.2746074 0.064227134 0.008242428 0.014470198 -0.123504534 -0.29928625 -0.015009491
-0.018574558 0.006855698 -0.534596 -0.103528276 -0.007577594 0.09297606 0.041193556 -0.9845967
0.4315489 -0.57169217 0.3822991 -0.2564627 -0.6223824 -0.6617083 -0.07280978 0.44432646
-0.14061067 -0.22780634 0.44939026 0.06153433 -0.48023793 -0.17561379 -0.23594809 -0.094488345
-0.018056754 0.026036495 -0.03279722 -0.22551303 0.031796325 -0.056796644 -0.03625866 0.19795956
-0.09903747 0.120581925 0.18147962 0.19302203 0.25416064 -0.4631342 -0.042744115 -0.040973496
0.28018406 0.08339447 -0.13855362 -0.47116026 0.2316272 0.087021545 -0.05470341 -0.41967747
0.22697358 -0.12778251 0.05292183 0.026525369 -0.38712245 -0.113436885 -0.16231884 -0.04819559
-0.15308656 0.031895727 -0.41284978 0.32561043 0.20663929 0.118444204 -0.36392537 0.015233307
0.09105273 -0.189602 -0.09201905 -0.81235427 0.47895595 -0.32179257 0.46775258 -0.48195627
-0.45227692 -0.40229502 0.13369307 0.17198749 0.3407363 0.07202708 0.16598068 -0.21640725
-0.24475302 -0.16420074 -0.11663376 -0.38773796 0.3422636 -0.033692274 0.14225912 0.069457926
0.07446578 -0.024470747 -0.15986313 0.019737799 -0.50429744 -0.30633858 -0.17740521 0.30480123
0.054535437 -0.2823373 -0.30600077 0.3418864 -0.016868837 0.24483246 0.04883067 0.15117198
0.12946685 0.22335671 -0.0041243145 -0.550387 -0.08255878 -0.057702925 0.24275015 -0.2707677
00000000: 6e94 99bc 0ec6 14bf 1468 113f 033b 3cbe
00000010: 2854 cd3e 26e6 93be e1ee debd 5955 a8be
00000020: 0496 c43d 3112 55bd f780 023f 06d2 72be
00000030: 8c4b 2c3e 9211 07be e90a c3be ba1b 8c3e
00000040: 5643 5cbf 0b2c 013e 5464 c2be dbb7 d53e
00000050: 26ad 953d ba9e 14bf 1067 5bbf e785 bb3e
00000060: b30e 5c3e 0d13 e23c 15d4 bebe 1bc8 c0bd
00000070: d4cb 923d 5d54 12bf 4ac8 ad3d 6da2 98be
00000080: 1338 aebc 05a9 03bc b48e 823c 7f5f 67be
00000090: 8878 603c 4b3b 20bf c5e1 b23e e6ed 7cbd
000000a0: 9bac 3b3e bb63 76be b122 46bd afd9 46be
000000b0: 36ab 8bbe ec08 58be 8a7b f9bd b838 78be
000000c0: ea4b ba3d 4b65 0dbe ea41 1cbd 15b9 a6be
000000d0: d432 113c 4141 953e 23b0 36bc 803c 783c
000000e0: a4cb 51be 1d6c 02be 8680 81bd fd48 b13d
000000f0: c05e cf3d 2164 91be 5de6 0c3e db39 c8be
00000100: c1b3 583e 23dc 803d 14d4 99be d0e7 a2bd
00000110: 72d5 7f3e cd91 853e 5d3b 163e 7040 5abe
00000120: a6fd 513c 11b8 e83d ad5b a8be 440e c5bd
00000130: abed 4fbf 4740 5a3e aea7 28bf 5835 4f3e
00000140: 0c1d 7abe 2b73 33be 784b 15bf 0358 a03e
00000150: 3d15 5a3e e299 e53e 78be 463e f0af cf3e
00000160: 972c 5cbd a5db aebe 8874 ad3e fa1c a1be
00000170: d199 27be f9e3 c1bd 91b0 b5bc 1c23 f6bc
00000180: 48ce a1be 1484 99be b531 fb3e 783e 9b3e
00000190: 8071 4dbd 9496 c5b9 35f8 823d 28c1 a2bc
000001a0: 7956 88bd 0920 fa3e 26c5 8cbf 9572 c33e
000001b0: 70e3 afbe d36b 103f c694 3bbe 0f14 54bf
000001c0: dadc 87bf 2c8e 223e 09f7 673e 2eae 5abd
000001d0: ca1e 86bd 66ea 3cbd 3e29 9f3d c5e6 01bf
000001e0: 0457 333f be26 e3be f4a6 173e e615 09bf
000001f0: bf57 e43e 6410 083e 1777 6dbe 1a30 11bf
00000200: b743 823e 2de9 a73e 9a73 8bbd 3f92 ccbe
00000210: 29a2 98bd e1a4 7ebe 3fcc 60be 369d c4bd
00000220: fead 0dbe 5799 8c3e 8489 833d 400b 073c
00000230: 6914 6d3c f2ef fcbd 0c3c 99be 5eea 75bc
00000240: ac29 98bc c3a5 e03b 49db 08bf a206 d4bd
00000250: 774d f8bb 3c6a be3d 93ba 283d 880e 7cbf
00000260: faf3 dc3e 6b5a 12bf b5bc c33e 144f 83be
00000270: 7454 1fbf b765 29bf 4b1d 95bd c27e e33e
00000280: 3efc 0fbe 1146 69be 7b16 e63e 6c0b 7c3d
00000290: bfe1 f5be 1ad4 33be 609c 71be 1b83 c1bd
000002a0: c2eb 93bc 7d4a d53c 6156 06bd e3ec 66be
000002b0: dd3c 023d 99a3 68bd f683 14bd e9b5 4a3e
000002c0: 28d4 cabd a8f3 f63d cbd5 393e 91a7 453e
000002d0: 5821 823e ed1f edbe 7414 2fbd d3d3 27bd
000002e0: 4974 8f3e b8ca aa3d 00e1 0dbe eb3b f1be
000002f0: ae2f 6d3e 5a38 b23d af10 60bd f7df d6be
00000300: c36b 683e 6bd9 02be 90c4 583d bb4b d93c
00000310: ea34 c6be 9951 e8bd e936 26be bd68 45bd
00000320: b9c2 1cbe 18a5 023d 0c61 d3be 69b6 a63e
00000330: 4099 533e e092 f23d 6d54 babe 1f95 793c
00000340: db79 ba3d 0727 42be 7c74 bcbd 73f6 4fbf
00000350: b739 f53e ffc1 a4be 447d ef3e f9c2 f6be
00000360: d790 e7be 9df9 cdbe d6e6 083e 7d1d 303e
00000370: fd74 ae3e ef82 933d d7f6 293e dd99 5dbe
00000380: 89a0 7abe 3d24 28be aedd eebd 9785 c6be
00000390: 2d3d af3e e900 0abd 60ac 113e f53f 8e3d
000003a0: 8481 983d e076 c8bc 29b3 23be 2ab1 a13c
000003b0: a319 01bf 69d8 9cbe b6a9 35be e80e 9c3e
000003c0: 8d60 5f3d 848e 90be 22ac 9cbe bc0b af3e
000003d0: 8430 8abc 5cb5 7a3e ab02 483d d4cc 1a3e
000003e0: f592 043e 9fb7 643e 4225 87bb 2ae6 0cbf
000003f0: 9414 a9bd e759 6cbd 7f93 783e 10a2 8abe

weight_hh_l2 f4 [60, 15]
-0.19078936 0.041601602 -0.3263647 0.19332656 -0.055040777 0.06754918 0.18369396 -0.1955499
0.17615716 0.31316635 0.13700664 0.41331062 -0.4589068 0.12901112 -0.2610778 0.23524337
-0.20296952 -0.17476441 -0.0063302196 0.20833063 -0.21028647 0.12654369 -0.04350964 0.043178335
0.46061063 -0.25869256 0.4561449 -0.15513936 -0.1829933 -0.45840192 0.15291487 0.15698105
0.22112675 -0.13044827 -0.14582738 -0.40412167 -0.20162912 0.14199172 0.11745497 0.44457194
-0.40527934 0.3753277 -0.18961668 -0.005419806 -0.045314383 0.13698453 0.11057661 0.22249438
0.20760196 0.08996753 0.12468419 -0.15412253 -0.13881476 0.27132818 0.2212394 -0.17229842
0.28948087 -0.04847145 -0.05150017 0.06325231 0.23067571 -0.20710893 0.1508729 0.21690995
0.061498415 0.00066620944 -0.078359514 0.13255945 0.12587787 0.28662735 -0.20963247 -0.028901916
-0.08501057 -0.09314709 -0.22998741 -0.12891033 0.214818 -0.32414386 0.06836759 0.1709109
-0.019045817 0.35250834 -0.38625672 0.068673685 0.37344638 -0.12471645 0.5627269 -0.62088317
0.23971519 -0.1814939 0.09071847 0.014773762 0.2471969 0.0584606 0.21815228 -0.40474376
0.15578361 0.19258684 0.061510574 0.19689673 -0.39588362 0.035662476 -0.06885962 -0.072254546
-0.28787014 0.3936298 0.0811779 0.07075714 -0.11760862 0.17102513 -0.5569246 0.19143641
-0.16257447 0.15085281 0.80995953 -0.18378863 0.4699473 -0.47286913 -0.46364036 -0.37634286
0.6177951 0.025450882 0.011186946 -0.18228805 0.4212096 -0.17408168 -0.092800505 0.039899122
0.059292443 0.48838612 -0.34591284 0.7470232 -0.040897038 -0.53095824 -0.328412 -0.027250504
-0.26142043 0.08438984 -0.043602753 0.14674774 -0.013504393 -0.23790275 0.40901226 -0.33601952
0.2564162 0.13350952 -0.16112407 0.40738064 0.060298268 -0.23402621 -0.025776528 0.4570912
0.04210532 0.20869882 -0.07839922 -0.19470131 0.41521356 -0.23722295 0.23687859 0.47527122
-0.18295483 0.39754862 -0.19218196 0.096623085 -0.22273088 0.1358702 0.16250321 0.099150844
0.08136721 -0.091278516 -0.031890783 -0.119247586 0.15541074 0.1088475 0.010818408 0.044117503
-0.12690306 0.14696069 0.30205715 -0.17144305 0.4299959 0.09111423 0.10068495 0.14006595
0.16366392 -0.31287643 -0.17847064 -0.083783045 0.1485245 0.47123405 -0.2544246 0.5894179
-0.19527155 -0.13834107 -0.33130926 -0.08197183 0.16748683 -0.1910566 -0.068305604 -0.27753067
-0.050254125 0.51407546 -0.36299872 0.34046233 0.22217959 -0.13603148 0.18497138 -0.33438066
0.09493351 0.20650859 0.18362793 -0.024085779 0.070628956 0.22999802 0.060125597 -0.029586533
0.42753717 0.09192883 -0.1606158 0.2069367 -0.22631486 0.5238894 -0.13989803 -0.16307595
-0.15656032 0.09064469 0.23710449 -0.32830963 -0.051338766 -0.14714424 -0.09691535 0.24944639
-0.14212416 0.17999423 -0.108830586 -0.12830342 -0.11812591 -0.2970826 0.26941144 -0.22816436
0.05648239 -0.06523316 -0.24579115 0.34709978 -0.096903674 -0.07244839 -0.15384758 -0.04111406
0.06968516 -0.10888796 -0.18285888 0.27048132 -0.1818428 0.3028347 -0.054496128 0.15106954
00000000: 495e 43be 7166 2a3d 4619 a7be 66f7 453e
00000010: 7072 61bd 3957 8a3d 451a 3c3e 3c3e 48be
00000020: 8b62 343e 5757 a03e 784b 0c3e 739d d33e
00000030: d5f5 eabe 7e1b 043e fdab 85be a3e3 703e
00000040: 3ed7 4fbe 71f5 32be bb6d cfbb a054 553e
00000050: 5655 57be ab94 013e 2a37 32bd c4db 303d
00000060: 28d5 eb3e 5a73 84be d38b e93e dadc 1ebe
00000070: 9862 3bbe a8b3 eabe b795 1c3e a4bf 203e
00000080: 0d6f 623e 3b94 05be c653 15be 09e9 cebe
00000090: dd77 4ebe 4766 113e 3b8c f03d ef9e e33e
000000a0: c680 cfbe f42a c03e e02a 42be a198 b1bb
000000b0: 939b 39bd ac45 0c3e fd75 e23d 91d5 633e
000000c0: 9c95 543e e540 b83d 6d5a ff3d 4cd2 1dbe
000000d0: 7525 0ebe 87eb 8a3e 958c 623e ff6e 30be
000000e0: d636 943e 008a 46bd d8f1 52bd 6d8a 813d
000000f0: 4136 6c3e 5d14 54be 6d7e 1a3e a41d 5e3e
00000100: c3e5 7b3d 8fa4 2e3a f47a a0bd aabd 073e
00000110: 21e6 003e d2c0 923e e5a9 56be b6c3 ecbc
00000120: 061a aebd e7c3 bebd d281 6bbe 1201 04be
00000130: 40f9 5b3e 2ff6 a5be 4f04 8c3d 4403 2f3e
00000140: f905 9cbc f97b b43e 71c3 c5be caa4 8c3d
00000150: 5d34 bf3e 576b ffbd df0e 103f 33f2 1ebf
00000160: e677 753e 89d9 39be 9bca b93d a60d 723c
00000170: 2f21 7d3e 6274 6f3d 5063 5f3e 933a cfbe
00000180: bd85 1f3e 7c35 453e 83f2 7b3d 4c9f 493e
00000190: 42b1 cabe d112 123d 4606 8dbd 31fa 93bd
000001a0: b763 93be d889 c93e 9940 a63d 1fe9 903d
000001b0: cadc f0bd 3621 2f3e 9c92 0ebf e807 443e
000001c0: ec79 26be 2979 1a3e 8259 4f3f 1633 3cbe
000001d0: ef9c f03e e71b f2be 4562 edbe 03b0 c0be
000001e0: d227 1e3f 5e7e d03c 7449 373c b8a9 3abe
000001f0: c9a8 d73e 7842 32be 310e bebd 436d 233d
00000200: a2dc 723d bf0d fa3e 7d1b b1be ea3c 3f3f
00000210: a783 27bd e1ec 07bf 9e25 a8be 733c dfbc
00000220: e6d8 85be 95d4 ac3d cd98 32bd 0a45 163e
00000230: 8841 5dbc c79c 73be 0e6a d13e c00a acbe
00000240: fc48 833e b8b6 083e b5fd 24be 3294 d03e
00000250: 51fb 763d 91a4 6fbe 4c29 d3bc dc07 ea3e
00000260: a176 2c3d 25b5 553e c58f a0bd c85f 47be
00000270: df96 d43e 93ea 72be 4d90 723e c056 f33e
00000280: 8358 3bbe 7e8b cb3e 59cb 44be 53e2 c53d
00000290: 9013 64be 8f21 0b3e 3e67 263e 990f cb3d
000002a0: daa3 a63d 3bf0 babd e99f 02bd 1438 f4bd
000002b0: fe23 1f3e 70eb de3d b13f 313c 8eb4 343d
000002c0: e0f2 01be dd7c 163e 3ca7 9a3e c48e 2fbe
000002d0: 6c28 dc3e 199a ba3d e933 ce3d 736d 0f3e
000002e0: 8497 273e 5731 a0be 02c1 36be 7296 abbd
000002f0: ce16 183e 9745 f13e f143 82be 17e4 163f
00000300: 44f5 47be 48a9 0dbe 5ea1 a9be d9e0 a7bd
00000310: ab81 2b3e 57a4 43be cfe3 8bbd 8018 8ebe
00000320: 45d7 4dbd 739a 033f f8da b9be 1451 ae3e
00000330: 0c83 633e d64b 0bbe 2369 3d3e f133 abbe
00000340: 806c c23d fd76 533e f608 3c3e 8a4f c5bc
00000350: eaa5 903d 9a84 6b3e 4246 763d 755f f2bc
00000360: 27e6 da3e 2f45 bc3d 7878 24be 37e7 533e
00000370: 15bf 67be 9e1d 063f 6e41 0fbe 62fd 26be
00000380: 5951 20be eca3 b93d 85cb 723e 3318 a8be
00000390: 9948 52bd fbac 16be 8e7b c6bd e06e 7f3e
000003a0: ff88 11be 6850 383e 92e2 debd f961 03be
000003b0: ffeb f1bd 361b 98be 4cf0 893e eba3 69be
000003c0: 145a 673d f798 85bd adb0 7bbe 10b7 b13e
000003d0: 6f75 c6bd d25f 94bd 388a 1dbe 3767 28bd
000003e0: 18b7 8e3d a700 dfbd 5c3f 3bbe 877c 8a3e
000003f0: 0035 3abe 260d 9b3e 5537 5fbd f9b1 1a3e

bias_ih_l2 f4 [60]
0.31100324 0.48660076 0.23158477 -0.17404257 0.13690898 0.5192847 -0.108339615 0.42081112
-0.09418133 0.18302612 0.4817616 -0.2112089 0.07110891 0.106773 0.52935654 0.029465107
-0.0036631792 0.056524053 -0.1450741 -0.28518388 0.05069406 -0.08037083 0.07201834 -0.2503921
0.13428766 0.01482203 -0.035172384 -0.06956806 -0.28157842 0.10190931 -0.18181056 0.06576926
0.22008312 0.0728885 -0.027493952 0.009169101 -0.07012389 -0.21654405 -0.059143566 -0.04847638
-0.041276287 0.09789572 0.0050660307 0.023835983 -0.22784168 0.3460307 0.34737793 0.09398335
-0.23739389 0.39004874 0.24028027 0.14724933 0.2938036 0.34436354 0.23612118 0.29423967
-0.25709146 -0.012589313 -0.21550335 0.46249005
00000000: d13b 9f3e bc23 f93e 8f24 6d3e 3738 32be
00000010: de31 0c3e d8ef 043f 29e1 ddbd 8e74 d73e
00000020: 24e2 c0bd 336b 3b3e 75a9 f63e 2547 58be
00000030: 8ca1 913d cdab da3d e983 073f cf60 f13c
00000040: f311 70bb c485 673d 4e8e 14be 9f03 92be
00000050: 93a4 4f3d 7699 a4bd 5a7e 933d 6533 80be
00000060: b482 093e 1ad8 723c eb10 10bd b379 8ebd
00000070: 0c2b 90be d4b5 d03d 8c2c 3abe 09b2 863d
00000080: 785d 613e 9146 953d ff3a e1bc ff39 163c
00000090: 1d9d 8fbd b9bd 5dbe 8640 72bd 2b8f 46bd
000000a0: 5311 29bd 8d7d c83d f200 a63b ae43 c33c
000000b0: 544f 69be f02a b13e 85db b13e 587a c03d
000000c0: 6217 73be 78b4 c73e 080c 763e 87c8 163e
000000d0: 6d6d 963e 6b50 b03e c0c9 713e 95a6 963e
000000e0: 7ea1 83be 6843 4ebc e9ac 5cbe 7fcb ec3e

bias_hh_l2 f4 [60]
0.44540352 0.08858766 0.05781304 -0.1863365 0.40809953 0.14796384 -0.25464237 0.2114723
0.04220418 -0.1391675 0.3230231 -0.26037133 -0.11010499 -0.021247866 0.26093403 -0.19275492
-0.36369425 -0.29741478 -0.22437811 -0.052803818 -0.29749265 0.011005867 -0.038886257 -0.088044286
0.19545648 0.124907404 0.08673908 -0.3552156 -0.27411848 -0.07689589 0.1309301 0.1009039
0.15281183 -0.011092042 -0.0002768173 -0.05259261 -0.047377635 -0.013870982 -0.1524381 0.25394338
-0.043504488 -0.09440794 -0.12708984 -0.04580378 0.19426976 0.27866328 0.28366056 0.2759296
-0.011795582 0.0083625885 0.4722689 0.2279007 0.27369103 0.20022498 -0.0921156 0.18141115
-0.10400096 0.14303038 -0.051880952 0.5225059
00000000: ee0b e43e 726d b53d 5ecd 6c3d ffce 3ebe
00000010: 6cf2 d03e d583 173e 7c60 82be 328c 583e
00000020: 4ade 2c3d ed81 0ebe 4963 a53e 644f 85be
00000030: ba7e e1bd 0110 aebc 2599 853e 8c61 45be
00000040: 2236 babe c046 98be 60c3 65be d148 58bd
00000050: f550 98be f451 343c 3247 1fbd 9050 b4bd
00000060: be25 483e 74cf ff3d 42a4 b13d d2de b5be
00000070: 4259 8cbe 987b 9dbd 8a12 063e b4a6 ce3d
00000080: b47a 1c3e 65bb 35bc ca21 91b9 596b 57bd
00000090: 0d0f 42bd 1e43 63bc bc18 1cbe de04 823e
000000a0: c331 32bd f358 c1bd d723 02be bf9c 3bbd
000000b0: a7ee 463e f4ac 8e3e f53b 913e a546 8d3e
000000c0: 4242 41bc 3d03 093c 3bcd f13e cd5e 693e
000000d0: 3b21 8c3e c707 4d3e 1ba7 bcbd d8c3 393e
000000e0: 75fe d4bd 8e76 123e 1f81 54bd f2c2 053f

weight_ih_l0 f4 [4, 1]
1.0272263 0.52041614 1.7164004 -0.7602494
00000000: 277c 833f fe39 053f 02b3 db3f b49f 42bf

weight_hh_l0 f4 [4, 1]
0.33946848 0.52528554 -0.34177396 0.12541425
00000000: d0ce ad3e 1d79 063f fffc aebe 986c 003e

bias_ih_l0 f4 [4]
-0.23828629 -0.21003586 0.60780376 0.022435311
00000000: 5201 74be a413 57be 0799 1b3f 42ca b73c

bias_hh_l0 f4 [4]
-0.11025136 0.1748648 0.03264488 -0.5006329
00000000: 77cb e1bd c20f 333e a3b6 053d 7a29 00bf

weight f4 [32, 1]
-0.56179506 0.66698444 0.8163871 0.47114292 -0.84306836 0.8217257 -0.656172 -0.4190768
-0.6272537 0.17851847 0.5028693 -0.94827116 -0.94813645 1.0164661 -0.45575058 -0.8828328
0.4146208 -0.37941676 -0.40948325 -0.76583606 0.033107616 0.18433492 0.095766574 1.0585535
-0.026843833 -0.3017128 0.5683282 -0.54609823 0.93577504 -0.8740023 0.32255903 0.5869787
00000000: cdd1 0fbf 7ebf 2a3f bffe 503f a539 f13e
00000010: 54d3 57bf 9e5c 523f e3fa 27bf 3c91 d6be
00000020: b393 20bf 8ccd 363e 0bbc 003f e6c1 72bf
00000030: 12b9 72bf 901b 823f 2458 e9be 5501 62bf
00000040: 2d49 d43e ea42 c2be caa7 d1be d50d 44bf
00000050: da9b 073d 4bc2 3c3e 4421 c43d ae7e 873f
00000060: 99e7 dbbc 1a7a 9abe f57d 113f 18cd 0bbf
00000070: f48e 6f3f 9dbe 5fbf 7526 a53e 3c44 163f

bias f4 [32]
0.6610482 -0.96752226 0.48225865 0.28590715 0.27138606 -0.6422564 -0.38065046 -0.8148027
0.7441199 0.5342647 -0.70046085 -0.34207904 -0.5507724 -0.9575353 -0.9909526 -0.40680823
-0.53154176 -0.38905388 0.38926384 -0.6553975 0.47052494 0.67244625 0.81780225 -0.08701208
-0.9461589 -0.7185777 -0.01818312 0.1713505 -0.6264274 0.7768937 0.41423467 0.39949077
00000000: 743a 293f 8aaf 77bf 9bea f63e 6c62 923e
00000010: 1df3 8a3e ea6a 24bf 9ee4 c2be e996 50bf
00000020: a47e 3e3f 92c5 083f 6751 33bf fc24 afbe
00000030: 6cff 0cbf 0921 75bf 12af 7dbf 2b49 d0be
00000040: 1f13 08bf 1232 c7be 974d c73e 21c8 27bf
00000050: a5e8 f03e 7025 2c3f 7d5b 513f 6433 b2bd
00000060: 7837 72bf b5f4 37bf c4f4 94bc 8176 2f3e
00000070: 8c5d 20bf 81e2 463f 9116 d43e 0e8a cc3e
