experiments/DT-VAE-GAN_state_decreasing_late_peak/saved_model/vae_gan_trained_model.pth (torch, 394674 bytes, 85 tensors)

weight_ih_l0 f4 [8, 2]
0	0x3ed6c426	0.41946524
1	0x3f333012	0.69995224
2	0xbf7a9657	-0.9788565
3	0xbe374941	-0.17899038
4	0x3ea269bf	0.31721303
5	0x3e242488	0.1602956
6	0xbf7d6e9b	-0.98996896
7	0xbf9aab97	-1.2083615
8	0x3f90fa41	1.1326371
9	0x3ef8e725	0.4861385
10	0xbf4ca86b	-0.79944485
11	0x3e60afec	0.21942109
12	0x3ebb9e48	0.36644197
13	0x3eccb023	0.39978132
14	0xbf16e11e	-0.5893725
15	0xbf97af61	-1.1850396

weight_hh_l0 f4 [8, 2]
0	0xbf01b6ed	-0.5066975
1	0x3e80a284	0.2512399
2	0x3e1487d0	0.14504933
3	0x3f0af11c	0.54274154
4	0xbd83b4b9	-0.064309545
5	0xbda770c4	-0.08175805
6	0xbe6b474d	-0.22976418
7	0x3f1814b3	0.59406585
8	0xbdcd4c4b	-0.10024317
9	0xbc884b4d	-0.016637469
10	0xbeea4fad	-0.45763913
11	0xbe8151d2	-0.25257736
12	0x3d8d6f45	0.069059886
13	0x3f692bbc	0.9108236
14	0xbe42ca27	-0.19022427
15	0xbc926657	-0.017871065

bias_ih_l0 f4 [8]
0	0xbe050fd9	-0.12994327
1	0xbf1dce92	-0.61643326
2	0xbeabcce0	-0.33554745
3	0xbee0d0e7	-0.4390938
4	0x3cba95d0	0.022776514
5	0x3eac546d	0.33658162
6	0x3f6b0473	0.91803664
7	0xbe35de04	-0.17760473

bias_hh_l0 f4 [8]
0	0x3ef96d4c	0.487162
1	0x3f31e1a4	0.69484925
2	0x3dfb508f	0.12271225
3	0x3f25067f	0.6446304
4	0x3e19419a	0.14966431
5	0x3f3b3f2e	0.7314328
6	0xbdb46149	-0.08807618
7	0x3f25e784	0.6480639

weight f4 [32, 2]
0	0x3e9e6a48	0.3094046
1	0xbf06aa98	-0.52604055
2	0x3f80f92f	1.0076045
3	0xbec74f26	-0.38927573
4	0x3ede7c39	0.4345415
5	0xbed02293	-0.40651378
6	0xbd54376f	-0.051810678
7	0xbf3090be	-0.6897086
8	0xbe8816ad	-0.265798
9	0x3f0a823a	0.5410496
10	0xbeef1a51	-0.46699765
11	0xbf06e523	-0.52693385
12	0x3d063885	0.032768745
13	0xbf0a9a7b	-0.5414197
14	0x3ed5b420	0.41738987
15	0xbf098f4b	-0.5373427
16	0x3ea36250	0.31910944
17	0xbebf7a06	-0.37397784
18	0xbc369620	-0.011144191
19	0xbe8a729a	-0.2704056
20	0x3ea09b74	0.313686
21	0xbf4f065d	-0.80869085
22	0xbebaec5f	-0.36508462
23	0x3e848782	0.25884634
24	0xbe8b46a1	-0.27202323
25	0x3e31e1a8	0.17371237
26	0x3f6c020f	0.9219064
27	0x3e0d35fa	0.13790122
28	0x3ea36c9d	0.31918803
29	0xbefa24de	-0.48856252
30	0xbefd6925	-0.4949428
31	0xbd85d318	-0.065344036
32	0xbcede8da	-0.029041696
33	0xbc906e6e	-0.017630782
34	0xbf712df0	-0.9421072
35	0x3f1152b9	0.5676685
36	0xbf8a7932	-1.0818236
37	0x3ebd4825	0.36969104
38	0x3f222ea6	0.6335243
39	0xbf287bf8	-0.6581416
40	0xbe959e19	-0.2922218
41	0x3f0e93c8	0.55694246
42	0xbf73ec8f	-0.95282835
43	0x3ec5bfaa	0.3862279
44	0xbf62d6e0	-0.88609123
45	0xbeefef6c	-0.46862352
46	0x3e79b692	0.24386051
47	0xbf1f2791	-0.6216975
48	0xbeae2070	-0.34009123
49	0x3efec8bc	0.49762523
50	0x3f076ca8	0.5290017
51	0xbe93f5eb	-0.28898558
52	0xbf60da33	-0.87832946
53	0x3f0a5ec1	0.54050833
54	0xbd22fbb9	-0.039790843
55	0x3f250071	0.644538
56	0x3f61d9d6	0.88223016
57	0x3d66e7a8	0.05637327
58	0xbeebb306	-0.46035022
59	0x3ec22936	0.37922066
60	0xbf28f315	-0.65995914
61	0x3f184f26	0.5949577
62	0x3f5f1d8c	0.8715446
63	0xbf1331b1	-0.574977

bias f4 [32]
0	0xbe8ce064	-0.27514946
1	0xbe8fe2ab	-0.2810262
2	0xbf2a6a0e	-0.66568077
3	0xbb6129f5	-0.0034357284
4	0x3f3eb14b	0.7448928
5	0xbdccc171	-0.099978335
6	0x3e36390f	0.17795204
7	0xbf14ea32	-0.58169854
8	0xbec69542	-0.3878575
9	0x3e8f79f7	0.2802274
10	0x3e57d33c	0.21076673
11	0x3ef14ed0	0.47130442
12	0x3e0c2263	0.13684992
13	0x3f1d0c6d	0.61347085
14	0xbf1b9de1	-0.6078778
15	0x3ec6f67b	0.38859925
16	0x3f1feee8	0.62473917
17	0x3dd57444	0.104225665
18	0xbee4666a	-0.44609386
19	0xbf0bd6a7	-0.5462441
20	0x3e0c04a1	0.13673641
21	0x3e04c53a	0.12965861
22	0x3e66d173	0.22540836
23	0x3f38a246	0.7212261
24	0x3f41dd58	0.7572837
25	0xbed14859	-0.4087551
26	0xbea3503e	-0.31897157
27	0xbf3e5814	-0.74353147
28	0x3ea9aee1	0.33141235
29	0x3e806afb	0.2508162
30	0x3e18c13f	0.14917468
31	0x3e1d08c2	0.15335372

weight_ih_l0 f4 [60, 32]
0	0xbe4cefdb	-0.20013373
1	0xbe3891bd	-0.18024345
2	0xbe70edd7	-0.23528229
3	0x3cd78baa	0.026311714
4	0xbc2ae515	-0.010430594
5	0xbe394ac9	-0.18094935
6	0x3e60ebd3	0.2196496
7	0xbee49f5e	-0.44652838
8	0xbdfec80d	-0.124405004
9	0x3eeedb3c	0.46651638
10	0xbdca74e9	-0.0988558
11	0x3ecbd415	0.39810243
12	0x3d45aad8	0.048258632
13	0x3e666260	0.22498465
14	0xbe66f926	-0.2255598
15	0x3eb66299	0.356221
16	0x3ecd19b3	0.4005867
17	0xbe22fe9d	-0.1591744
18	0xbf02fefa	-0.51170313
19	0x3b4cdf75	0.003126112
20	0xbdcf1bc7	-0.1011272
21	0xbd0745c6	-0.033025526
22	0xbc2fa9e8	-0.010721661
23	0x3ef1aa61	0.472003
24	0x3eb5ca16	0.35505742
25	0xbec981fc	-0.39356983
26	0xbef960c2	-0.48706633
27	0xbec04168	-0.375499
28	0x3de578d5	0.112046875
29	0x3e8e3932	0.27778012
30	0xbceb61eb	-0.028733214
31	0x3ebd3697	0.3695571
32	0xbde49213	-0.11160674
33	0x3de869b3	0.113482855
34	0xbd10f5d7	-0.0353907
35	0xbeb1cb4f	-0.34725425
36	0x3e1e5c7d	0.15464969
37	0x3e2913ea	0.16511503
38	0xbdac129c	-0.08401987
39	0xbe143065	-0.14471586
40	0x3d8894a9	0.0666898
41	0x3d3fb8c9	0.046807084
42	0x3d9895ea	0.07450469
43	0x3e993f6c	0.299312
44	0x3e738a74	0.23783284
45	0x3cefeafc	0.029286854
46	0xbe689c15	-0.2271579
47	0xbd8c2379	-0.06842703
48	0x3ddd3e7f	0.10802936
49	0x3e1edb35	0.15513308
50	0x3dab72b8	0.0837149
51	0x3d86e84c	0.06587276
52	0x3e91f373	0.2850605
53	0x3b4443d4	0.0029947655
54	0x3ce557f3	0.027996039
55	0xbd86fdfa	-0.06591411
56	0xbe1006c5	-0.14065082
57	0x3dd638d8	0.10460061
58	0x3cc2fcef	0.023802249
59	0xbd9587ae	-0.073012695
60	0x3e58d3f0	0.21174598
61	0x3ddebd1c	0.108759135
62	0x3ea16968	0.3152573
63	0x3cb18344	0.021669038
64	0xbddc23d2	-0.1074902
65	0xbd073922	-0.03301347
66	0xbe883e18	-0.26609874
67	0xbe4764a4	-0.19471985
68	0xbdb29ac1	-0.08720923
69	0xbeac2d65	-0.33628383
70	0x3eaf0498	0.34183192
71	0xbdc9b08d	-0.098481275
72	0xbe8994b4	-0.26871264
73	0xbcf8038a	-0.030275125
74	0x3efe889d	0.49713603
75	0x3dc9de67	0.09856873
76	0xbdda3f86	-0.106566474
77	0xbd831c52	-0.06401886
78	0x3e134378	0.14381206
79	0xbe3edf14	-0.18639785
80	0x3e46de96	0.19420847
81	0x3d8901d5	0.066898026
82	0x3a486ee2	0.00076459174
83	0xbdb53cac	-0.08849463
84	0x3e34d4d8	0.17659318
85	0xbee4abe8	-0.44662404
86	0x3e18e575	0.14931281
87	0x3eb18a9a	0.34676057
88	0x3dd253f0	0.10269916
89	0xbd6fbf83	-0.05853225
90	0xbdfe4efa	-0.12417407
91	0xbe2d1a81	-0.16904642
92	0x3e07a569	0.13246693
93	0xbe687333	-0.22700195
94	0x3dd92332	0.10602416
95	0x3eb9d40d	0.36294594
96	0xbead1b81	-0.33810046
97	0xbec301ec	-0.38087404
98	0xbe90fa05	-0.2831575
99	0xbeb7a6ca	-0.35869437
100	0x3eba9278	0.36439872
101	0xbf05f298	-0.52323294
102	0x3e899e80	0.26878738
103	0xbeb3f29d	-0.35146037
104	0xbebee3df	-0.37283227
105	0x3edbd579	0.42936304
106	0x3edbc6f6	0.42925233
107	0x3edeb12b	0.43494543
108	0x3e899495	0.26871172
109	0x3e5df96e	0.21677181
110	0xbeedd770	-0.46453428
111	0x3cc814cc	0.02442398
112	0x3da02a92	0.0782062
113	0xbdf86e34	-0.121303946
114	0xbece3375	-0.40273634
115	0xbef49898	-0.4777267
116	0x3e9f58e5	0.3112251
117	0x3d140cc6	0.036144994
118	0xbe4a2ad1	-0.19742896
119	0x3f10bae8	0.56535196
120	0x3d2b9086	0.041885875
121	0xbe8722db	-0.2639378
122	0xbe7bcc02	-0.24589542
123	0xbe91fb66	-0.28512114
124	0x3ebd3e4b	0.36961588
125	0x3e1ae8d5	0.15127881
126	0xbc6deeb3	-0.014522242
127	0x3e81e900	0.25373077
128	0xbef14caf	-0.47128817
129	0xbca39f0a	-0.019973297
130	0xbedd5ae2	-0.432334
131	0xbeb4cec4	-0.35314
132	0x3ef7d3e6	0.48403853
133	0xbe12f7df	-0.14352368
134	0xbe8e81d3	-0.27833423
135	0xbed7ebe4	-0.42172158
136	0xbe7e65a7	-0.24843465
137	0x3ee9eeec	0.45690095
138	0xbed71869	-0.4201081
139	0x3d0301ee	0.031984262
140	0x3d1aa96f	0.03775924
141	0x3e26581c	0.16244549
142	0xbea21aaf	-0.31660983
143	0x3e3142fe	0.17310712
144	0x3e86039f	0.26174638
145	0x3e11a52d	0.14223166
146	0x3d45a73e	0.048255198
147	0xbef6b487	-0.48184606
148	0x3e3cb19a	0.18427125
149	0x3cac9227	0.021065785
150	0x3e85c91c	0.26129997
151	0x3dec082d	0.11524997
152	0x3ecb0799	0.39654234
153	0xbe24cc97	-0.1609367
154	0xbcea3dbe	-0.028593894
155	0xbec2e605	-0.38066116
156	0x3def284c	0.11677608
157	0x3ed42e45	0.4144155
158	0x3eef3383	0.46718988
159	0xbf6fcf10	-0.9367533
160	0x3dea305e	0.114350066
161	0x3b6dd674	0.0036291154
162	0x3d8169ed	0.06319032
163	0xbe3a6182	-0.18201259
164	0xbe0c9aaa	-0.13730875
165	0xbe5dbdc2	-0.21654418
166	0x3e8d355e	0.27579778
167	0x3e051fd3	0.13000421
168	0xbe06dfdc	-0.13171333
169	0xbe03147a	-0.1280078
170	0x3ee74ba2	0.4517489
171	0x3e76f77f	0.2411785
172	0xbe17f6f5	-0.148403
173	0xbe0a0681	-0.13479044
174	0x3e2bb622	0.16768697
175	0xbe9bcf96	-0.30431813
176	0x3da55407	0.080726676
177	0xbefdde6d	-0.4958376
178	0xbe17b6d9	-0.14815845
179	0x3d429a40	0.047510386
180	0xbe2ef0f5	-0.17084105
181	0xbe603a38	-0.21897209
182	0xbeb3a0b7	-0.35083553
183	0xbe18ddf8	-0.14928424
184	0x3d52fc37	0.051510062
185	0xbdb01292	-0.08597292
186	0xbdf246fd	-0.11829946
187	0xbea2dbb2	-0.3180824
188	0xbe28b5dc	-0.16475624
189	0x3d17ce1b	0.037061792
190	0xbd3cc9d4	-0.046090916
191	0x3ee13b88	0.4399073
192	0xbf0cf9cd	-0.55068666
193	0xbdfb3437	-0.122658186
194	0xbefe3f81	-0.49657825
195	0xbed66b09	-0.41878536
196	0x3f1213fd	0.5706175
197	0xbda57ba6	-0.08080225
198	0xbcd34a00	-0.025792122
199	0xbe011244	-0.12604624
200	0xbf11cb71	-0.5695105
201	0x3ebe3f42	0.37157637
202	0x3e9d5c89	0.3073466
203	0x3e7fde01	0.24987032
204	0x3efd15f8	0.49430823
205	0x3e74d974	0.23911077
206	0xbe539ec2	-0.2066603
207	0x3e82a595	0.25516954
208	0x3e8932cd	0.2679657
209	0x3cdf42e1	0.02725357
210	0xbf00bd1f	-0.50288576
211	0xbe6a7659	-0.22896709
212	0x3d5437ae	0.051810913
213	0xbe35ee29	-0.17766632
214	0x3ddfe5b7	0.109324865
215	0x3dbc0490	0.09180558
216	0x3eebf352	0.46084076
217	0xbf1ab128	-0.6042657
218	0xbef7af25	-0.48375812
219	0xbf087009	-0.5329595
220	0x3cb33bf8	0.021879181
221	0x3f1068b0	0.5640974
222	0x3e02769b	0.12740557
223	0x3d041739	0.03224871
224	0x3b0c830b	0.0021440412
225	0xbe6c93fb	-0.23103325
226	0xbdae74f6	-0.08518402
227	0xbdb8f1c7	-0.0903049
228	0x3ec3ec64	0.3826629
229	0xbb6efa30	-0.0036465041
230	0xbe03e441	-0.1288004
231	0xbd6473bd	-0.05577444
232	0xbcfc650f	-0.030809907
233	0x3e90c6d3	0.2827669
234	0xbf0e4557	-0.55574554
235	0x3db2e81e	0.08735679
236	0x3ea993ec	0.33120668
237	0x3e898bac	0.26864374
238	0xbe5f3fd4	-0.21801692
239	0x3da10ad4	0.078633934
240	0x3c8ec8e8	0.017429784
241	0x3df8e135	0.1215233
242	0xbe6464f8	-0.22304142
243	0xbe6c35ef	-0.23067449
244	0x3dc01cd3	0.09380498
245	0x3e80c505	0.25150314
246	0x3e7a1a4e	0.24424097
247	0x3de1fde1	0.11034752
248	0x3e02fd64	0.12791973
249	0xbe12e2a0	-0.14344263
250	0x3e3231b8	0.17401779
251	0xbe12d21a	-0.1433796
252	0x3e10b62d	0.14131995
253	0x3d74d7e3	0.059776198
254	0x3e9512e4	0.29115975
255	0xbeb294cf	-0.34879157

weight_hh_l0 f4 [60, 15]
0	0xbd91fc04	-0.07128146
1	0xbe61782c	-0.22018498
2	0x3c8c7ed6	0.017150324
3	0xbdafb8e8	-0.0858019
4	0x3dae39fb	0.08507153
5	0xbb511e93	-0.0031909093
6	0xbd2ba493	-0.041904997
7	0xbd565444	-0.052326456
8	0x3ec09451	0.37613156
9	0x3dfb3943	0.12266781
10	0x3db767f3	0.089553736
11	0xbe97a65d	-0.29619113
12	0xbe99012b	-0.29883704
13	0x3ece3e8b	0.40282091
14	0x3ea376bb	0.31926522
15	0x3e914eb2	0.28380352
16	0x3e03028f	0.12793945
17	0xbe3936ca	-0.18087307
18	0x3e64292b	0.2228133
19	0xbd55edf2	-0.052228875
20	0x3e85e330	0.26149893
21	0x3ea1a337	0.31569836
22	0xbe95cdbb	-0.29258522
23	0x3e5970b3	0.21234398
24	0xbd963867	-0.07334977
25	0xbc523564	-0.012830112
26	0x3e9d01d0	0.30665445
27	0xbe78dac8	-0.24302208
28	0x3eb1acb1	0.34702066
29	0xbe30dc7b	-0.17271607
30	0xbe53da4a	-0.2068874
31	0xbdc72875	-0.097245134
32	0xbdbc62bb	-0.09198519
33	0xbd88afa4	-0.06674126
34	0x3b3a1434	0.002839339
35	0x3e0aad81	0.13542749
36	0xbe1a32f6	-0.15058503
37	0xbe291859	-0.16513194
38	0x3d634823	0.055488717
39	0x3e3b1eb0	0.18273425
40	0xbddf6742	-0.10908367
41	0x3e38abc2	0.1803427
42	0xbd7e7f19	-0.06213293
43	0x3e3df38f	0.18549941
44	0x3eaff38d	0.34365502
45	0xbe27a02a	-0.16369691
46	0xbe7ef738	-0.24898994
47	0xbda7e41f	-0.081978075
48	0xbe339334	-0.17536622
49	0x3dbfa1c7	0.093570285
50	0xbe9f628a	-0.31129867
51	0xbe29eb7e	-0.1659374
52	0xbebd0885	-0.36920562
53	0x3dfb7330	0.1227783
54	0x3d2bf5da	0.04198251
55	0x3e9607b4	0.29302752
56	0xbea1a26b	-0.31569228
57	0xbe5d0a7e	-0.21586034
58	0x3dbc156e	0.09183775
59	0x3d4b86f4	0.04968925
60	0xbcf84193	-0.030304706
61	0xbe713677	-0.23555933
62	0xbdd6c9d2	-0.10487713
63	0xbe94757b	-0.2899588
64	0xbe2d84aa	-0.16945139
65	0xbf02cfc7	-0.51098293
66	0xbe701685	-0.2344609
67	0xbda08d0e	-0.07839404
68	0x3ea84ee8	0.328727
69	0x3dca227d	0.09869859
70	0x3e255277	0.16144739
71	0xbe5ade3d	-0.2137384
72	0xbe3488cb	-0.17630307
73	0x3cfc9d2f	0.03083667
74	0xbe500447	-0.20314132
75	0x3dfdfe18	0.1240198
76	0xbcc4d788	-0.024028555
77	0xbdf80f0f	-0.12112247
78	0x3c43d9bd	0.011953768
79	0xbe1dc0e3	-0.15405612
80	0xbd0e5a3d	-0.034754027
81	0xbc366482	-0.011132361
82	0x3e5d9064	0.21637112
83	0xbe7ba705	-0.24575432
84	0xbd7157ca	-0.058921613
85	0x3e53c464	0.20680386
86	0x3e67028b	0.22559564
87	0xbd672729	-0.05643383
88	0xbe7e945d	-0.24861284
89	0x3ecb6616	0.39726323
90	0x3e05bbea	0.13059965
91	0xbd711e8b	-0.05886702
92	0xbeb7b049	-0.35876682
93	0xbec88bc2	-0.39169127
94	0xbeed1ab1	-0.46309426
95	0x3e1e9173	0.15485172
96	0x3ce29bf4	0.027662255
97	0xbde69633	-0.11259117
98	0x3df9c47d	0.1219568
99	0xbd11f03b	-0.035629492
100	0x3e2ecd49	0.17070498
101	0xbe530c5e	-0.20610186
102	0xbe8f805e	-0.28027624
103	0x3ec611bb	0.38685402
104	0x3ec84926	0.39118308
105	0xbe611bcf	-0.21983264
106	0xbe39dbb9	-0.18150224
107	0xbb9ece20	-0.0048463494
108	0x3d011890	0.031517565
109	0xbdaf97cc	-0.08573875
110	0xbd921599	-0.07133026
111	0x3d4376fc	0.047720894
112	0xbe5875c6	-0.21138677
113	0x3e1e11fc	0.15436548
114	0x3d8b7ffa	0.06811519
115	0xbe2272b2	-0.15864065
116	0xbde762ed	-0.112981655
117	0x3e1556cf	0.14583896
118	0x3def7787	0.1169272
119	0xbe444a0b	-0.1916887
120	0xbe1072ed	-0.1410634
121	0xbf0b8a87	-0.5450825
122	0xbecbbe88	-0.397938
123	0xbec37fd0	-0.3818345
124	0x3a9ed823	0.0012118857
125	0xbeb36cb4	-0.3504387
126	0xbed211f0	-0.4102931
127	0xbe206910	-0.15665078
128	0xbe0ecc39	-0.13945092
129	0xbdc0a936	-0.094072744
130	0x3ee558a4	0.4479419
131	0xbe97e346	-0.29665583
132	0xbd9101cf	-0.07080423
133	0xbde357ba	-0.11100717
134	0x3ec7a279	0.38991144
135	0x3d9c7c95	0.0764095
136	0xbed42ba0	-0.41439533
137	0xbeaca26c	-0.33717668
138	0xbeca0d1a	-0.3946312
139	0xbdbcf6cd	-0.09226761
140	0xbeca42fd	-0.39504233
141	0xbe6a9c93	-0.22911291
142	0xbeaeaa58	-0.34114337
143	0xbdda1e4f	-0.10650312
144	0xbc94a127	-0.01814325
145	0x3e2c95fb	0.16854088
146	0xbe94e57a	-0.29081327
147	0xbec2a212	-0.38014275
148	0x3ea49fff	0.32153317
149	0x3e1111b5	0.14166911
150	0xbc80ca7a	-0.015721548
151	0xbe5fb9bf	-0.218482
152	0x3e566423	0.20936637
153	0xbdd0afab	-0.10189756
154	0x3e7218b7	0.2364224
155	0xbe37fec3	-0.17968278
156	0xbdf8abaf	-0.12142121
157	0xbe215ce4	-0.15758091
158	0xbf0fe7de	-0.56213176
159	0x3e7e7871	0.24850632
160	0x3e15c88f	0.14627288
161	0xbb7a41c9	-0.0038186184
162	0xbd42ef20	-0.04759133
163	0xbe1e2f7a	-0.15447798
164	0xbe7c45ab	-0.24635951
165	0xbe9d39b8	-0.30708098
166	0xbcdd3386	-0.027002107
167	0xbda73eb0	-0.081662536
168	0xbe3da888	-0.18521321
169	0xbe36b2f0	-0.17841697
170	0x3dcbbb43	0.09947827
171	0xbe96c6bb	-0.29448494
172	0x3d5fe0d2	0.054657765
173	0xbd25f45b	-0.04051624
174	0x3db37944	0.08763364
175	0xbdf994dd	-0.121865965
176	0x3d8cb5f4	0.06870642
177	0x3dd0682a	0.10176118
178	0x3e4bba84	0.19895369
179	0x3e94d315	0.29067293
180	0x3e82a424	0.25515854
181	0x3e333cc5	0.1750365
182	0xbcf0bcbf	-0.029386876
183	0xbe632b13	-0.221844
184	0x3e426398	0.18983305
185	0xbc4d99d6	-0.012548884
186	0xbdaa4b60	-0.08315158
187	0xbe69fdc0	-0.22850704
188	0x3f0211c8	0.5080838
189	0xbe6db109	-0.23212065
190	0xbe1c87a3	-0.15286116
191	0xbe132467	-0.14369355
192	0xbe6fd286	-0.23420152
193	0xbe4d4f3b	-0.20049755
194	0x3e7c7e5f	0.24657582
195	0x3e067e1c	0.13134044
196	0xbd729637	-0.059225287
197	0x3e369f40	0.17834187
198	0x3e567568	0.20943224
199	0x3e84407a	0.25830442
200	0x3db8ad9f	0.090174906
201	0x3e5ef6c0	0.21773815
202	0xbe241038	-0.16021812
203	0x3e5b7863	0.21432643
204	0xbd4e3493	-0.050343107
205	0xbe9402ec	-0.2890848
206	0x3e0afef1	0.13573815
207	0x3de7a279	0.11310286
208	0xbe74ccea	-0.23906294
209	0x3db73983	0.08946516
210	0x3e3e69c6	0.18595037
211	0x3e9f5c0d	0.31124917
212	0x3ea3b9fc	0.31977832
213	0x3e053051	0.13006712
214	0x3ef883b9	0.48537996
215	0x3d7a6a13	0.061136317
216	0x3dc0cc08	0.09413916
217	0xbe0116a7	-0.12606297
218	0x3eaca698	0.3372085
219	0xbe27daf5	-0.16392119
220	0xbeaa5897	-0.33270714
221	0xbdd3fd24	-0.10351017
222	0x3de5ce5f	0.11221003
223	0x3c1b14db	0.009465422
224	0xbe9865d9	-0.29765204
225	0x3e104188	0.14087498
226	0x3ccf54aa	0.025308926
227	0xbd85e83c	-0.06538436
228	0xbce9e749	-0.028552668
229	0x3dec1238	0.115269125
230	0x3d820257	0.063481025
231	0x3e466145	0.19373043
232	0x3ec08d93	0.37608013
233	0x3d67a1a0	0.056550622
234	0x3c285a26	0.010275399
235	0xbe2097c4	-0.15682894
236	0x3cf479f6	0.029843312
237	0x3e233300	0.15937424
238	0x3e11b353	0.14228563
239	0x3e5fd2ce	0.2185776
240	0x3ebefd0c	0.37302434
241	0xbe568338	-0.20948493
242	0xbe5f6f8a	-0.21819893
243	0xbe6f42d9	-0.23365344
244	0xbe420b02	-0.18949512
245	0x3da110f4	0.07864562
246	0x3ef11380	0.4708519
247	0x3e001c3d	0.12510772
248	0x3e811f01	0.25218967
249	0xbeb1fbc3	-0.3476239
250	0xbdc25278	-0.09488386
251	0x3c1199a7	0.008886731
252	0x3e3e5374	0.18586522
253	0x3eacdcae	0.33762115
254	0xbddb4a3e	-0.1070752
255	0x3e36b154	0.17841083

bias_ih_l0 f4 [60]
0	0x3e5062e7	0.20350228
1	0x3e984887	0.29742834
2	0x3e80bfd1	0.25146344
3	0x3df1e8ba	0.11811967
4	0x3ed8f5dd	0.4237508
5	0xbe601096	-0.21881327
6	0x3ea0fe26	0.314439
7	0x3e92ad85	0.2864801
8	0x3f1adedf	0.60496324
9	0x3eaae48e	0.33377498
10	0xbe4ef752	-0.20211533
11	0x3df2d756	0.11857478
12	0xbd864836	-0.06556742
13	0xbe1e7497	-0.15474163
14	0x3d81d559	0.06339521
15	0x3da15b8a	0.07878788
16	0x3e7e40cf	0.2482941
17	0x3df27792	0.118392125
18	0x3dc33858	0.09532231
19	0x3e80cd02	0.2515641
20	0xbdc4057e	-0.0957136
21	0xbea08459	-0.31350973
22	0x3e12522b	0.14289157
23	0xbd52057a	-0.051274754
24	0xbe5ec71e	-0.21755645
25	0x3e6da41e	0.23207137
26	0xbe14777c	-0.14498705
27	0xbdd313af	-0.10306489
28	0x3e114859	0.14187755
29	0xbe6e6ade	-0.23282954
30	0x3e416d4d	0.18889351
31	0xbe955aa8	-0.29170728
32	0xbc0a27f4	-0.008432377
33	0xbebe618d	-0.371838
34	0x3e08cf56	0.13360342
35	0xbe63258b	-0.2218229
36	0xbe48cf90	-0.19610429
37	0xbd097be5	-0.03356542
38	0x3d4b0ddb	0.04957376
39	0xbe5fb330	-0.21845698
40	0xbdccae8d	-0.099942304
41	0xbe345074	-0.17608815
42	0xbe47e589	-0.19521154
43	0x3e1cf8eb	0.1532933
44	0x3ead5551	0.33854154
45	0x3ec1863b	0.37797722
46	0x3de46559	0.11152143
47	0x3d9c8e49	0.07644326
48	0xbd5e08b7	-0.05420753
49	0x3c3a0805	0.011354451
50	0x3e864e50	0.26231623
51	0x3eab7508	0.33487725
52	0xbcf8df21	-0.030379834
53	0x3efbc015	0.49169984
54	0x3f04f76d	0.5194004
55	0xbd9d3b13	-0.07677283
56	0x3dc98e63	0.09841611
57	0x3dd8efb5	0.105925955
58	0x3c508eab	0.012729327
59	0xbe1aa349	-0.15101351

bias_hh_l0 f4 [60]
0	0x3de47299	0.1115467
1	0xbdef5b5d	-0.11687348
2	0x3e9c91bb	0.30579934
3	0x3eb3199c	0.34980476
4	0xbc7f1691	-0.015569345
5	0x3e0ed2f6	0.13947663
6	0x3eac9bed	0.33712712
7	0x3ecab31e	0.3958978
8	0x3e76c53a	0.24098673
9	0x3f0cf618	0.5506301
10	0x3e1a9be3	0.15098529
11	0x3e3ce28c	0.18445796
12	0xbd8b8124	-0.06811741
13	0x3d73f97d	0.059564102
14	0x3e4cb15b	0.1998953
15	0x3dfc2ac7	0.12312847
16	0xbc38dfe2	-0.011283847
17	0x3e859873	0.26092872
18	0xbc335cfa	-0.01094746
19	0x3e68c921	0.22732975
20	0xbd997077	-0.07492154
21	0xbe928661	-0.28618148
22	0x3d8cb6e1	0.06870819
23	0x3d6555a7	0.055989888
24	0xbd8917cc	-0.06693992
25	0x3e5e9678	0.21737087
26	0x3cf1e7f4	0.02952955
27	0x3e1a87ec	0.15090913
28	0x3e4871a2	0.19574597
29	0x3e19330c	0.14960879
30	0xbea003f3	-0.31253013
31	0xbd84748a	-0.064675406
32	0xbe708c4d	-0.2349102
33	0xbedffc57	-0.43747208
34	0x3d11cd2e	0.035596065
35	0xbddca120	-0.1077292
36	0xbe56983f	-0.20956515
37	0xbe025be5	-0.12730367
38	0x3dc3b1e6	0.09555416
39	0x3dee84b3	0.11646404
40	0x3d273405	0.040821094
41	0x3d0fa53c	0.03506969
42	0xbea5389d	-0.32269755
43	0xbdabc1f3	-0.08386602
44	0x3dbae80f	0.09126293
45	0x3dc9668b	0.09834012
46	0xbe120a3a	-0.14261714
47	0x3e1ced8e	0.15324995
48	0x3e998f6b	0.29992232
49	0xbd3079a0	-0.04308474
50	0xbe1e2132	-0.1544235
51	0x3dca341e	0.09873222
52	0x3e615a12	0.22007015
53	0x3eb1fd74	0.34763682
54	0x3ee3b842	0.44476515
55	0x3e95e4bc	0.29276073
56	0x3ed31f48	0.41234803
57	0x3e295b91	0.16538836
58	0x3e966d59	0.293803
59	0xbdc848fa	-0.09779544

weight_ih_l1 f4 [60, 15]
0	0xbf0070b7	-0.5017199
1	0xbe8b7950	-0.27240992
2	0xbdcf1830	-0.10112035
3	0x3cc39ec4	0.023879416
4	0x3d653001	0.055953983
5	0xbeb03260	-0.34413433
6	0xbf1fe395	-0.6245664
7	0x3d11f73c	0.03563617
8	0x3e189202	0.14899448
9	0x3e4f3494	0.202349
10	0x3daaf035	0.08346597
11	0xbe32d094	-0.17462379
12	0xbea4832e	-0.32131332
13	0xbd22cecf	-0.03974801
14	0x3e63d8d7	0.22250687
15	0x3ca967c3	0.02067936
16	0xbe83d9dc	-0.2575215
17	0xbe9a08ec	-0.30084932
18	0xbee2afe1	-0.4427481
19	0xbe48a813	-0.19595365
20	0xbe923c19	-0.28561476
21	0xbecdf113	-0.40222988
22	0xbea1aadf	-0.31575677
23	0x3f18ce68	0.5968995
24	0xbd1c8335	-0.038211066
25	0x3ddace97	0.10683935
26	0xbe701585	-0.23445709
27	0xbe8f6377	-0.28005573
28	0x3eafedff	0.34361264
29	0x3e375009	0.17901625
30	0xbf0ebea1	-0.55759627
31	0xbe32fc4b	-0.17479055
32	0xbda0b405	-0.07846836
33	0xbed22663	-0.41044912
34	0x3e1029fe	0.14078519
35	0xbe793242	-0.24335578
36	0xbf2268ac	-0.63440967
37	0xbe67ff78	-0.22656047
38	0x3e96c1dc	0.29444778
39	0xbdc66506	-0.096872374
40	0xbe5aaf0a	-0.21355835
41	0xbf4b7192	-0.7947017
42	0xbeb528f5	-0.3538281
43	0xbdc8596d	-0.097826816
44	0x3ee3cbf6	0.44491547
45	0xbebb06e2	-0.3652869
46	0xbe7d5e43	-0.24742989
47	0xbdab2e82	-0.0835848
48	0xbe9d0802	-0.30670172
49	0x3e18fb70	0.14939666
50	0x3ccd77c7	0.025081528
51	0xbf1a33c9	-0.6023527
52	0xbe3e0f98	-0.18560636
53	0xbf4f33c4	-0.80938363
54	0x3da68540	0.08130884
55	0xbe460d1c	-0.19340938
56	0xbe26ab84	-0.16276366
57	0x3e0ce05c	0.13757461
58	0xbce4b4fc	-0.027918331
59	0x3ed8d0bb	0.4234675
60	0xbe6851e2	-0.22687486
61	0xbea89a9c	-0.32930458
62	0xbed07b47	-0.40719053
63	0xbe5df0d4	-0.216739
64	0xbedcd9b3	-0.4313484
65	0xbe4bf914	-0.19919235
66	0xbeae7779	-0.34075525
67	0xbe7f8663	-0.24953608
68	0xbe8cb3c2	-0.27480894
69	0xbe325840	-0.17416477
70	0x3edc28f4	0.42999995
71	0xbf86c813	-1.0529808
72	0xbf0ec670	-0.5577154
73	0x3c533b93	0.012892622
74	0x3eb7339b	0.3578156
75	0xbf20d486	-0.62824285
76	0xbece8a06	-0.4033968
77	0xbe8270a9	-0.25476578
78	0xbe281bf4	-0.16416913
79	0x3e6570fa	0.22406378
80	0xbed4fd6e	-0.41599602
81	0xbf67d880	-0.9056473
82	0xbe96a2ee	-0.2942118
83	0xbf0be043	-0.5463907
84	0x3e8dbac2	0.27681547
85	0x3e541fcc	0.20715255
86	0xbf63ea75	-0.8902963
87	0xbe6c4dd8	-0.2307657
88	0x3e8b9517	0.27262184
89	0x3f2bb45a	0.6707207
90	0x3bcdd982	0.0062820325
91	0x3c421e44	0.011848036
92	0xbe4a2fff	-0.19744872
93	0xbe9b7596	-0.30363148
94	0xbe0b1f34	-0.13586122
95	0xbe6095e9	-0.21932186
96	0xbdeb1bc3	-0.114799045
97	0xbd09680a	-0.033546485
98	0x3f3cda99	0.73771054
99	0xbf18ebda	-0.5973488
100	0x3dffe2af	0.12494408
101	0xbd87b0e4	-0.06625536
102	0xbe5362b9	-0.20643128
103	0x3ea58b57	0.3233287
104	0x3e9f3535	0.3109528
105	0xbda70c9c	-0.08156702
106	0x3c8b1d4a	0.01698174
107	0xbeb38679	-0.35063532
108	0xbec4dd14	-0.3844992
109	0xbdb19401	-0.08670808
110	0xbe061215	-0.13092835
111	0xbef72cae	-0.48276275
112	0xbb9139d4	-0.0044319425
113	0x3e72f987	0.23728
114	0xbe47022a	-0.1943442
115	0x3e8dfa97	0.27730247
116	0xbeaffd33	-0.34372863
117	0x3cb6ddf9	0.022322642
118	0x3e19dcb2	0.15025595
119	0x3ec44597	0.38334343
120	0xbdf054db	-0.11734935
121	0x3deccc51	0.11562408
122	0xbe23d03f	-0.15997408
123	0xbedc7304	-0.430565
124	0x3e17c618	0.1482166
125	0xbe49a8ff	-0.19693373
126	0xbe08f891	-0.1337607
127	0x3c30b3bb	0.010785039
128	0x3f9f4811	1.2443868
129	0xbec710f3	-0.3888012
130	0x3d8f255a	0.06989546
131	0xbe1d6d4e	-0.15373728
132	0xbd5fb220	-0.054613233
133	0xbdcc80d0	-0.099855065
134	0x3f0ac7ad	0.5421093
135	0xbc8a1c33	-0.01685915
136	0xbec347aa	-0.38140613
137	0xbe524534	-0.20534211
138	0xbf1347c3	-0.57531375
139	0xbea4f50f	-0.32218215
140	0xbed3b2e2	-0.41347414
141	0xbd313b55	-0.043269474
142	0xbf379974	-0.71718526
143	0x3f3c06d1	0.734479
144	0xbeae8952	-0.34089142
145	0x3ec15dc7	0.3776686
146	0xbed9e501	-0.4255753
147	0xbdbc34ce	-0.09189759
148	0x3ef0d5bf	0.47038075
149	0x3f4563f8	0.77105665
150	0xbe3f2a27	-0.18668424
151	0xbe0ca572	-0.13734987
152	0xbf00e6ff	-0.5035247
153	0xbf37f498	-0.71857595
154	0x3ceece69	0.029151158
155	0xbf0e266f	-0.55527395
156	0xbf09f2c3	-0.5388605
157	0xbeafebde	-0.3435964
158	0xbe16f6e4	-0.14742619
159	0x3ea05949	0.3131812
160	0x3ee43d61	0.44578078
161	0xbf34ef9e	-0.70678127
162	0xbf177688	-0.5916524
163	0x3d688fa8	0.056777626
164	0x3eda1173	0.42591438
165	0xbed87311	-0.4227529
166	0xbe9cd16a	-0.3062852
167	0xbf0305b3	-0.5118057
168	0xbebd0427	-0.3691723
169	0x3bdea133	0.006794119
170	0xbee687d4	-0.45025504
171	0xbeee9062	-0.4659453
172	0xbe3c7450	-0.18403745
173	0xbc7e9860	-0.015539259
174	0x3e48efea	0.1962277
175	0x3f030e2a	0.5119349
176	0xbf8dff12	-1.1093466
177	0xbef07bf1	-0.4696956
178	0x3d4ad6c3	0.04952122
179	0x3f12e5a7	0.5738167
180	0xbda37966	-0.07982139
181	0xbe2695e1	-0.16268112
182	0x3e019f83	0.12658505
183	0xbdecf80f	-0.11570751
184	0x3bc4f9f8	0.006011244
185	0xbe80dc33	-0.25168
186	0xbe4c43d6	-0.19947752
187	0x3d8e4944	0.06947568
188	0x3e863b62	0.2621718
189	0xbd8a1e05	-0.06744007
190	0xbe419725	-0.18905313
191	0xbdfff8b5	-0.12498609
192	0xbd6c1736	-0.057639323
193	0xbe4fda3b	-0.20298092
194	0xbe359b13	-0.17734937
195	0xbe434d3c	-0.19072431
196	0xbe7445f8	-0.23854816
197	0xbce3cbb1	-0.027807089
198	0xbe4c4a89	-0.19950308
199	0xbddcd8b6	-0.10783522
200	0x3d68a0dc	0.056794032
201	0xbf01543d	-0.5051916
202	0xbe9bff14	-0.30468047
203	0xbe7f9427	-0.2495886
204	0xbe88a134	-0.26685488
205	0x3c25c814	0.010118503
206	0xbedc1d8c	-0.42991292
207	0xbef85cf9	-0.48508433
208	0x3e1ea383	0.15492062
209	0x3ed96f6c	0.4246782
210	0xbd91693e	-0.071001515
211	0xbe4b7b2c	-0.19871205
212	0x3dcd37ab	0.100203834
213	0xbe0b11cf	-0.13581012
214	0xbea9d302	-0.331688
215	0x3ddf607f	0.10907077
216	0xbca8215f	-0.020523725
217	0xbd15aa5a	-0.036539413
218	0x3f1da6fe	0.61582935
219	0xbdce5579	-0.10074896
220	0xbe1d4f36	-0.15362248
221	0xbe816465	-0.25271907
222	0xbd3d37bd	-0.046195734
223	0xbca25147	-0.019814147
224	0x3eebdfe9	0.46069267
225	0xbe8a2c4b	-0.26986918
226	0x3cff2c54	0.031149067
227	0xbdb7df7c	-0.08978173
228	0xbddfcc9b	-0.10927697
229	0x3e0a0ab3	0.13480644
230	0x3d9e517e	0.07730387
231	0xbdeecc1a	-0.11660023
232	0xbe0c9369	-0.13728108
233	0x3d83dafb	0.064382516
234	0xbe031646	-0.12801465
235	0x3e7343c2	0.23756316
236	0xbec2b66b	-0.380298
237	0xbce854d0	-0.028360754
238	0xbdb93a4e	-0.09044324
239	0xbe0c1437	-0.13679586
240	0x3dd6a4c9	0.10480649
241	0xbd1b596c	-0.037927076
242	0x3e37ef4c	0.17962378
243	0xbe08ec25	-0.13371332
244	0xbdf4aff3	-0.11947622
245	0xbe9cbba0	-0.30611897
246	0x3d3df689	0.046377692
247	0x3dad45bc	0.084605664
248	0x3d8e5e6a	0.06951602
249	0xbbd85323	-0.0066017075
250	0xbdc4c8ef	-0.096086375
251	0xbeb75b68	-0.35811925
252	0x3d401ec1	0.04690433
253	0x3e8592e9	0.26088646
254	0xbdb74fb0	-0.08950746
255	0xbe80bbbf	-0.2514324

weight_hh_l1 f4 [60, 15]
0	0xbe710b19	-0.2353939
1	0xbe48e12e	-0.19617149
2	0x3c25a702	0.010110619
3	0xbe64ea26	-0.22354946
4	0x3c832a7c	0.016011469
5	0x3ed238bd	0.41058913
6	0x3e3cecc6	0.18449697
7	0xbe32c75c	-0.17458862
8	0x3e20a728	0.15688765
9	0xbe4f63a2	-0.2025285
10	0x3e2da4e9	0.1695744
11	0xbeb512fc	-0.35366046
12	0x3e092b36	0.1339539
13	0x3e8f8e3d	0.28038207
14	0x3eab8adb	0.33504376
15	0x3e4d2c1e	0.2003636
16	0xbce94378	-0.028474554
17	0xbdfb959d	-0.12284396
18	0x3eb9b242	0.36268812
19	0x3e1944ec	0.14967698
20	0xbe1d27af	-0.1534717
21	0x3da759fb	0.08171459
22	0x3e95cd7b	0.29258332
23	0x3e2a4401	0.16627504
24	0xbdff3aba	-0.12462373
25	0xbdbe9598	-0.093058765
26	0xbe3b47d0	-0.18289113
27	0xbc37b920	-0.011213571
28	0xbe22827a	-0.15870085
29	0xbe34d0ac	-0.17657727
30	0x3e2e2ff8	0.17010486
31	0x3e057b26	0.13035259
32	0x3e35410e	0.17700598
33	0x3ed31314	0.41225493
34	0xbe5bb2c3	-0.21454911
35	0xbe610d94	-0.21977836
36	0xbe048196	-0.12940058
37	0xbe913431	-0.2836013
38	0xbe80ecde	-0.25180715
39	0xbd95d77b	-0.0731649
40	0xbef6af9f	-0.48180863
41	0x3e505f18	0.20348775
42	0xbedc2a65	-0.43001094
43	0xbdeda087	-0.11602884
44	0x3eb0c6fc	0.34526813
45	0xbc324763	-0.010881278
46	0xbe2ccdc4	-0.16875368
47	0x3df9cbae	0.12197052
48	0x3e3c9670	0.18416762
49	0xbee223e8	-0.4416802
50	0x3e203c6f	0.15648054
51	0xbdc0f827	-0.09422331
52	0xbe19a1a1	-0.15003063
53	0xbde5621d	-0.11200354
54	0x3e2c1962	0.16806558
55	0x3e89b77d	0.26897803
56	0x3df7c897	0.12098806
57	0x3e529ab9	0.20566835
58	0x3e64e3d2	0.22352532
59	0xbd96f9b7	-0.07371848
60	0x3dba5bc9	0.09099538
61	0xbe4cfee5	-0.2001911
62	0xbe750418	-0.23927343
63	0x3eea62ba	0.45778447
64	0xbc947b2b	-0.018125137
65	0xbece46ce	-0.40288395
66	0x3e8f6680	0.2800789
67	0x3e44a9a1	0.19205333
68	0x3e6cf229	0.23139252
69	0xbebb3c9a	-0.36569673
70	0xbe7f6e19	-0.24944343
71	0xbdef4764	-0.116835386
72	0xbc257d89	-0.010100731
73	0xbee6f77f	-0.451107
74	0xbf74b315	-0.9558576
75	0x3e97acbf	0.29623982
76	0x3e3f8893	0.18704443
77	0xbe00f473	-0.1259325
78	0x3ef0b2a6	0.47011298
79	0xbe87b76f	-0.26507136
80	0x3dc19d4f	0.09453832
81	0xbd7780d6	-0.060425602
82	0xbda59639	-0.08085293
83	0xbe383f60	-0.17992926
84	0xbe2f1c5f	-0.17100666
85	0xbe0bcc42	-0.13652137
86	0x3f4d737c	0.8025434
87	0x3e1048ba	0.14090243
88	0x3b8bbdb5	0.004264558
89	0xbe05295d	-0.1300406
90	0x3d05ce4e	0.03266745
91	0xbe412bc2	-0.18864349
92	0xbe55615c	-0.20837921
93	0xbd726510	-0.059178412
94	0xbd922fcd	-0.071380235
95	0xbea1f407	-0.3163149
96	0xbd299358	-0.041400284
97	0x3d61cb08	0.055125266
98	0x3e5c7e55	0.21532567
99	0xbdac3138	-0.08407825
100	0x3e0af521	0.13570072
101	0xbeb84bdf	-0.35995385
102	0xbdc5e488	-0.096627295
103	0x3e88858a	0.26664382
104	0xbe60d276	-0.21955284
105	0xbcd159e6	-0.025555562
106	0xbea86e16	-0.3289649
107	0x3e526b91	0.20548846
108	0x3d97a230	0.07403982
109	0xbe3e26d2	-0.18569496
110	0xbe1868e7	-0.14883767
111	0xbdfd289f	-0.123612635
112	0x3d7b6b42	0.061381586
113	0x3deebbb0	0.11656892
114	0xbda70b44	-0.081564456
115	0x3cd2164a	0.025645394
116	0xbe8e0651	-0.27739194
117	0x3d234aca	0.039866246
118	0x3e207ba4	0.15672165
119	0x3e13629f	0.1439309
120	0x3ccd3da8	0.025053814
121	0xbde9b694	-0.11411777
122	0xbd3372bd	-0.043810595
123	0x3ed86cc8	0.42270494
124	0xbe99efa3	-0.3006564
125	0x3dc291c9	0.095004626
126	0xbda14859	-0.07875127
127	0x3e3448b1	0.17605855
128	0xbe16d795	-0.14730676
129	0x3e599bd0	0.21250844
130	0x3e50c87e	0.20388982
131	0xbe8697e1	-0.2628775
132	0xbea98015	-0.3310553
133	0xbce5dd29	-0.028059559
134	0xbeb6fc3b	-0.35739312
135	0x3f194792	0.5987483
136	0xbed913ee	-0.42398018
137	0xbcaca61e	-0.021075305
138	0x3ce24002	0.027618412
139	0xbe4795af	-0.19490694
140	0xbd2dedb5	-0.042463023
141	0x3dea33ab	0.11435636
142	0x3eb09c66	0.34494323
143	0x3e6a9644	0.22908884
144	0x3e3584d5	0.17726453
145	0xbe6a6a17	-0.22892033
146	0xbd37a226	-0.04483237
147	0x3db31f18	0.08746165
148	0xbdbab3d2	-0.09116329
149	0xbe21c3dc	-0.1579737
150	0x3e342c9d	0.17595144
151	0xbec66e3b	-0.38755974
152	0xbf72c959	-0.9483848
153	0x3e80666f	0.2507815
154	0xbe210723	-0.15725379
155	0xbe6a798e	-0.22897932
156	0x3f274d99	0.6535278
157	0x3e392b9b	0.1808304
158	0x3ef44901	0.47711948
159	0xbf1dbb76	-0.6161417
160	0x3e1d7fcc	0.15380782
161	0x3e170bed	0.14750643
162	0x3ef3c2a7	0.47609445
163	0xbe3a6c4f	-0.18205379
164	0xbf2e7a0d	-0.68154985
165	0x3e258afd	0.16166301
166	0xbe2339f6	-0.15940079
167	0xbd78cbcb	-0.060741227
168	0x3c36c42c	0.011155169
169	0xbe7f4f5c	-0.24932617
170	0xbddde85f	-0.10835337
171	0x3e7c5d4d	0.24644966
172	0x3eb2f1af	0.34950015
173	0x3eace9df	0.3377218
174	0xbf09f60a	-0.5389105
175	0xbe15a7df	-0.14614819
176	0xbe59723a	-0.2123498
177	0xbf2338a9	-0.6375833
178	0xbd8f510d	-0.06997881
179	0xbf10487e	-0.56360614
180	0xbe3a0518	-0.18166006
181	0x3db324ed	0.087472774
182	0x3e06e6f6	0.13174042
183	0x3d7daba5	0.06193127
184	0xbea9d40a	-0.33169585
185	0xbe9fa831	-0.31183007
186	0xbe80c466	-0.2514984
187	0xbdd54816	-0.1041414
188	0xbe083574	-0.13301641
189	0x3da3f5c2	0.08005859
190	0x3e0d0bca	0.13774028
191	0x3ef2acef	0.47397563
192	0xbd0ac599	-0.03387985
193	0xbe0525b1	-0.1300266
194	0x3dab6a20	0.08369851
195	0xbe1517d6	-0.14559874
196	0x3e34d97b	0.17661087
197	0xbe96eae9	-0.29476097
198	0xbe1e856a	-0.15480581
199	0xbe8c1183	-0.2735711
200	0xbdab5cc6	-0.083673045
201	0x3f015be7	0.50530857
202	0x3e990729	0.29888275
203	0xbdb87e6f	-0.0900849
204	0xbf2c54a3	-0.67316645
205	0xbebec6cb	-0.37261042
206	0xbe5dfd9c	-0.21678776
207	0xbe6f8064	-0.23388821
208	0xbde7f887	-0.113267
209	0xbf57af90	-0.8425226
210	0xbaad805b	-0.0013237105
211	0xbee04229	-0.43800476
212	0x3e4e82ff	0.20167159
213	0x3dba361f	0.09092354
214	0xbe335074	-0.17511159
215	0x3ee146ad	0.43999234
216	0xbe13b004	-0.14422613
217	0xbe8d307b	-0.2757605
218	0xbdbbf6b6	-0.09177916
219	0x3e81f21b	0.25380024
220	0x3cad36d8	0.021144316
221	0xbe74ea67	-0.23917542
222	0x3f018b71	0.50603396
223	0xbda3f0a7	-0.08004885
224	0x3e23da04	0.16001135
225	0xbe0626a6	-0.1310068
226	0xbde6134e	-0.11234151
227	0xbc99318e	-0.018700387
228	0xbd383597	-0.044972982
229	0xbe33af23	-0.17547278
230	0xbe1ca6e2	-0.15298036
231	0xbdcf9312	-0.10135473
232	0x3d90efa5	0.070769586
233	0x3d887b48	0.06664139
234	0xbe221f16	-0.15832171
235	0x3eaabeb7	0.3334863
236	0x3cfbc61d	0.030734116
237	0x3e873c7b	0.2641333
238	0xbe341a87	-0.17588244
239	0x3eaff063	0.34363088
240	0x3dac20ab	0.084046684
241	0xbd91d4fa	-0.071207
242	0x3e0c2466	0.1368576
243	0x3d44660f	0.047948893
244	0x3d99babe	0.07506321
245	0xbdf6c4d6	-0.12049262
246	0xbd227c68	-0.039669424
247	0x3c04b193	0.008098978
248	0x3d6cb49a	0.057789423
249	0x3d5895eb	0.052877348
250	0xbe4f94f7	-0.2027167
251	0x3e7d16a2	0.24715665
252	0xbeac600b	-0.33667025
253	0x3c7dc718	0.015489362
254	0xbe6499e0	-0.22324324
255	0x3d3ec3c9	0.046573434

bias_ih_l1 f4 [60]
0	0x3e9771e5	0.29579082
1	0x3e427128	0.18988478
2	0x3dc30e4b	0.095242105
3	0x3ea19c04	0.31564343
4	0x3ef5b343	0.47988328
5	0x3e4175d5	0.18892606
6	0x3e6c3f38	0.23070991
7	0x3e65a504	0.2242623
8	0xbc47b05f	-0.012188046
9	0x3f34b797	0.70592636
10	0x3f1472d5	0.5798772
11	0x3e419b88	0.18906987
12	0xbe06317e	-0.13104817
13	0x3eb77736	0.35833138
14	0x3ece8577	0.403362
15	0xbe85fb45	-0.26168266
16	0x3da3c949	0.079973765
17	0x3e00c234	0.12574083
18	0xbe934f8c	-0.28771627
19	0xbe05e0f9	-0.13074102
20	0x3cb54dca	0.02213182
21	0xbcd2d132	-0.025734518
22	0x3d1e7deb	0.038694303
23	0xbe21339e	-0.15742347
24	0xbdce9bf1	-0.10088337
25	0x3e5a5f4f	0.2132542
26	0xbd8fc838	-0.070206106
27	0x3eb17784	0.34661496
28	0x3eaae8d4	0.3338076
29	0xbbe62b37	-0.0070241946
30	0x3ebb37b9	0.3656595
31	0xbe88494d	-0.26618424
32	0xbde24ef9	-0.11050219
33	0x3c3897a8	0.011266626
34	0xbe3f8230	-0.18702006
35	0xbbdfcbd6	-0.006829719
36	0xbb4a8610	-0.0030902661
37	0x3e527e8e	0.2055609
38	0x3e838f8f	0.25695464
39	0xbe704701	-0.23464586
40	0xbcf6e6af	-0.030139295
41	0x3da5d2ee	0.08096872
42	0xbda8baf2	-0.08238782
43	0xbe34ea84	-0.17667586
44	0xbe92bf0f	-0.2866139
45	0xbd199b5b	-0.037501674
46	0x3ebe37ba	0.3715189
47	0x3ee109bd	0.43952742
48	0x3ded499b	0.11586305
49	0x3f187e0e	0.59567344
50	0x3ece67d7	0.403136
51	0x3dfb645b	0.12275001
52	0xbe08931b	-0.13337366
53	0x3ead5d3e	0.338602
54	0x3eef60b6	0.46753472
55	0x3e8dda5f	0.27705666
56	0x3eff5efb	0.49877152
57	0x3e850dde	0.25987142
58	0x3ed41251	0.41420224
59	0x3ee4689f	0.4461107

bias_hh_l1 f4 [60]
0	0x3e89a008	0.26879907
1	0x3eecc71f	0.46245667
2	0x3ec22cba	0.3792475
3	0x3da6dfd1	0.08148158
4	0x3edb5117	0.42835304
5	0x3dc9738c	0.09836492
6	0x3edab27f	0.42714307
7	0xbdd6b188	-0.1048308
8	0x3d3cc0f8	0.046082467
9	0x3ec44fff	0.38342282
10	0x3ea579e6	0.32319564
11	0x3df775b9	0.12083001
12	0xbdeb8882	-0.11500646
13	0x3e45923c	0.19294065
14	0x3ebb1602	0.36540228
15	0xbdc53c61	-0.09630657
16	0x3e3a98f1	0.18222405
17	0xbdc74419	-0.097297855
18	0xbe051bd5	-0.12998898
19	0x3e70c37b	0.2351207
20	0xbdbf98e1	-0.09355331
21	0x3decc438	0.11560863
22	0xbda7b41c	-0.0818865
23	0xbe5f4da2	-0.21806958
24	0x3e8e4bbe	0.27792162
25	0xbe05d3c4	-0.13069063
26	0xbe0d4d32	-0.13798979
27	0x3eae5a59	0.34053305
28	0x3d853b48	0.065054476
29	0x3e4f1228	0.2022177
30	0xbd8bad5a	-0.068201736
31	0xbe8e46f0	-0.27788496
32	0xbe017bb8	-0.12644851
33	0xbd989df8	-0.07452005
34	0x3e8b2388	0.27175546
35	0xbd53b8e2	-0.05168999
36	0x3e9f19a3	0.31074247
37	0x3dca5bbb	0.098807774
38	0x3dbe08fa	0.09279056
39	0xbe71e3d9	-0.23622073
40	0x3c5fac52	0.013651924
41	0xbe6c89e6	-0.23099479
42	0x3d7c29a1	0.061563138
43	0xbea4e57c	-0.32206333
44	0xbdaa50ff	-0.0831623
45	0xbd9b2ebd	-0.07577274
46	0x3e0f3ea1	0.13988735
47	0x3d008b11	0.031382624
48	0x3e41d7dd	0.18930002
49	0x3f1a0c37	0.6017489
50	0x3e3dd34d	0.18537636
51	0x3e573ab8	0.21018493
52	0xbc58b128	-0.013225831
53	0x3d7687b4	0.06018801
54	0x3e7e018b	0.24805276
55	0x3f0361c5	0.5132106
56	0x3f1a2772	0.6021644
57	0x3e93f132	0.28894955
58	0x3e2358a8	0.15951788
59	0x3e163f21	0.1467252

weight_ih_l2 f4 [60, 15]
0	0x3f50ee1d	0.8161333
1	0xbea00d36	-0.3126008
2	0xbef162a4	-0.4714557
3	0x3ee1f52a	0.44132358
4	0x3daba50e	0.08381091
5	0x3f1dfb6a	0.6171175
6	0x3f0ca886	0.54944646
7	0x3e8eeac5	0.2791349
8	0x3f0f05cb	0.55868214
9	0x3d4a6f76	0.049422704
10	0x3d09a830	0.03360766
11	0x3c9b71dd	0.018975193
12	0x3ef282d7	0.47365448
13	0xbf29d4ab	-0.6634013
14	0xbf1b1ca5	-0.60590583
15	0xbdfb3430	-0.12265813
16	0x3e9728f4	0.29523432
17	0xbd7065af	-0.058690723
18	0x3e0a6f52	0.13519028
19	0xbe4c0c4f	-0.1992657
20	0xbb813789	-0.003943388
21	0x3ed29d2f	0.41135547
22	0x3e9b648b	0.30350146
23	0x3e3c471f	0.18386506
24	0xbde75ff0	-0.112975955
25	0xbe74f422	-0.23921254
26	0x3e8546b7	0.26030514
27	0xbe99998b	-0.29999956
28	0xbcbcc3e8	-0.023042634
29	0xbf033269	-0.51248795
30	0xbd67b06c	-0.056564733
31	0x3cfcfedb	0.030883243
32	0xbe0e26da	-0.13882008
33	0xbe03b4a6	-0.1286188
34	0x3e25807a	0.16162291
35	0x3f177ea9	0.59177643
36	0xbd8291c6	-0.0637546
37	0x3c8bee65	0.017081449
38	0xbd9ed8ed	-0.07756219
39	0x3dfcb49e	0.123391375
40	0x3df05d3b	0.11736532
41	0x3e4ca00a	0.19982925
42	0x3df3309a	0.118745044
43	0x3ea4707c	0.3211707
44	0x3d65b40e	0.056079917
45	0x3db176c3	0.0866523
46	0xbe37de3d	-0.17955871
47	0xbe3de0ad	-0.18542738
48	0x3cc0dd2e	0.023542967
49	0xbe383dbb	-0.17992298
50	0xbcc34020	-0.023834288
51	0x3e4eccb5	0.20195277
52	0x3e613601	0.21993257
53	0xbda83094	-0.082123905
54	0xbd7db203	-0.061937343
55	0xbd4ac008	-0.04949954
56	0x3f0b6552	0.5445148
57	0x3ee126d7	0.43974945
58	0xbe932cf3	-0.2874523
59	0xbf61a9b6	-0.88149583
60	0x3e60f39e	0.21967933
61	0x3db24c86	0.08706002
62	0xbe38bf95	-0.18041833
63	0x3ea968f1	0.33087876
64	0xbe17ed58	-0.14836633
65	0x3f0a0ea1	0.5392857
66	0x3c287420	0.010281593
67	0xbe905137	-0.28186962
68	0xbe2f3047	-0.1710826
69	0xbec62683	-0.38701257
70	0xbc3d3390	-0.011547938
71	0x3e9f12c6	0.3106901
72	0x3e891526	0.26773947
73	0x3e162129	0.14661087
74	0xbe7b49d0	-0.24539876
75	0xbe3b8d08	-0.18315518
76	0x3e32e049	0.1746837
77	0x3dc3e234	0.09564629
78	0xbe424b61	-0.18974067
79	0xbe68daba	-0.22739688
80	0xbdba39df	-0.09093069
81	0xbc8e8708	-0.017398372
82	0xbed31e35	-0.41233984
83	0xbeaf25ae	-0.34208435
84	0x3e4a1ab8	0.19736755
85	0x3ea3478b	0.3189052
86	0x3e409e00	0.18810272
87	0xbc2764a5	-0.010216867
88	0x3e897571	0.26847413
89	0xbe5fd671	-0.21859147
90	0x3cff3731	0.031154247
91	0xbdc18102	-0.094484344
92	0xbf81ec32	-1.0150206
93	0x3e90e88a	0.28302413
94	0xbeb22e7e	-0.34801096
95	0x3ecaea9f	0.39632127
96	0x3f34c44f	0.70612043
97	0x3e4d32ec	0.20038956
98	0x3f0ff494	0.5623257
99	0xbf0a69b4	-0.5406754
100	0xbeaca6fb	-0.33721146
101	0x3c2aa9bc	0.010416444
102	0xbc938a3d	-0.018010253
103	0xbf0f1074	-0.5588448
104	0xbfa7e3f7	-1.3116444
105	0x3ea85379	0.32876185
106	0xbc9452f7	-0.018105967
107	0xbf1465a7	-0.5796761
108	0x3e9df416	0.30850285
109	0xbe5d2eed	-0.21599932
110	0xbbc1199e	-0.0058929464
111	0x3f0b2c8f	0.54364866
112	0x3e0e5dd5	0.13902982
113	0x3ea8faf1	0.33003953
114	0xbd4b210a	-0.049592055
115	0xbc9a63e5	-0.018846462
116	0x3e907331	0.28212884
117	0xbe28d59e	-0.16487738
118	0xbeb59285	-0.35463348
119	0xbec57125	-0.38562885
120	0x3eb2aa85	0.3489572
121	0x3e12b3d0	0.14326406
122	0xbe35f437	-0.17768942
123	0xbbb2a191	-0.005451389
124	0x3d07312a	0.03300587
125	0xbe30d323	-0.17268042
126	0x3e924954	0.2857157
127	0xbd795876	-0.06087538
128	0x3ea4b1bd	0.32166854
129	0xbe74020e	-0.23828909
130	0xbdc2d659	-0.0951354
131	0x3f178bca	0.59197676
132	0x3e09a439	0.13441552
133	0xbe97566a	-0.29558116
134	0xbf2997dd	-0.6624735
135	0xbde2e3ff	-0.11078643
136	0x3d8f8ea8	0.070096314
137	0x3e1a95ff	0.15096281
138	0xbe13e35d	-0.14442201
139	0x3dfd2c2b	0.1236194
140	0x3f1ef8d7	0.6209845
141	0x3d938c31	0.07204474
142	0xbef859b0	-0.48505926
143	0xbd9596f5	-0.073041834
144	0x3e6d63b0	0.23182559
145	0xbd815a7c	-0.06316087
146	0xbe39b9bf	-0.18137263
147	0x3e9b6ecc	0.3035797
148	0x3e8270e8	0.25476766
149	0x3e09a20c	0.13440722
150	0x3e653da0	0.2238679
151	0xbe4e0207	-0.20117961
152	0xbf1f27fc	-0.62170386
153	0x3f280862	0.6563779
154	0xbe40b217	-0.18817936
155	0x3dfb4f77	0.12271016
156	0x3f18caeb	0.5968463
157	0x3e926d9a	0.28599244
158	0x3e04a6ea	0.12954298
159	0xbf3e0fc8	-0.7424283
160	0xbdc1f474	-0.09470454
161	0xbcd9b2f7	-0.026574595
162	0xbd7ca83c	-0.06168388
163	0xbedb042b	-0.42776617
164	0xbd96210f	-0.07330524
165	0x3ea9e923	0.33185682
166	0xbced4c03	-0.02896691
167	0xbeaa8995	-0.33308092
168	0x3e9c65bf	0.30546376
169	0xbe671908	-0.22568142
170	0xbe3bce56	-0.1834043
171	0x3ede3517	0.4339988
172	0xbd667de2	-0.056272395
173	0x3e357b2b	0.17722766
174	0xbe52b17e	-0.2057552
175	0x3e224be5	0.15849264
176	0xbd68dd1b	-0.056851488
177	0xbd94aaed	-0.07259164
178	0xbe5cb7ae	-0.21554443
179	0xbd56db42	-0.052455194
180	0x3e7f8f07	0.24956904
181	0xbe20a664	-0.15688473
182	0x3dee5be6	0.11638622
183	0x3e97bc83	0.2963601
184	0xbcf7e004	-0.030258186
185	0x3f4d3d54	0.80171704
186	0x3e9638da	0.2934025
187	0xbebe2820	-0.37139988
188	0x3e9f2b7f	0.31087872
189	0x3db74b83	0.089499496
190	0x3e7a30ac	0.2443263
191	0xbeecb49b	-0.4623154
192	0x3e87000c	0.26367223
193	0x3e271529	0.16316666
194	0x3bf45804	0.0074567813
195	0x3e2e3010	0.17010522
196	0x3e077498	0.1322807
197	0xbf3d9346	-0.74052846
198	0x3eafea54	0.34358466
199	0xbe49ebd0	-0.19718862
200	0x3df48185	0.119387664
201	0x3f8a6f23	1.0815166
202	0x3f0a3b64	0.5399687
203	0x3ed06e74	0.4070927
204	0xbf11f669	-0.5701662
205	0xbed2fa4c	-0.41206586
206	0xbda0848e	-0.07837783
207	0xbe37b926	-0.17941722
208	0xbe54ea6e	-0.20792553
209	0xbf8ed84c	-1.1159759
210	0xbe500e42	-0.20317939
211	0x3e14d3d8	0.14533937
212	0xbc95fb57	-0.018308325
213	0xbe4f4290	-0.20240235
214	0xbe89da52	-0.26924378
215	0x3e9eccfa	0.3101576
216	0x3e1c79d4	0.15280849
217	0xbe0c5776	-0.13705239
218	0xbe69595a	-0.22787991
219	0x3ea53d87	0.32273504
220	0xbe980aa7	-0.29695627
221	0x3e96b667	0.29436037
222	0x3f0b3584	0.54378533
223	0xbe4f1588	-0.20223057
224	0xbd27d50e	-0.04097467
225	0x3e0f9e55	0.14025243
226	0xbd9d7c4d	-0.07689724
227	0xbd6a1125	-0.057145257
228	0x3e9a7b10	0.30172014
229	0x3df0522f	0.11734425
230	0x3f1d18dd	0.61366063
231	0x3e819a76	0.25313157
232	0x3d8932a3	0.06699111
233	0x3debdb61	0.115164526
234	0x3e3efd91	0.18651415
235	0xbd8d883c	-0.0691075
236	0xbc7aae56	-0.015300354
237	0x3e4f0057	0.20214973
238	0xbe325c36	-0.17417988
239	0xbe824cf1	-0.25449327
240	0xbd92b46e	-0.071633205
241	0x3f09d004	0.5383303
242	0x3e2e3cb5	0.17015345
243	0x3d94545b	0.07242652
244	0xbe9eed67	-0.310405
245	0x3cc1d045	0.023658881
246	0xbe916379	-0.28396204
247	0xbd6daad0	-0.058024228
248	0xbe373ae0	-0.17893553
249	0x3ebc50c4	0.3678037
250	0xbe82b5f8	-0.25529456
251	0x3eff3455	0.49844614
252	0xbde4cec3	-0.11172249
253	0x3d8f4282	0.06995107
254	0x3e18be46	0.14916334
255	0xbe8d6fe7	-0.27624437

weight_hh_l2 f4 [60, 15]
0	0xbcca11b4	-0.024666645
1	0x3e8713f3	0.26382408
2	0xbdfc06fe	-0.12306021
3	0xbdb3deb6	-0.08782713
4	0x3f0f4d58	0.5597739
5	0x3e1ea433	0.15492325
6	0x3e159520	0.14607668
7	0xbd41f214	-0.047350004
8	0xbd9dd230	-0.07706106
9	0x3de0f9b3	0.10985126
10	0xbf087ff2	-0.5332023
11	0xbe4f351e	-0.20235106
12	0xbe4d8e66	-0.20073852
13	0xbec06139	-0.37574175
14	0x3e79ed9a	0.24407044
15	0x3e6f2783	0.23354916
16	0x3dd83c6d	0.105584
17	0x3d195d4d	0.037442494
18	0x3d060a22	0.032724507
19	0x3df562ce	0.11981736
20	0xbc3ce584	-0.01152933
21	0xbe52e390	-0.2059462
22	0x3c882a98	0.016621873
23	0xbcacd3d6	-0.021097105
24	0x3e140950	0.14456677
25	0xbd344ecd	-0.044020463
26	0xbe7d24f0	-0.24721122
27	0x3da7e3b1	0.081977256
28	0x3e9ed4c5	0.31021705
29	0x3ddb34d6	0.10703437
30	0x3dbb1a54	0.09135881
31	0xbe9a037c	-0.30080783
32	0x3d9f8195	0.07788388
33	0xbe004b70	-0.12528777
34	0xbd2f3068	-0.042770773
35	0x3e81e91a	0.25373155
36	0xbcfdd859	-0.030986952
37	0x3db90ed5	0.09036032
38	0xbecfb695	-0.40568987
39	0x3dd1d30c	0.10245332
40	0xbe7032d1	-0.23456885
41	0x3e015610	0.12630486
42	0x3dcfbf7f	0.10143947
43	0xbe4b0544	-0.19826227
44	0xbe1d5c71	-0.15367295
45	0x3e66a6f7	0.2252463
46	0xbeb91988	-0.3615229
47	0x3e67d9ed	0.22641726
48	0xbdc0c73e	-0.094130024
49	0x3e66d94a	0.22543827
50	0x3cfc8871	0.03082678
51	0x3dcb3f8d	0.09924231
52	0xbe0a44f3	-0.13502865
53	0xbe714488	-0.23561299
54	0xbe6cbbb9	-0.23118486
55	0xbe464960	-0.19363928
56	0x3eaddac0	0.33955956
57	0xbed10396	-0.40823048
58	0xbc82847f	-0.01593232
59	0xbebe4939	-0.3716524
60	0x3eb84afe	0.35994714
61	0x3da09613	0.078411244
62	0x3d255a25	0.04036917
63	0x3d5b6f99	0.053573225
64	0x3d264f40	0.040602922
65	0xbe2d84c7	-0.16945182
66	0xbdca9178	-0.09891027
67	0x3ebb904f	0.36633536
68	0x3e0e3d65	0.13890608
69	0xbed3f317	-0.413964
70	0xbe5b70cf	-0.21429752
71	0xbd0cdbbd	-0.034389246
72	0xbe8ab83a	-0.2709368
73	0xbdad8147	-0.08471923
74	0xbe455a0b	-0.1927263
75	0x3e1ce7e1	0.1532283
76	0x3e113879	0.14181699
77	0xbc339c18	-0.010962509
78	0xbd2c8768	-0.04212132
79	0xbe073ef8	-0.13207614
80	0x3df1a4b4	0.11798993
81	0x3eb8e468	0.3611176
82	0xbcf91fa8	-0.030410603
83	0x3d4177f8	0.04723355
84	0x3d63f951	0.05565769
85	0xbe9efd9d	-0.31052867
86	0x3cc4d95b	0.024029424
87	0x3dd47051	0.10372985
88	0xbcb301d3	-0.021851456
89	0x3e20b6e2	0.15694764
90	0x3f188d04	0.5959017
91	0xbeacb429	-0.337312
92	0x3e91e320	0.28493595
93	0x3e805ff7	0.25073215
94	0x3ed1b6d7	0.40959808
95	0xbebe15f9	-0.3712614
96	0xbe81187d	-0.25213996
97	0xbdaf7549	-0.08567292
98	0x3e622267	0.22083436
99	0xbf12af8a	-0.572991
100	0xbe9626a0	-0.29326344
101	0x3e255225	0.16144617
102	0xbf325e21	-0.6967488
103	0x3e911011	0.2833257
104	0xbe4d6c8a	-0.20060936
105	0x3d170605	0.036870975
106	0xbe2c6a22	-0.16837361
107	0x3e50cee5	0.20391424
108	0x3e8e1ac6	0.27754802
109	0x3ec02f82	0.37536246
110	0xbe3fee2e	-0.18743202
111	0xbe4f2e6c	-0.20232552
112	0xbe329f9a	-0.17443696
113	0x3e4b5f39	0.19860543
114	0xbd13773a	-0.036002375
115	0xbe0b4c5a	-0.13603345
116	0x3e5fe084	0.2186299
117	0x3c904ad0	0.017613798
118	0x3e04b130	0.12958217
119	0xbead5d75	-0.33860365
120	0x3d8ba77a	0.06819053
121	0x3d96b962	0.07359578
122	0xbdb7c6e6	-0.08973484
123	0x3e369aca	0.17832485
124	0x3e91f3c6	0.28506297
125	0xbdb9d71a	-0.090742305
126	0xbe082081	-0.1329365
127	0x3e10fa90	0.14158082
128	0x3d4a0d09	0.049328838
129	0xbe167384	-0.14692503
130	0xbd8880f0	-0.06665218
131	0xbe40dcb7	-0.18834196
132	0xbe6cdf70	-0.2313211
133	0x3de14b6a	0.11000712
134	0xbe9b5412	-0.30337578
135	0xbe922336	-0.2854249
136	0xbd20e881	-0.039284233
137	0x3e93e73c	0.28887355
138	0xbd9c883d	-0.07643173
139	0x3e41cef4	0.18926603
140	0x38b603ef	8.679169e-05
141	0xbe305677	-0.17220484
142	0xbc4e8eaa	-0.012607256
143	0xbd8a7f73	-0.0676259
144	0x3e2955f9	0.16536702
145	0x3e3b7ae1	0.18308593
146	0x3dc714a0	0.09720731
147	0x3d97ad4d	0.074061014
148	0x3e039b40	0.12852192
149	0x3e54e731	0.20791318
150	0x3d92d30b	0.071691595
151	0x3d9e66bd	0.077344395
152	0x3f2090fa	0.62721217
153	0x3eddddea	0.4333337
154	0x3b06a245	0.0020543498
155	0xbe369c38	-0.1783303
156	0xbef07701	-0.46965793
157	0xbceb9f79	-0.028762566
158	0x3e233ee9	0.15941967
159	0xbeb889ee	-0.36042732
160	0x3c9afd01	0.01891947
161	0x3e51cfad	0.20489378
162	0xbbf0220b	-0.007328277
163	0xbc61169c	-0.013738301
164	0xbee9a507	-0.45633718
165	0xbda64acb	-0.081197344
166	0xbd866602	-0.06562425
167	0x3e023ddc	0.1271891
168	0x3d9467fa	0.072463945
169	0x3e92f675	0.28703657
170	0xbe2f1098	-0.17096174
171	0xbdaf0a8b	-0.08546933
172	0xbe968e05	-0.29405227
173	0xbdfcb0a5	-0.1233838
174	0x3e728135	0.23682101
175	0xbe1c6f5f	-0.1527686
176	0xbd48cd56	-0.04902395
177	0xbdbaaa68	-0.09114534
178	0xbd8381d5	-0.06421248
179	0x3e96da21	0.29463294
180	0xbe98330c	-0.29726446
181	0x3e21d031	0.15802075
182	0xbdeb1918	-0.11479396
183	0xbe0004df	-0.12501858
184	0x3d37a5af	0.044835743
185	0x3d80e602	0.062938705
186	0xbd9b7cf1	-0.0759219
187	0x3ea2d8d7	0.3180606
188	0xbe4d8f7e	-0.20074269
189	0x3eb2e80e	0.3494267
190	0xbebedbd6	-0.37277097
191	0x3e9f8097	0.31152794
192	0x3b95b09f	0.004568174
193	0xbd195165	-0.03743114
194	0x3f2b9eb8	0.6703906
195	0x3e9d4f13	0.3072439
196	0xbd91dc0c	-0.07122049
197	0x3e80dd70	0.25168943
198	0xbdf21421	-0.118202455
199	0x3ea3b35d	0.3197278
200	0xbef4b409	-0.47793606
201	0xbed6383a	-0.41839772
202	0x3e6ed941	0.23325063
203	0xbe596128	-0.21228468
204	0xbe969ef1	-0.29418138
205	0xbe1fff92	-0.15624836
206	0x3eb33f2e	0.3500914
207	0xbf13bfda	-0.5771462
208	0x3e3f66ad	0.18691511
209	0xbe139cc7	-0.14415275
210	0x3d9281ad	0.0715364
211	0xbde3e803	-0.11128237
212	0xbe0d545b	-0.1380171
213	0xbeae2322	-0.3401118
214	0xbe2d2edc	-0.16912407
215	0xbdc9d45c	-0.098549575
216	0xbda073b1	-0.078345664
217	0x3ee445bd	0.44584456
218	0xbf022c07	-0.5084843
219	0xbd808b32	-0.062765494
220	0xbe322965	-0.17398603
221	0x3db4e96e	0.08833586
222	0xbe0a2265	-0.13489683
223	0xbeb0366d	-0.34416524
224	0x3e2aa8ef	0.16666006
225	0xbe110ea8	-0.14165747
226	0x3e82dc00	0.25558472
227	0x3d9e9c6d	0.077446796
228	0xbd583a80	-0.052790165
229	0x3ea48c23	0.32138166
230	0xbdcbfde4	-0.09960535
231	0x3e114cf3	0.1418951
232	0x3e43d482	0.19124034
233	0x3cd12a4e	0.025532868
234	0x3e19e50e	0.15028784
235	0x3d2cc17a	0.0421767
236	0xbcd42dd5	-0.02590076
237	0x3de9c3d9	0.11414308
238	0xbe6405e7	-0.22267877
239	0xbd4eda7b	-0.050501328
240	0x3e1546d8	0.14577806
241	0x3e15da9e	0.14634177
242	0x3d2319f6	0.03981968
243	0x3e5ddb8a	0.21665779
244	0xbdec2777	-0.11530965
245	0xbe4219ec	-0.18955201
246	0x3dba1ceb	0.09087547
247	0x3e58d97a	0.2117671
248	0x3e2d7832	0.16940382
249	0x3e8b7e6a	0.27244884
250	0x3e0417a8	0.12899649
251	0x3e672717	0.22573505
252	0x3cf1d8a0	0.02952224
253	0x3e4e3ae6	0.20139655
254	0x3e6af762	0.22945932
255	0xbe69292a	-0.22769609
