experiments/DT-VAE-GAN_state_increasing_early_peak/saved_model/vae_gan_trained_model.pth (torch, 724530 bytes, 85 tensors)

weight_ih_l0 f4 [8, 2]
0	0x3eabf26b	0.33583388
1	0x3f1d2158	0.61379004
2	0xbf20b731	-0.6277953
3	0xbe07ebb9	-0.13273515
4	0x3e3e22b5	0.18567927
5	0x3d1d6ccb	0.03843383
6	0xbf4068af	-0.75159734
7	0xbf9f5e9e	-1.245075
8	0x3f80c00e	1.005861
9	0x3ea654bb	0.3248652
10	0xbf0ef536	-0.5584291
11	0x3e867861	0.26263717
12	0x3e1a558f	0.150717
13	0x3eca861a	0.39555436
14	0xbea6981f	-0.32537934
15	0xbfa08176	-1.2539508

weight_hh_l0 f4 [8, 2]
0	0xbf6faec1	-0.9362603
1	0x3f2c025b	0.67191094
2	0x3e9414c4	0.28922093
3	0x3f158a37	0.58414024
4	0xbe82dba5	-0.255582
5	0xbe4d0fab	-0.20025508
6	0x3c7b0566	0.015321111
7	0x3f27e30c	0.6558082
8	0xbe506cc0	-0.20353985
9	0xbda11f39	-0.078672834
10	0xbe7456e5	-0.23861273
11	0xbe5b491b	-0.21414606
12	0xbdf1add5	-0.11800734
13	0x3fab6f51	1.3393346
14	0xbe254420	-0.16139269
15	0xbcb04afa	-0.021520127

bias_ih_l0 f4 [8]
0	0x3e1bbf43	0.1520968
1	0xbf1cd73d	-0.6126593
2	0xbeccaa5e	-0.3997373
3	0xbec23bdf	-0.37936303
4	0xbd6a73b2	-0.057239242
5	0x3eb94760	0.36187267
6	0x3f9399ee	1.1531351
7	0xbe37f61b	-0.17964976

bias_hh_l0 f4 [8]
0	0x3f44ea95	0.76920444
1	0x3f32d8f9	0.69862324
2	0x3d6fb605	0.058523197
3	0x3f34512b	0.7043635
4	0x3d8ea3d1	0.06964839
5	0x3f41b8be	0.7567252
6	0x3e168dc9	0.14702524
7	0x3f256173	0.6460182

weight f4 [46, 2]
0	0x3f221bdd	0.63323766
1	0xbf220621	-0.632906
2	0x3f82f5e1	1.0231286
3	0xbebab235	-0.36464086
4	0x3f9d828a	1.2305462
5	0xbefd33cb	-0.49453577
6	0xbf00794c	-0.50185084
7	0xbf1dfe2c	-0.6171596
8	0x3c4f1544	0.012639347
9	0x3efdbdbf	0.49558827
10	0xbe51978d	-0.20467968
11	0xbeed09fb	-0.46296677
12	0xbecb9084	-0.39758694
13	0xbee20999	-0.44147947
14	0xbe9d37b2	-0.30706555
15	0xbebc5b60	-0.36788464
16	0x3ebe4bed	0.37167302
17	0xbee7883a	-0.4522112
18	0xbf1affdf	-0.6054668
19	0xbe1f31d1	-0.15546347
20	0x3e9f0ea0	0.31065845
21	0xbf3a26bd	-0.7271536
22	0xbec5d020	-0.3863535
23	0x3e78e00c	0.24304217
24	0x3ea87684	0.3290292
25	0x3e2bbc41	0.16771032
26	0x3f777a19	0.9667068
27	0x3e12d494	0.14338905
28	0x3f6d8e79	0.9279552
29	0xbf1f2423	-0.62164515
30	0xbf616825	-0.88049537
31	0x3e4ff8de	0.20309779
32	0xbeb24eeb	-0.34825835
33	0x3ddfc308	0.10925871
34	0xbf903ba5	-1.1268202
35	0x3f22a5e4	0.6353438
36	0xbf9bf888	-1.2185221
37	0x3ebd2bc5	0.36947456
38	0x3f736442	0.95074856
39	0xbf1b071c	-0.60557723
40	0xbdada4f3	-0.08478727
41	0x3f0e01c4	0.55471444
42	0xbe6c5c69	-0.23082127
43	0x3e8056d1	0.25066236
44	0xbed23e9c	-0.41063392
45	0xbece41d1	-0.4028459
46	0x3efc33dc	0.49258316
47	0xbf3fd42a	-0.7493311
48	0x3eedb703	0.4642869
49	0x3eb45eec	0.3522867
50	0x3f650106	0.89454687
51	0xbea1ca58	-0.3159969
52	0xbf63fe03	-0.89059466
53	0x3f07736c	0.52910495
54	0x3f23e0aa	0.64014685
55	0x3f16a452	0.5884448
56	0x3f00f4b4	0.5037339
57	0x3ddd479a	0.108046725
58	0xbc8c88b8	-0.017155036
59	0x3ee36e13	0.44419917
60	0xbf781fc2	-0.9692346
61	0x3f18f96a	0.59755576
62	0xbd9fd079	-0.07803435
63	0xbed22156	-0.41041058
64	0xbef79313	-0.48354396
65	0xbeb914f8	-0.3614881
66	0xbf93c9e0	-1.1545982
67	0x3d247f36	0.04016038
68	0x3f537340	0.8259773
69	0xbd89480f	-0.06703197
70	0x3ed2b21d	0.41151515
71	0xbf182334	-0.59428716
72	0xbf8e00ae	-1.1093957
73	0x3e8f0e66	0.27940673
74	0xbe60e3ca	-0.21961895
75	0x3eeaac49	0.45834568
76	0xbe201cba	-0.15635958
77	0x3f0f1c72	0.5590278
78	0xbf812c32	-1.0091612
79	0x3f18eaac	0.5973308
80	0x3f998085	1.1992346
81	0x3e1eae71	0.15496232
82	0xbe8276b3	-0.25481185
83	0xbf0494ea	-0.51789725
84	0x3f38c621	0.7217732
85	0x3db89f9e	0.090148196
86	0x3e91d05e	0.28479284
87	0x3f324055	0.6962941
88	0x3f6fc947	0.936665
89	0xbef072d3	-0.46962604
90	0x3ee6bc0a	0.45065337
91	0xbf2bd067	-0.6711487

bias f4 [46]
0	0x3eb33675	0.35002485
1	0x3eb5bcf7	0.3549573
2	0x3e3f9ec6	0.18712911
3	0x3e12986f	0.14315961
4	0xbc894f97	-0.016761584
5	0xbe9006a4	-0.28130066
6	0xbe3def41	-0.185483
7	0x3f0f0122	0.55861104
8	0xbf2334b8	-0.6375232
9	0x3e4a5014	0.1975711
10	0x3f105af2	0.5638877
11	0xbf1c5ffd	-0.61083966
12	0x3e79c34b	0.24390905
13	0x3ead7e05	0.33885208
14	0xbf2db386	-0.67852056
15	0x3f0f4d71	0.5597754
16	0xbe9a3254	-0.30116522
17	0xbd9f0d50	-0.07766211
18	0xbcaf61ae	-0.021408882
19	0x3efec391	0.4975858
20	0x3ef36075	0.47534528
21	0xbf015cbf	-0.50532144
22	0xbf09aac3	-0.53776187
23	0x3ed1ac59	0.40951803
24	0xbf29fa52	-0.66397583
25	0xbd62fb2c	-0.055415317
26	0x3f1ebe13	0.6200878
27	0x3eddeddb	0.43345532
28	0x3ea289df	0.31745812
29	0xbf06faef	-0.52726644
30	0xbe8a7acd	-0.27046815
31	0xbe55d1d5	-0.20880826
32	0xbef3f830	-0.4765029
33	0x3e93caeb	0.28865752
34	0xbecc98b3	-0.3996025
35	0x3e2a468b	0.16628473
36	0xbcdca331	-0.026933284
37	0x3f23c15a	0.63966906
38	0x3df7e6e9	0.121045895
39	0xbf211eb4	-0.62937474
40	0x3e45f7d0	0.19332814
41	0x3f31798d	0.69326097
42	0xbdfcd26b	-0.123448215
43	0xbdeff1f1	-0.117160685
44	0x3f06524d	0.5246933
45	0xbd9e77e2	-0.077377096

weight_ih_l0 f4 [60, 46]
0	0x3d61727e	0.05504083
1	0x3e099948	0.13437378
2	0xbe22a483	-0.15883069
3	0xbb4a2620	-0.0030845478
4	0xbda35e01	-0.07976914
5	0xbe4e8c08	-0.20170605
6	0xbb41a345	-0.002954678
7	0x3e05b401	0.13056947
8	0x3dc504f1	0.09620083
9	0x3ebc6080	0.36792374
10	0x3e79b000	0.24383545
11	0xbdf569a2	-0.119830385
12	0xbdf41ac5	-0.119191684
13	0xbe21cc17	-0.1580051
14	0xbea3c47f	-0.31985852
15	0x3e9ed297	0.31020042
16	0x3d9ad0e6	0.075593755
17	0x3e434220	0.19068193
18	0x3ecac498	0.39603114
19	0xbc3e3da2	-0.011611374
20	0x3e8af1fd	0.27137747
21	0xbc82adeb	-0.015952071
22	0xbde451de	-0.111484274
23	0xbdb43ff0	-0.088012576
24	0xbea0d7a6	-0.31414527
25	0xbea00d8c	-0.31260335
26	0xbd71c78d	-0.059028197
27	0xbe57ec02	-0.21086124
28	0x3e2eba21	0.1706319
29	0xbdcbe899	-0.09956474
30	0xbc127fec	-0.008941632
31	0xbe53ed25	-0.20695932
32	0x3e5eaf46	0.21746549
33	0x3e43bde6	0.1911541
34	0xbe71741d	-0.2357945
35	0xbe9ce8fc	-0.30646503
36	0x3ed72ac0	0.42024803
37	0xbe2cc1a2	-0.1687074
38	0x3e2bb7c4	0.1676932
39	0x3e73a176	0.23792061
40	0x3e32721a	0.17426339
41	0x3bfc296e	0.0076953685
42	0xbd8cdf65	-0.068785466
43	0xbe72be59	-0.23705424
44	0x3e57dc22	0.21080068
45	0x3e050b17	0.12992512
46	0x3e3f6f37	0.18694769
47	0x3d98792a	0.07444985
48	0x3e98e70d	0.29863778
49	0xbdf523ca	-0.11969717
50	0x3d4a3c88	0.049374133
51	0xbe8ce50c	-0.275185
52	0x3dd178fc	0.10228154
53	0x3d7600bd	0.060059298
54	0xbe043e38	-0.1291436
55	0xbe54b453	-0.20771913
56	0x3db10df7	0.08645242
57	0xbe361e1a	-0.1778492
58	0x3e0b100c	0.1358034
59	0xbe099292	-0.13434818
60	0xbe1b8e21	-0.15190937
61	0xbcf1ffc2	-0.0295409
62	0xbe2a6dfc	-0.16643518
63	0x3d883df1	0.066524394
64	0x3d971080	0.07376194
65	0x3e757944	0.2397204
66	0x3d9ee64c	0.077587694
67	0xbe3c3bef	-0.18382238
68	0xbe6c59ba	-0.23081103
69	0xbdff735c	-0.12473175
70	0xbe8efb0f	-0.27925918
71	0xbe551cad	-0.2081172
72	0x3c9e3f42	0.019317273
73	0xbe1f4c26	-0.15556392
74	0x3e0c5f9d	0.13708349
75	0xbdb118a8	-0.08647281
76	0xbe945c0b	-0.28976473
77	0x3e267edd	0.16259332
78	0xbe9fc3fe	-0.31204218
79	0x3c5b3922	0.013380321
80	0x3de5cd3d	0.11220787
81	0x3c9a3dfb	0.018828383
82	0xbc70af68	-0.014690258
83	0xbd5086a6	-0.05090966
84	0xbe1f6682	-0.15566447
85	0xbe473c90	-0.19456697
86	0xbe00ca58	-0.12577188
87	0x3e9372e1	0.28798583
88	0xbe075f45	-0.13219936
89	0xbda93c36	-0.082634374
90	0x3ea7477d	0.3267173
91	0xbd003336	-0.03129884
92	0x3c34e3a0	0.011040598
93	0xbdd6d4d6	-0.10489814
94	0x3da7314a	0.08163698
95	0x3e342215	0.17591126
96	0x3e3cb58f	0.18428634
97	0xbe8d28ed	-0.27570286
98	0xbe8b73e0	-0.27236843
99	0x3d98cd01	0.074609764
100	0xbdf2579f	-0.11833119
101	0xbc1617b2	-0.009160923
102	0x3dd4daa5	0.10393266
103	0xbe26f0e1	-0.16302826
104	0x3e34e411	0.17665125
105	0xbe241efb	-0.16027443
106	0xbe0ded1a	-0.13859978
107	0xbde9ee92	-0.11422457
108	0xbcfbf27b	-0.030755272
109	0xbe0c7382	-0.13715938
110	0x3db693ac	0.08914885
111	0x3e2bdb82	0.16782954
112	0x3d2c77d8	0.04210648
113	0xbe6a17f9	-0.22860707
114	0xbd63f428	-0.055652767
115	0x3e69178e	0.22762892
116	0x3e15b2ca	0.14618984
117	0xbe6920dc	-0.22766441
118	0x3e1d9249	0.15387835
119	0xbe199a3f	-0.15000246
120	0x3d7b9fca	0.061431684
121	0xbe99b843	-0.30023393
122	0xbe55dba1	-0.20884563
123	0xbe64da67	-0.22348939
124	0x3dae9a1e	0.08525489
125	0x3e511f28	0.20422041
126	0xbe9862c0	-0.2976284
127	0xbd95ec07	-0.07320409
128	0x3da0ae79	0.07845778
129	0x3e9fc778	0.3120687
130	0xbd2de013	-0.042450022
131	0xbe82869c	-0.25493324
132	0x3e2d8126	0.16943797
133	0xbe331188	-0.17487156
134	0x3da6050b	0.081064306
135	0xbe6c6ff3	-0.2308958
136	0x3d64745e	0.05577504
137	0xbe231051	-0.15924193
138	0x3da02ad6	0.0782067
139	0x3e6d3857	0.23166023
140	0xbe380641	-0.17971136
141	0xbf05076a	-0.5196444
142	0x3ee629e5	0.44953838
143	0xbf057a81	-0.5214005
144	0xbe71f784	-0.23629576
145	0x3e21f1b7	0.15814863
146	0xbf291435	-0.6604646
147	0x3e97c1c0	0.29640007
148	0x3ed82bec	0.4222101
149	0xbe7f37b7	-0.24923597
150	0x3e0596cf	0.1304581
151	0x3ec0e854	0.37677252
152	0xbf0d4191	-0.5517817
153	0x3e8a030e	0.26955456
154	0xbdc2ea44	-0.09517339
155	0x3e850fcd	0.25988618
156	0xbd06610e	-0.032807402
157	0x3ee47803	0.44622812
158	0x3e3c8ef6	0.1841391
159	0xbeb260af	-0.3483939
160	0xbe5a44e0	-0.21315336
161	0x3db18f53	0.08669915
162	0xbe803e82	-0.2504769
163	0xbe31cca0	-0.17363214
164	0x3f0addb9	0.5424457
165	0x3e836c04	0.25668347
166	0x3e8239b7	0.25434658
167	0xbece3044	-0.402712
168	0xbe6849f4	-0.22684461
169	0xbe8deb0d	-0.27718392
170	0xbf1bd9dd	-0.6087931
171	0xbd4927a9	-0.04911009
172	0xbe31dc34	-0.17369157
173	0xbe963865	-0.293399
174	0x3e1fe19a	0.15613404
175	0x3e25108e	0.16119596
176	0x3e540653	0.20705537
177	0xbee329bc	-0.44367778
178	0xba9f5b03	-0.0012157861
179	0x3f21f286	0.63260686
180	0xbe2a7249	-0.16645159
181	0x3de21822	0.11039759
182	0x3ef24ad8	0.47322726
183	0xbe922a08	-0.28547692
184	0x3c80fb1f	0.015744744
185	0x3dab608b	0.083680235
186	0xbe8b1e17	-0.27171394
187	0x3db106ec	0.08643898
188	0x3de10380	0.10986996
189	0x3dc985e7	0.09839993
190	0x3de95b6b	0.1139439
191	0x3e0167ca	0.12637249
192	0xbeaf428c	-0.3423046
193	0x3d4c3428	0.049854428
194	0x3e0b8e70	0.13628554
195	0x3d76405b	0.060119968
196	0x3db9492b	0.09047159
197	0xbe0685bb	-0.13136952
198	0xbe939d79	-0.2883108
199	0xbdb5b3ba	-0.08872171
200	0xbe66a18c	-0.22522563
201	0x3e7d0bae	0.24711487
202	0x3e128ec5	0.14312275
203	0xbdfb1fa0	-0.12261891
204	0x3df92a93	0.121663235
205	0xbd588e55	-0.052870113
206	0xbe138925	-0.14407785
207	0x3d141351	0.036151234
208	0x3c1f50cc	0.009723853
209	0xbe2477d1	-0.16061331
210	0x3e0df73e	0.13863847
211	0xbe011e06	-0.1260911
212	0x3d804ef4	0.06265059
213	0xba030f37	-0.00049995206
214	0x3e97cb97	0.29647514
215	0xbe651009	-0.22369398
216	0xbe2927c1	-0.16519071
217	0xbd553394	-0.05205114
218	0xbec3ccae	-0.38242096
219	0xbc1726e0	-0.009225577
220	0x3efb005b	0.4902371
221	0x3be87ea4	0.007095175
222	0x3ddd8816	0.10816972
223	0xbba5a9bf	-0.0050556357
224	0x3e80744b	0.25088724
225	0xbe0887e9	-0.13333096
226	0xbd168cb7	-0.03675529
227	0xbe17d651	-0.14827849
228	0xbe0dc03d	-0.13842864
229	0xbe25b9b1	-0.16184117
230	0xbd576f52	-0.052596398
231	0x3e5f9cf8	0.21837223
232	0xbdce8b0d	-0.100851156
233	0x3d366550	0.044530213
234	0x3ec37a4b	0.3817924
235	0xbed9ffd3	-0.4257799
236	0xbe9c781d	-0.3056039
237	0x3e92bd3c	0.2866
238	0xbe53718f	-0.20648788
239	0x3d910336	0.070806906
240	0x3ec68a2f	0.387773
241	0xbde1eced	-0.11031518
242	0x3e8edc95	0.27902666
243	0xba9f12b3	-0.001213631
244	0xbea797d5	-0.32733026
245	0x3ebf5a26	0.37373465
246	0xbeaa5665	-0.3326904
247	0x3dddd656	0.10831897
248	0xbcfa08c4	-0.030521758
249	0x3da6c698	0.081433475
250	0x3e1e8aa2	0.15482572
251	0xbd056ca0	-0.032574296
252	0xbe5b41f0	-0.21411872
253	0x3e675d97	0.22594295
254	0xbe4c9510	-0.19978738
255	0xbe861200	-0.26185608

weight_hh_l0 f4 [60, 15]
0	0x3e831296	0.25600117
1	0x3d4daa47	0.050211217
2	0xbe5787e3	-0.2104793
3	0x3f033360	0.5125027
4	0x3c53d651	0.012929515
5	0xbe32c0eb	-0.17456405
6	0xbe650f75	-0.22369178
7	0xbe0dcfb9	-0.13848771
8	0xbe41b1f7	-0.18915544
9	0xbe451e0c	-0.19249743
10	0xbe9bb63b	-0.30412468
11	0x3db9cf3f	0.09072732
12	0xbe21a7cf	-0.1578667
13	0xbe5f1063	-0.21783595
14	0xbe3ee845	-0.18643291
15	0xbd421b1d	-0.04738914
16	0x3d353b0a	0.044245757
17	0x3e72f703	0.2372704
18	0xbe90533b	-0.281885
19	0x3e640d62	0.2227073
20	0x3e43c630	0.19118571
21	0xbeb152a3	-0.3463336
22	0x3e7bff7b	0.24609177
23	0xbe2d26e7	-0.16909371
24	0xbd0cd35d	-0.03438126
25	0x3e28e9cc	0.16495436
26	0xbcc4a36d	-0.024003709
27	0xbec551b2	-0.3853889
28	0xbe9b2f38	-0.30309463
29	0xbe81b93c	-0.25336635
30	0xbe59a5a1	-0.21254589
31	0xbc9fc328	-0.019502237
32	0x3e03de48	0.12877762
33	0x3e61bcaa	0.22044626
34	0x3e6d9d4c	0.23204535
35	0x3df9c820	0.12196374
36	0xbdfec9bf	-0.12440824
37	0x3e355566	0.17708358
38	0xbd42629d	-0.047457326
39	0xbe80c415	-0.251496
40	0x3e3a21f8	0.1817702
41	0x3ca09d85	0.019606361
42	0xbd568b18	-0.052378744
43	0x3ea1f71f	0.3163385
44	0xbeb12e8c	-0.34605825
45	0xbedfd1ef	-0.43714854
46	0x3e30ffd8	0.17285097
47	0x3e1c3020	0.15252733
48	0x3e998a0d	0.29988137
49	0x3e64369f	0.22286461
50	0x3f02cd2e	0.5109433
51	0xbe4f84a2	-0.20265439
52	0x3ecc720a	0.39930755
53	0x3e072aa3	0.13199858
54	0xbf0b83e1	-0.54498106
55	0xbdd67638	-0.10471767
56	0x3e27fb75	0.16404517
57	0xbf266cdc	-0.65009856
58	0xbe264a5b	-0.16239302
59	0xbec707ee	-0.38873237
60	0xbcae7763	-0.021297162
61	0x3d435fac	0.04769866
62	0x3e1b7e70	0.15184951
63	0x3d9129f1	0.07088078
64	0x3d80db39	0.062918134
65	0x3d2c92a7	0.042132046
66	0x3d8a1095	0.06741444
67	0xbcd6ee63	-0.026236719
68	0x3e808ebe	0.25108904
69	0xbd039ad1	-0.032130066
70	0xbe8c3f10	-0.27391863
71	0x3d0ceee5	0.034407515
72	0x3db37608	0.08762747
73	0xbe61330a	-0.21992126
74	0xbe88e75b	-0.2673901
75	0xbde0c0a1	-0.10974241
76	0xbd3dab46	-0.046305917
77	0xbe8a52ee	-0.27016395
78	0xbe466687	-0.19375049
79	0xbe4f26b8	-0.20229614
80	0x3e863563	0.26212606
81	0xbd8f9a51	-0.070118554
82	0xbe006f1d	-0.12542386
83	0x3e769cf7	0.24083315
84	0xbdabbc72	-0.083855525
85	0x3e8f7dd1	0.28025678
86	0xbe76cc8d	-0.24101467
87	0x3e0aa9f5	0.13541396
88	0x3e30288d	0.17202969
89	0xbe543b4f	-0.2072575
90	0xbeef4a8d	-0.46736565
91	0x3e8f595a	0.27997857
92	0x3eb44a86	0.35213107
93	0x3eb1e942	0.34748274
94	0x3e788f99	0.24273528
95	0x3ef95814	0.4870001
96	0xbe024b6f	-0.12724088
97	0x3ed3fb6a	0.4140275
98	0x3e72384a	0.23654285
99	0xbef0a6fe	-0.47002405
100	0x3c408664	0.011750791
101	0x3e8c04cc	0.2734741
102	0x3bb734c5	0.0055910074
103	0x3e9301d0	0.2871232
104	0xbeba0ae7	-0.36336443
105	0x3cd6b3c4	0.026208766
106	0x3df0ca2f	0.117573135
107	0x3d196f20	0.037459493
108	0x3d2c652c	0.042088673
109	0x3e3f3f51	0.18676497
110	0x39ae2d93	0.00033221822
111	0xbe556fda	-0.20843449
112	0x3d865cb8	0.065606534
113	0xbba6fe0d	-0.005096203
114	0xbe962c19	-0.2933052
115	0xbea0f18c	-0.31434286
116	0x3e1d00a4	0.15332276
117	0x3db55503	0.08854105
118	0x3c88918d	0.016670967
119	0x3d09003d	0.033447493
120	0xbe866063	-0.26245412
121	0xbcfee344	-0.031114228
122	0xbe63d1de	-0.22248027
123	0xbc54a3bb	-0.0129784895
124	0xbcfe5bf5	-0.031049708
125	0x3e6e6a33	0.232827
126	0x3e82d872	0.2555576
127	0x3d099358	0.033587784
128	0xbcbc448c	-0.022981904
129	0xbed271bc	-0.41102397
130	0x3e8e72b8	0.27821898
131	0x3dc15949	0.09440858
132	0x3df0a4af	0.11750161
133	0x3e92b91d	0.28656855
134	0xbdb3e32f	-0.08783566
135	0xbdb8f6a4	-0.09031418
136	0x3ef98929	0.48737457
137	0xbe767ecd	-0.24071808
138	0xbe3cc6e9	-0.18435253
139	0xbdc25e1f	-0.094906084
140	0x3df6b1da	0.12045641
141	0x3e938d32	0.2881866
142	0xbd182701	-0.037146572
143	0xbe6096f8	-0.2193259
144	0xbe26f3ba	-0.16303912
145	0xbe30b81f	-0.17257737
146	0x3d1b639a	0.037936784
147	0x3ea3526f	0.3189883
148	0x3ea22844	0.31671345
149	0xbc1fa760	-0.009744495
150	0xbf309452	-0.6897632
151	0x3e66f79b	0.22555391
152	0x3bbaaf96	0.005697201
153	0x3e9bc282	0.30421835
154	0x3eb70ad3	0.35750446
155	0x3e875894	0.26434767
156	0x3dbdce4a	0.09267862
157	0x3e24bbaa	0.16087213
158	0x3e3f2cc7	0.18669425
159	0xbf0a6730	-0.540637
160	0xbe1bc0ff	-0.15210341
161	0x3e1d5676	0.15365013
162	0x3e9a5b0c	0.30147588
163	0x3e4bb56f	0.1989343
164	0xbe83245b	-0.25613675
165	0x3c7ae2f9	0.015312904
166	0x3e2674d5	0.16255505
167	0xbe6c1bad	-0.23057432
168	0xbdac5d13	-0.0841619
169	0xbd728df5	-0.059217412
170	0x3e1feb20	0.15617037
171	0xbe9db526	-0.30802268
172	0x3da2a4b6	0.07941572
173	0x3b982104	0.0046426076
174	0x3e6608af	0.2246425
175	0x3d95ae5f	0.07308649
176	0xbdda8603	-0.10670092
177	0xbeb10de9	-0.34580925
178	0xbeb3936a	-0.35073406
179	0x3d23d6c4	0.03999974
180	0xbdac8ace	-0.084249124
181	0xbe711313	-0.23542432
182	0xbda9ccf2	-0.08291043
183	0x3dd9e006	0.10638432
184	0xbe489069	-0.19586338
185	0xbd83424b	-0.06409129
186	0xbe858e15	-0.26084962
187	0x3d7c3866	0.061577223
188	0x3cd2c7b9	0.02573
189	0xbe1e5b56	-0.1546453
190	0xbe123048	-0.1427623
191	0xbefa7465	-0.48916927
192	0xbe308fef	-0.17242406
193	0xbf0ddb78	-0.5541301
194	0x3e1d084c	0.15335196
195	0x3e76dfab	0.2410876
196	0xbebd1a53	-0.36934146
197	0x3d8bc076	0.068238184
198	0xbdef1aa9	-0.11675007
199	0xbe432abd	-0.19059272
200	0xbe5ce00e	-0.21569845
201	0x3db389d6	0.087665245
202	0xbe9af4ad	-0.30264798
203	0x3e0b89b6	0.13626751
204	0x3e2599c8	0.16171944
205	0x3e2dd0a6	0.16974124
206	0x3d134d2c	0.03596227
207	0xbde055a6	-0.10953836
208	0x3e06dca8	0.13170111
209	0xbe9b51a8	-0.30335736
210	0xbe6f8a3b	-0.23392574
211	0xbe848a82	-0.25886923
212	0xbdc11925	-0.09428624
213	0xbdc4f3de	-0.096168265
214	0xbdf8ab92	-0.121420994
215	0x3d5a5f47	0.05331352
216	0x3e289c54	0.16465884
217	0x3e2438ac	0.16037244
218	0xbc940cbc	-0.018072478
219	0xbe40b71e	-0.18819854
220	0xbeec8137	-0.46192333
221	0xbdb242fa	-0.08704181
222	0x3e46e49b	0.19423144
223	0x3cbac4e4	0.022798963
224	0xbe2b37f5	-0.16720565
225	0x3dca3b39	0.09874577
226	0x3deb4033	0.114868544
227	0x3d26cc68	0.04072228
228	0x3e8fb603	0.2806855
229	0x3e0d99f2	0.13828257
230	0xbdb0ad62	-0.0862682
231	0xbe08252b	-0.13295428
232	0xbd41ed91	-0.0473457
233	0xbe3d63f2	-0.18495157
234	0xbc8c090d	-0.01709416
235	0xbe035ebd	-0.12829109
236	0xbd2eaf7e	-0.04264783
237	0xbe8402fb	-0.25783524
238	0xbdc67191	-0.0968963
239	0x3d2dd203	0.04243661
240	0xbcc673fb	-0.024225226
241	0x3df68110	0.120363355
242	0x3e28490d	0.16434117
243	0xbe0f5532	-0.13997343
244	0x3de7e69e	0.113232836
245	0xbe8af623	-0.27140912
246	0xbe3cdcc6	-0.18443593
247	0xbda6c53c	-0.08143088
248	0xbd7e2a75	-0.06205221
249	0xbe3898f5	-0.18027098
250	0x3a63ff9a	0.00086974504
251	0xbcaeea9a	-0.021352101
252	0xbeaee87a	-0.3416174
253	0x3de50b5e	0.11183809
254	0xbe295b3d	-0.16538711
255	0x3d48fbf0	0.04906839

bias_ih_l0 f4 [60]
0	0xbd68fd09	-0.056881938
1	0x3e9ced8b	0.3064998
2	0x3da74371	0.0816716
3	0x3f07275a	0.5279442
4	0x3dbc88fb	0.092058145
5	0x3ec71ffb	0.38891587
6	0x3ec0db23	0.37667188
7	0x3c1bb5a2	0.009503754
8	0x3e27b6c0	0.16378307
9	0xbdca75f8	-0.09885782
10	0x3e71d028	0.23614562
11	0x3d3a0e2e	0.04542368
12	0xbe86755e	-0.2626142
13	0xbc9b2810	-0.018940002
14	0xbd0b3ca3	-0.033993375
15	0xbe40f0a5	-0.18841799
16	0xbe202f06	-0.15642938
17	0xbd8a8cc2	-0.06765129
18	0xbe2e54f9	-0.17024602
19	0xbe747b10	-0.2387507
20	0xbdca599f	-0.09880375
21	0x3de379e3	0.111072324
22	0xbca00c8c	-0.019537233
23	0x3e8f1160	0.27942944
24	0xbaefe067	-0.001830113
25	0xbcf88845	-0.030338416
26	0xbe280f8f	-0.16412185
27	0x3ea2cfda	0.31799203
28	0x3e94d3fb	0.29067978
29	0xbd39a722	-0.045325406
30	0xbdd4a864	-0.103836805
31	0x3e848f3b	0.25890526
32	0x3e250de9	0.16118588
33	0x3e15e38d	0.14637585
34	0x3d13d337	0.036090102
35	0x3d628753	0.055304836
36	0x3df4498a	0.11928089
37	0x3e1df38a	0.15424934
38	0x3d2ee1b0	0.0426957
39	0xbe1f7a87	-0.15574084
40	0xbdcc8f09	-0.09988219
41	0x3e22bc59	0.15892161
42	0x3e7cc553	0.24684648
43	0x3e5bf5a1	0.21480419
44	0xbe852aae	-0.26009125
45	0x3c35d941	0.011099161
46	0xbd590fe6	-0.052993678
47	0xbd3279c6	-0.043573163
48	0x3e8f3feb	0.27978453
49	0xbdce025d	-0.100590445
50	0x3df5075d	0.11964295
51	0x3e4abcc0	0.19798565
52	0xbc8be605	-0.017077455
53	0x3e536504	0.20644003
54	0x3ebbbfd4	0.3666979
55	0x3e9cbed5	0.30614343
56	0x3e60dade	0.21958491
57	0xbd90f8e2	-0.07078721
58	0xbd872b2e	-0.06600033
59	0x3e7e8604	0.2485581

bias_hh_l0 f4 [60]
0	0xbe36169a	-0.1778206
1	0x3e5f206f	0.21789716
2	0xbdeaff91	-0.11474527
3	0x3e535a0a	0.20639816
4	0x3d81b339	0.06333012
5	0x3ea02fce	0.31286472
6	0x3ed831f0	0.422256
7	0x3e59440e	0.21217367
8	0x3ecf2ce9	0.4046395
9	0xbdf1135a	-0.11771269
10	0x3e21d70f	0.15804695
11	0x3e0c00b7	0.13672148
12	0x3e2b897d	0.16751666
13	0x3def2d4f	0.11678564
14	0xbbef0a72	-0.0072949464
15	0xbe66e4df	-0.22548245
16	0xbe9f1c7d	-0.31076422
17	0xbc8d7491	-0.017267497
18	0x3e81a238	0.25319076
19	0xbdb1a73f	-0.08674478
20	0x3e5b4b5b	0.21415465
21	0x3df9de51	0.122006066
22	0xbe6e3a0f	-0.23264335
23	0x3eaa156d	0.33219472
24	0x3e509258	0.20368326
25	0xbe5e9280	-0.21735573
26	0x3d548546	0.051884912
27	0xbdcd05d2	-0.10010876
28	0x3d1139f0	0.035455644
29	0xbd9b021d	-0.075687625
30	0xbd870840	-0.065933704
31	0x3df7cbc0	0.12099409
32	0x3e062304	0.13099295
33	0xbe647b3f	-0.2231264
34	0xbe2df8bc	-0.16989416
35	0x3dfc3fd0	0.12316859
36	0xbd016b40	-0.031596422
37	0x3e01b7ab	0.1266772
38	0x3ea3c8ac	0.31989038
39	0xbe997999	-0.29975584
40	0xbe1660a5	-0.14685304
41	0x3e3e8758	0.18606317
42	0xbddcd6f3	-0.10783186
43	0xbdba1b2e	-0.09087215
44	0x3e292205	0.16516884
45	0x3e56a559	0.20961513
46	0x3e67d8cf	0.226413
47	0x3e30b0ec	0.1725499
48	0x3ea819f1	0.32832292
49	0x3d808c15	0.062767185
50	0xbdade944	-0.084917575
51	0x3e5550d5	0.20831616
52	0xbddd75c6	-0.10813479
53	0xbdc69d77	-0.09698003
54	0x3e38fcee	0.18065235
55	0x3e8f152a	0.27945834
56	0xbcb317b9	-0.021861898
57	0x3e705b61	0.23472358
58	0x3e6734e9	0.22578777
59	0x3ea6ecc2	0.32602507

weight_ih_l1 f4 [60, 15]
0	0xbdfe8423	-0.12427547
1	0xbe29a2b4	-0.16565973
2	0xbe44d5b6	-0.19222149
3	0x3e86eb34	0.2635132
4	0xbcd8f53f	-0.02648413
5	0x3e8bf795	0.27337328
6	0x3ea2e7de	0.31817526
7	0xbd8901d9	-0.066898055
8	0xbdb30422	-0.08741023
9	0x3db1a537	0.0867409
10	0xbd50f4a9	-0.051014576
11	0x3e201f9e	0.15637061
12	0xbe76ea2e	-0.2411277
13	0xbe8caa5e	-0.2747373
14	0x3d93daa5	0.072194375
15	0x3d9544e2	0.07288529
16	0x3e67be30	0.22631145
17	0xbd7a7e52	-0.061155625
18	0xbe5f30e8	-0.21796
19	0xbbf3d012	-0.0074405754
20	0x3ddd23b3	0.10797825
21	0x3dda82f6	0.1066951
22	0x3e15fcfa	0.14647284
23	0x3ec4d636	0.3844468
24	0x3dfd9946	0.1238275
25	0xbf1a6d2b	-0.6032283
26	0x3daabaae	0.083363876
27	0xbf261d19	-0.6488815
28	0xbe780b06	-0.24222955
29	0xbe9eab52	-0.30990082
30	0xbe898784	-0.26861203
31	0x3eb8b223	0.36073408
32	0x3df67e2a	0.12035783
33	0x3ed77b39	0.420862
34	0x3e6ceabd	0.2313642
35	0x3e401f09	0.18761839
36	0x3ea4516a	0.32093364
37	0x3eacd1c0	0.33753777
38	0x3e5a2918	0.21304739
39	0xbe36bfc0	-0.17846584
40	0xbd9f1145	-0.07766966
41	0x3e679142	0.22614005
42	0xbd078e8e	-0.033094935
43	0x3eac134f	0.3360848
44	0xbea1d918	-0.31610942
45	0xbe6b753e	-0.22993943
46	0x3e129277	0.14313684
47	0x3dbe3778	0.092879236
48	0x3eb6a3d9	0.3567188
49	0x3f1212cd	0.5705994
50	0x3f0dbe23	0.5536825
51	0x3ed67ce9	0.41892174
52	0x3e01d028	0.12677062
53	0x3e4b14fa	0.1983222
54	0xbea7d3f6	-0.327789
55	0xbee23734	-0.44182742
56	0xbc0203a2	-0.007935436
57	0xbe3e4365	-0.18580396
58	0x3dec22a9	0.115300484
59	0xbe019ad8	-0.12656724
60	0xbf155e4c	-0.5834701
61	0xbc9b6fc9	-0.018974202
62	0x3ec20e7a	0.3790167
63	0xbc8e9f81	-0.017410042
64	0x3ec0d8d9	0.37665442
65	0x3f12ec11	0.5739146
66	0x3df58133	0.119875334
67	0x3ea4ae3b	0.32164177
68	0x3edd2158	0.43189502
69	0xbf013515	-0.5047162
70	0x3e1ab14f	0.151067
71	0xbe973cdb	-0.29538617
72	0xbe482233	-0.19544296
73	0x3d6f8628	0.05847755
74	0xbeea564f	-0.45768973
75	0xbf2c0443	-0.67194
76	0x3f0c52fb	0.5481412
77	0xbe3b016e	-0.18262264
78	0x3edb1550	0.42789698
79	0x3ec631c3	0.3870984
80	0x3f079b5b	0.5297143
81	0x3f0b1327	0.543261
82	0x3e823f41	0.25438884
83	0x3db593b3	0.08866062
84	0xbf185b20	-0.59514046
85	0xbe65eb09	-0.2245294
86	0x3e436294	0.19080573
87	0xbd075604	-0.033041015
88	0xba788ddc	-0.0009481588
89	0xbf21b038	-0.63159513
90	0xbd93d089	-0.07217509
91	0x3d28d4ce	0.04121857
92	0xbe2912ef	-0.16511129
93	0x3e53b02b	0.20672671
94	0x3d3f710f	0.04673868
95	0x3e1303a6	0.1435686
96	0xbd12ed9e	-0.03587114
97	0x3e27878b	0.163603
98	0x3e3e0d84	0.18559843
99	0xbe194a49	-0.14969744
100	0xbe3523dd	-0.17689462
101	0xbe261998	-0.162207
102	0x3e3a6a20	0.18204546
103	0x3e94bfa3	0.29052457
104	0xbb77df93	-0.003782247
105	0xbde72d63	-0.11287954
106	0x3e672d05	0.22575767
107	0xbd95a943	-0.07307675
108	0x3f0177c7	0.5057339
109	0x3e5493ad	0.20759459
110	0xbd4d7500	-0.050160408
111	0x3ed0939d	0.4073762
112	0x3d6146b4	0.05499907
113	0xbc401746	-0.011724299
114	0xbe8fe25e	-0.28102392
115	0xbe2a00ae	-0.16601822
116	0x3ed54269	0.4165223
117	0xbe76cb6f	-0.24101041
118	0x3e3e55d5	0.1858743
119	0xbe32d2b2	-0.17463186
120	0xbeb2e8b0	-0.3494315
121	0x3e9d0271	0.30665925
122	0xbd03f5db	-0.032216888
123	0xbe41fe9c	-0.18944782
124	0x3eaab0e5	0.33338085
125	0x3f238fe4	0.63891435
126	0x3c3fcbba	0.011706287
127	0x3ea2e597	0.31815788
128	0x3eb5ac7f	0.35483167
129	0xbf36f1e6	-0.7146286
130	0x3e2ec131	0.17065884
131	0xbe0371a7	-0.12836324
132	0x3c816f19	0.015800046
133	0xbe503618	-0.20333135
134	0xbee60806	-0.44927996
135	0xbe96db24	-0.29464066
136	0x3ed1d784	0.40984738
137	0x3ea1c5f3	0.31596336
138	0x3e763d85	0.24046905
139	0x3e1d035a	0.1533331
140	0x3e9c51ab	0.30531058
141	0x3eec4b59	0.46151236
142	0x3d678e24	0.05653204
143	0x3ef4606d	0.47729817
144	0xbecbb51c	-0.39786613
145	0xbdd0d7d3	-0.10197415
146	0xbe5fbd41	-0.21849538
147	0xbdf623d9	-0.12018556
148	0x3e6bc002	0.23022464
149	0xbe8e71ec	-0.2782129
150	0xbedfd59f	-0.43717667
151	0x3e7b7d6d	0.24559565
152	0xbddfebde	-0.1093366
153	0x3ec8d7fc	0.39227283
154	0x3e676c2c	0.22599858
155	0x3ed70ab8	0.42000365
156	0xbdb0dc89	-0.08635814
157	0x3d3d427a	0.046205975
158	0x3e03f31d	0.12885709
159	0xbe33fdfc	-0.17577356
160	0x3f25486c	0.6456363
161	0x3e82c41b	0.25540242
162	0x3d8f08a0	0.06984067
163	0xbda0de98	-0.078549564
164	0xbf02ffd5	-0.5117162
165	0xbe64db31	-0.2234924
166	0x3de0ff1a	0.10986157
167	0xbc8eb02d	-0.017417992
168	0xbc2ede36	-0.010673096
169	0xbd966331	-0.07343138
170	0xbdb2ddbd	-0.087336995
171	0x3e4170a5	0.18890627
172	0xbcd4e4ef	-0.02598807
173	0x3d1ab84a	0.037773408
174	0xbc0b152f	-0.008488937
175	0xbea4d4a3	-0.3219348
176	0x3e2c72d8	0.16840684
177	0xbeadf109	-0.33972958
178	0x3e25213c	0.16125959
179	0x3c21fea7	0.009887374
180	0x3c20ea9e	0.009821562
181	0x3e98a865	0.29815975
182	0x3ea14037	0.31494305
183	0x3d1752c3	0.036944162
184	0x3dae47e5	0.085098065
185	0x3ec73d73	0.3891407
186	0xbe8b6743	-0.2722722
187	0xbd340f55	-0.043959934
188	0x3e714df4	0.23564893
189	0xbe342fc0	-0.1759634
190	0x3ef3c27a	0.4760931
191	0x3eda6e94	0.4266249
192	0x3c20b719	0.009809279
193	0x3e66b369	0.22529377
194	0xbe83ead7	-0.25765106
195	0xbf667da6	-0.90035474
196	0x3e6d1082	0.23150828
197	0x3ef7604c	0.48315656
198	0xbec30b3c	-0.3809451
199	0x3f381401	0.71905524
200	0x3f3067d1	0.6890841
201	0xbdcfdf13	-0.1014997
202	0x3df5df73	0.1200551
203	0x3d9436e0	0.07237029
204	0xbf2f25fd	-0.6841734
205	0xbd8fae18	-0.070156276
206	0x3df7a03c	0.12091109
207	0xbe0794ee	-0.13240406
208	0x3e8bba57	0.27290604
209	0xbec0960a	-0.3761447
210	0x3af8c6fc	0.00189802
211	0xbe9edc9d	-0.3102769
212	0x3ea160eb	0.31519255
213	0xbea2e93f	-0.31818578
214	0x3ebf3a0d	0.37348977
215	0xbd51aecf	-0.0511921
216	0xbe6dc444	-0.232194
217	0xbca38d5f	-0.019964872
218	0x3e53fbce	0.20701525
219	0x3dbbe2f7	0.091741495
220	0x3ec23b64	0.37935936
221	0xbd9e9ee5	-0.077451505
222	0xbcb31ece	-0.021865275
223	0x3c37b6e6	0.01121304
224	0xbe979b7e	-0.2961082
225	0xbdf0c630	-0.11756551
226	0xbd0375aa	-0.032094635
227	0xbe092627	-0.1339346
228	0xbe0d081e	-0.13772628
229	0xbd5711ec	-0.052507326
230	0x3e1dff70	0.15429473
231	0x3e84d2bb	0.25942025
232	0xbe15db13	-0.14634351
233	0x3e6e2913	0.23257856
234	0xbe278d33	-0.16362457
235	0xbe948934	-0.29010928
236	0xbe0934b0	-0.13399005
237	0xb97db172	-0.00024194064
238	0xbdd2626e	-0.1027268
239	0xbe237186	-0.15961275
240	0x3e333b71	0.17503144
241	0xbded085f	-0.11573862
242	0xbebb2d3c	-0.3655795
243	0xbd3758cd	-0.04476242
244	0xbc5b16c5	-0.013372128
245	0x3bd3ab00	0.006459594
246	0x3ec897af	0.39178225
247	0xbe16142a	-0.1465613
248	0xbe7ddc65	-0.24791105
249	0xbd9212c8	-0.071324885
250	0xbef6fa81	-0.48237994
251	0x3bd546d9	0.00650869
252	0xbeb427fa	-0.3518675
253	0x3c58010d	0.013183844
254	0x3dcad345	0.09903578
255	0x3d4e281e	0.050331227

weight_hh_l1 f4 [60, 15]
0	0xbe88a4f5	-0.26688352
1	0xbe90e6e8	-0.28301167
2	0xbe926e1d	-0.28599635
3	0xbcd251be	-0.025673743
4	0x3e7f2e98	0.24920118
5	0x3e8e3da3	0.277814
6	0xbecc615c	-0.3991803
7	0x3e3980af	0.18115495
8	0xbd4463ea	-0.047946848
9	0xbe9d485b	-0.30719265
10	0xbe075c43	-0.13218789
11	0xbe7b13ea	-0.24519315
12	0x3e4ee4f9	0.20204534
13	0x3e87f9ca	0.2655776
14	0xbe9605fd	-0.29301444
15	0xbe8cd891	-0.27508977
16	0xbdac25b7	-0.08405631
17	0x3bb0b9a8	0.0053932257
18	0x3e44dac1	0.19224073
19	0xbdce3c96	-0.100701496
20	0xbdab58fa	-0.0836658
21	0x3e7c35f3	0.24629955
22	0x3de3b387	0.111182265
23	0xbe3b8971	-0.18314148
24	0xbd24cf30	-0.040236652
25	0xbd34f027	-0.04417434
26	0xbeac73d4	-0.3368212
27	0x3ebe04fa	0.37113172
28	0x3e0afd4e	0.1357319
29	0xbed47546	-0.41495723
30	0xbe40bfb7	-0.18823133
31	0x3dac455f	0.08411669
32	0x3d60652f	0.054783996
33	0xbe80c67d	-0.25151435
34	0xbd0ed480	-0.034870625
35	0x3e3a52b6	0.18195614
36	0xbe56a2ef	-0.20960592
37	0xbe5282a3	-0.20557646
38	0x3dbf53d4	0.09342161
39	0xbe07c388	-0.13258183
40	0xbdc615cc	-0.09672126
41	0xbe1f7e41	-0.15575506
42	0xbdf36ba0	-0.11885762
43	0x3e51e38c	0.20496958
44	0xbe148e89	-0.14507498
45	0xbd67d644	-0.056600824
46	0xbd8932cf	-0.06699144
47	0xbec3ad5d	-0.38218203
48	0x3ec5b8c3	0.38617525
49	0xbefedf8b	-0.49779925
50	0x3ef7fc58	0.4843471
51	0x3ccd943b	0.025095096
52	0xbf107cc9	-0.5644041
53	0xbb068d14	-0.0020530866
54	0xbe9f790e	-0.31147045
55	0xbe555f98	-0.20837247
56	0xbde07c4e	-0.10961209
57	0x3ddaa6e8	0.10676366
58	0xbe5a0be0	-0.21293592
59	0xbd94f57e	-0.072733864
60	0xbec04eed	-0.37560216
61	0xbdc6b319	-0.09702129
62	0xbea9349f	-0.3304796
63	0xbda5e86b	-0.08100971
64	0x3e363b9b	0.17796175
65	0x3ecbacf1	0.3978038
66	0xbea700ac	-0.326177
67	0x3ccbaf47	0.024863852
68	0x3e08ea21	0.13370563
69	0xbdfbb7c0	-0.12290907
70	0xbf0f26f9	-0.5591884
71	0x3e01550b	0.12630098
72	0x3f1cb34e	0.612111
73	0x3ed12a21	0.40852454
74	0xbf10485c	-0.5636041
75	0xbd5c87be	-0.05384039
76	0x3dc85720	0.09782243
77	0xbbb13573	-0.005407983
78	0x3e83645a	0.256625
79	0x3dfb2b98	0.12264174
80	0x3e9fd5a1	0.31217673
81	0xbee369a8	-0.44416547
82	0x3b135d3f	0.0022486
83	0x3e462e0d	0.19353504
84	0x3d950a11	0.07277311
85	0xbec7fc7a	-0.39059812
86	0xbe763625	-0.24044092
87	0xbc975675	-0.018473843
88	0xbcd2832c	-0.025697313
89	0xbeb65ad9	-0.35616186
90	0xbd7843f6	-0.060611688
91	0x3d8dfbde	0.069328055
92	0x3e0e295e	0.13882968
93	0xbe869612	-0.2628637
94	0x3de01f07	0.10943418
95	0xbe63464b	-0.22194783
96	0xbdd6fe17	-0.104976825
97	0x3e82039c	0.2539338
98	0xbe75f7db	-0.2402033
99	0x3e8de3e8	0.2771294
100	0xbe0640dc	-0.1311068
101	0x3d261398	0.04054603
102	0x3e6b4d48	0.22978699
103	0xbd4f2b76	-0.050578557
104	0xbe363ae3	-0.17795901
105	0x3de28384	0.11060241
106	0xbdb8e230	-0.09027517
107	0x3e05e747	0.13076507
108	0xbe79dd4b	-0.24400823
109	0xbe991ca9	-0.29904678
110	0x3e40ec62	0.18840173
111	0xbec771a8	-0.389539
112	0x3e68b0f3	0.22723751
113	0xbc53a8d6	-0.012918672
114	0x3e137021	0.14398243
115	0xbe1f2a6c	-0.15543526
116	0xbd9a2ea0	-0.07528424
117	0xbddca222	-0.10773112
118	0x3dacc576	0.084361
119	0xbe9d969c	-0.30778968
120	0xbeedcd65	-0.46445766
121	0xbebda5f7	-0.37040684
122	0xbea12d7e	-0.3148002
123	0x3be2dd6a	0.0069233673
124	0xbd8d8ba5	-0.06911401
125	0x3e4fbaff	0.20286177
126	0xbe634b16	-0.22196612
127	0xbe513aa3	-0.20432524
128	0xbcbfeea1	-0.023429217
129	0xbe8cf503	-0.2753068
130	0xbf0ff168	-0.5622773
131	0xbe8feb25	-0.2810909
132	0x3ea382cb	0.31935725
133	0x3e89e0f2	0.26929432
134	0xbe3009ee	-0.17191288
135	0xbd72009b	-0.05908261
136	0xbdcfbb33	-0.10143127
137	0xbea418a1	-0.3205004
138	0x3cb8a1a5	0.022538016
139	0x3df00f7d	0.11721704
140	0x3e46c7b9	0.19412126
141	0x3dd8cf8c	0.105864614
142	0x3d3bd52e	0.0458576
143	0xbaa2ec8b	-0.0012430114
144	0xbd4ef208	-0.050523788
145	0xbeacf198	-0.3377807
146	0xbe5d6a5c	-0.21622604
147	0x3ef21971	0.47285035
148	0x3ddf1cc0	0.108941555
149	0xbf0d64b9	-0.55231816
150	0xbdf2b818	-0.11851519
151	0xbe846d04	-0.25864422
152	0xbec850ae	-0.39124054
153	0xbde949e7	-0.11391049
154	0x3d86dfd0	0.065856576
155	0x3eb482c2	0.3525601
156	0xbefbff44	-0.4921819
157	0x3d57b564	0.052663222
158	0xbdc253a2	-0.09488608
159	0x3dfbfa6f	0.12303626
160	0x3dec439d	0.11536334
161	0xba10d594	-0.00055249897
162	0x3e67b38a	0.22627082
163	0x3e9f1afe	0.3107528
164	0xbd5f8fde	-0.05458056
165	0xbe82a2c0	-0.25514793
166	0xbe0f5a6a	-0.13999334
167	0xbe196325	-0.14979227
168	0xbe0af710	-0.1357081
169	0xbde9898c	-0.11403188
170	0xbe0cfb32	-0.13767698
171	0xbe1d68d5	-0.15372021
172	0x3e6fdcb3	0.23424034
173	0x3d9e70ac	0.07736334
174	0xbc5dad7d	-0.013530132
175	0x3d65eac2	0.056132086
176	0x3da64cc7	0.08120113
177	0x3e3c6d88	0.18401158
178	0x3dee91e4	0.1164892
179	0xbea9e2ed	-0.33180943
180	0xbe8b3a0f	-0.27192733
181	0x3b4a4e5b	0.0030869457
182	0x3dcb8f90	0.09939492
183	0xbe4407b0	-0.19143558
184	0xbe6c10f7	-0.23053347
185	0x3e3be2a8	0.18348181
186	0x3d64a656	0.055822693
187	0xbe604c01	-0.21903993
188	0xbd28604a	-0.041107453
189	0xbe576206	-0.21033487
190	0x3d91aaf8	0.07112688
191	0xbe97726b	-0.2957948
192	0x3e928cf8	0.28623176
193	0x3da70f82	0.08157255
194	0x3e99209d	0.29907694
195	0xbdb9fa15	-0.090809025
196	0xbe5cf5f1	-0.21578194
197	0xbf3d2cb0	-0.7389631
198	0x3e4470aa	0.19183603
199	0xbe458ddc	-0.19292396
200	0x3f0f43a6	0.559626
201	0x3ecee141	0.4040623
202	0xbefce59e	-0.49393934
203	0xbde7d4c7	-0.11319881
204	0xbeb6d251	-0.35707334
205	0xbe9d84f5	-0.307655
206	0xbee094f4	-0.43863642
207	0xbd3a6d74	-0.04551454
208	0x3e1d4508	0.15358365
209	0xbe1a9341	-0.15095235
210	0xbe02d8f3	-0.12778072
211	0xbdcd1d98	-0.1001541
212	0xbdec1e1a	-0.11529179
213	0x3f01f173	0.5075905
214	0xbc34b2ed	-0.011028987
215	0x3e59a711	0.21255137
216	0xbd55b421	-0.052173737
217	0xbeae3166	-0.34022063
218	0xbe3cff02	-0.18456653
219	0xbe8c6e01	-0.27427676
220	0xbebfbb81	-0.37447742
221	0xbe9b7ec5	-0.30370155
222	0x3e862abf	0.26204488
223	0x3df01f0f	0.11724674
224	0xbda286df	-0.07935881
225	0xbe58e9ff	-0.21183012
226	0x3deda446	0.11603598
227	0xbdbcc0da	-0.09216471
228	0xbd298ddf	-0.041395064
229	0x3d91de7d	0.071225144
230	0xbdcc802d	-0.09985385
231	0xbea93cf5	-0.3305432
232	0xbe10c93b	-0.14139263
233	0x3e887d2d	0.26658002
234	0xbe8652db	-0.2623509
235	0xbe5b2a27	-0.21402799
236	0x3e64323a	0.22284785
237	0x3e7fb31f	0.24970673
238	0xbc50afad	-0.012737197
239	0xbe5d0760	-0.21584845
240	0xbe2f8a14	-0.17142516
241	0xbddba75d	-0.107252814
242	0xbd5471ce	-0.051866345
243	0x3d7391a2	0.05946506
244	0x3d175b34	0.036952212
245	0xbe606653	-0.21914034
246	0x3db18969	0.08668787
247	0xbd9484c0	-0.072518826
248	0x3dae36d4	0.085065514
249	0x3e421139	0.18951882
250	0x3b16080f	0.0022892987
251	0x3d83b0e2	0.06430222
252	0x3e4c43ef	0.1994779
253	0x3b94f8be	0.004546254
254	0xbc84ea09	-0.016224878
255	0xbe815118	-0.25257182

bias_ih_l1 f4 [60]
0	0x3e63fed9	0.22265185
1	0x3daed7f1	0.08537281
2	0x3e3a73dc	0.1820826
3	0x3ecf641a	0.4050606
4	0x3ea5d701	0.32390597
5	0x3e92aae7	0.28646013
6	0xbd2fa380	-0.042880535
7	0x3e8bb603	0.272873
8	0x3f2bbd38	0.670856
9	0x3e537ae9	0.20652355
10	0x3e8d0f89	0.27550915
11	0xbc1324b0	-0.008980915
12	0x3df9c594	0.12195888
13	0x3edc6137	0.4304292
14	0x3ecfd616	0.40593022
15	0x3e9a7e21	0.30174354
16	0xbe487802	-0.1957703
17	0xbe63d294	-0.22248298
18	0xbd4c516d	-0.04988234
19	0xbe6a68a9	-0.22891487
20	0xbdb4bd86	-0.08825211
21	0xbdcd3d84	-0.10021499
22	0xbcd4e42c	-0.025987707
23	0xbe6c3cab	-0.23070018
24	0xbe1ad4bb	-0.15120213
25	0x3e9c71be	0.30555528
26	0x3e33e559	0.17567958
27	0x3d970983	0.07374861
28	0xbd4f453e	-0.050603144
29	0x3bad642f	0.005291484
30	0xbd9386c7	-0.07203441
31	0x3e42dd1c	0.19029659
32	0xbe070a98	-0.13187635
33	0xbdc9bd55	-0.09850565
34	0x3d48cf27	0.04902568
35	0x3e1f21b1	0.15540196
36	0xbe53c916	-0.20682177
37	0xbe4acc67	-0.19804536
38	0x3d2f9ce9	0.04287425
39	0xbd991a0e	-0.07475673
40	0xbe4d3667	-0.20040284
41	0xbe5a2bfc	-0.21305841
42	0x3cb51d79	0.02210878
43	0xbd44c1be	-0.04803633
44	0xbdcdeccf	-0.10054933
45	0xbe27c2bb	-0.16382878
46	0xbd78b869	-0.060722742
47	0xbd5cfcc0	-0.05395198
48	0x3e4ce43d	0.20008941
49	0x3e8c99b0	0.27461004
50	0x3c1a381f	0.009412794
51	0x3c75cacd	0.015001965
52	0x3e9bf5c6	0.30460948
53	0x3ed0ab5a	0.4075573
54	0x3e2156c7	0.15755759
55	0x3e09e07a	0.13464537
56	0x3e13e0cb	0.1444122
57	0x3db9099c	0.09035036
58	0x3e82217d	0.25416175
59	0x3d06328c	0.03276305

bias_hh_l1 f4 [60]
0	0x3e4f9082	0.20269969
1	0x3e9f04ce	0.31058353
2	0x3ecf1d32	0.40451962
3	0x3e6a776b	0.22897117
4	0x3f23dd87	0.640099
5	0x3e6fb4a0	0.23408747
6	0xbe6fb674	-0.23409444
7	0x3b1fe038	0.002439512
8	0x3f24e618	0.64413595
9	0x3d8b493b	0.06801077
10	0x3f137328	0.5759759
11	0xbdcf3aaa	-0.10118611
12	0x3dfdc5ff	0.123912804
13	0x3ec42f00	0.38317108
14	0x3b8062da	0.003918034
15	0xbe09ad2b	-0.13444965
16	0xbe2453bf	-0.16047572
17	0x3dc6790f	0.09691059
18	0xbd5088ca	-0.050911702
19	0x3d5080e2	0.050904162
20	0xbde9a37c	-0.11408135
21	0x3d10d836	0.035362445
22	0xbc91141b	-0.017709782
23	0x3dc984c4	0.09839776
24	0x3e0a9cf2	0.13536432
25	0x3e91ebd1	0.28500226
26	0xbe179270	-0.14801955
27	0x3da581d0	0.080814004
28	0xbeb0f8e8	-0.345649
29	0xbd929707	-0.071577124
30	0xbe9e7d76	-0.30955094
31	0xbe6f6c4e	-0.23381159
32	0xbe8da2e1	-0.2766333
33	0x3d7c99d4	0.06167014
34	0x3d5c3d19	0.053769205
35	0x3e9131b3	0.2835823
36	0x3d1b32f5	0.037890393
37	0xbe499390	-0.19685197
38	0x3c41c4c9	0.011826702
39	0x3d6988fa	0.057015397
40	0xbec00faf	-0.37511966
41	0x3dba0420	0.09082818
42	0x3e5d2298	0.21595228
43	0xbe3f339b	-0.1867203
44	0xbdb65ddd	-0.08904622
45	0x3e4ab281	0.19794656
46	0x3ead995b	0.33906063
47	0xbd9bc943	-0.07606747
48	0x3d1312dc	0.035906658
49	0x3e09548d	0.1341116
50	0x3ceb8c4e	0.028753426
51	0x3e839989	0.25703076
52	0x3e9b1670	0.30290556
53	0x3f368cbf	0.7130851
54	0x3ce6f432	0.028192613
55	0x3e43b683	0.19112591
56	0x3d3d06a9	0.04614893
57	0x3e764ef4	0.24053556
58	0x3ec584f1	0.3857799
59	0x3ea6bcb0	0.32565832

weight_ih_l2 f4 [60, 15]
0	0x3e12a487	0.14320575
1	0x3e1962f3	0.14979152
2	0x3d9052ff	0.0704708
3	0xbab6fa6a	-0.0013960127
4	0x3df668cf	0.120317094
5	0xbe00bd4d	-0.12572213
6	0xbe6c1f82	-0.23058894
7	0x3e2241b2	0.15845373
8	0x3ec22c15	0.37924257
9	0xbe8292ff	-0.25502774
10	0x3e9e1d75	0.3088185
11	0xbde47f10	-0.11157048
12	0xbda62fe7	-0.081146054
13	0x3e48938e	0.19587538
14	0x3e951f49	0.2912543
15	0xbd85b797	-0.065291576
16	0x3ebdcf5d	0.37072268
17	0x3e782d09	0.2423593
18	0xbe170e73	-0.14751606
19	0x3e73608b	0.23767297
20	0xbe819e06	-0.25315875
21	0x3c3fef98	0.011714838
22	0x3ec27d82	0.3798638
23	0xbb8ceb62	-0.0043005208
24	0x3c82fe98	0.01599054
25	0xbd6c726d	-0.057726312
26	0x3e51ac89	0.20475973
27	0xbe5cdf90	-0.21569657
28	0x3cec18c4	0.028820403
29	0xbe28601d	-0.16442914
30	0xbe8c114b	-0.27356943
31	0xbeb1f682	-0.34758383
32	0xbeb93bc7	-0.3617842
33	0x3d8a5e84	0.06756309
34	0xbe7d86c5	-0.24758442
35	0x3e7986b8	0.24367797
36	0xbd2e140f	-0.042499598
37	0xbef8013d	-0.48438445
38	0xbd50cf80	-0.050979137
39	0xbdce0a5a	-0.10060568
40	0x3d22f675	0.03978582
41	0xbe8d5ae6	-0.27608413
42	0x3ef4fe1f	0.4785013
43	0x3c8baf5e	0.017051395
44	0xbe5b0077	-0.21386896
45	0xbe5aa014	-0.21350127
46	0x3de2e2f9	0.11078448
47	0xbe49dc9b	-0.1971306
48	0x3e0e2803	0.13882451
49	0xbed79693	-0.42107067
50	0x3efe8c42	0.49716383
51	0x3da49d1e	0.0803778
52	0xbe9eb219	-0.30995253
53	0xbe00d643	-0.12581734
54	0xbec4f514	-0.3846823
55	0xbf121bbe	-0.5707358
56	0xbe82d166	-0.25550383
57	0x3ee74ae7	0.45174333
58	0x3e404a18	0.18778265
59	0xbe998edc	-0.29991806
60	0x3dcd7b84	0.10033324
61	0xbda5dc16	-0.08098619
62	0xbec28f39	-0.37999895
63	0xbe831ee9	-0.2560952
64	0xbe62e2db	-0.22156851
65	0x3dd2021e	0.1025431
66	0xbe5eee75	-0.21770652
67	0x3cf18a67	0.02948494
68	0x3f072d0d	0.5280312
69	0x3d9d8995	0.07692257
70	0xbdcb016d	-0.09912381
71	0xbe0f642f	-0.14003061
72	0xbd85b5ab	-0.06528791
73	0x3da400ec	0.08007988
74	0x3eef98fa	0.467964
75	0xbe14b545	-0.14522274
76	0xbd435c4d	-0.047695447
77	0xbedbb17d	-0.4290885
78	0x3e635b54	0.22202808
79	0x3d856e22	0.06515147
80	0x3d7a82da	0.061159946
81	0x3db5a739	0.08869786
82	0xbe722550	-0.23647046
83	0xbe96017d	-0.2929801
84	0xbd9cc81d	-0.07655356
85	0x3ca71261	0.020394506
86	0x3e1bc8b8	0.15213287
87	0x3ccf99a7	0.025341822
88	0x3df472a7	0.11935931
89	0xbea39ad4	-0.31954062
90	0x3cac897c	0.021061651
91	0x3d6954d1	0.056965653
92	0xbc43c7c6	-0.011949485
93	0xbd67d0d3	-0.056595635
94	0x3e573327	0.21015607
95	0xbdce35a3	-0.10068824
96	0x3e865fcb	0.2624496
97	0x3d4a38e4	0.04937066
98	0x3d863e78	0.06554884
99	0x3ecdbd7c	0.40183628
100	0xbdc486d8	-0.09596032
101	0x3efd66a0	0.4949236
102	0xbd72aef4	-0.05924888
103	0xbd9f4e05	-0.07778553
104	0xbdb6e5d0	-0.08930552
105	0xbd47aec4	-0.048750654
106	0xbe784d49	-0.24248232
107	0xbebc0de6	-0.36729354
108	0xbeba233c	-0.36355007
109	0xbf1b704e	-0.6071824
110	0x3ed3fda1	0.4140444
111	0x3e3bf24d	0.18354149
112	0xbeab92d3	-0.33510455
113	0x3e10b701	0.1413231
114	0xbec65046	-0.3873312
115	0xbd9696b5	-0.07352964
116	0x3d8b8475	0.068123735
117	0x3e17d197	0.14826046
118	0xbe00795f	-0.125463
119	0x3e7c435e	0.24635074
120	0x3d621748	0.055197984
121	0x3e582c09	0.21110548
122	0x3c5f6b42	0.013636412
123	0xbec8d7af	-0.39227054
124	0xbd103048	-0.035202295
125	0xbd0ef21e	-0.03489887
126	0xbd2c2788	-0.042029887
127	0x3d10bba5	0.0353352
128	0xbe57e973	-0.21085148
129	0x3db716b9	0.08939881
130	0xbed8529a	-0.4225052
131	0x3e22b54b	0.1588947
132	0x3ef8d6b9	0.4860132
133	0x3ea5ec8d	0.32407036
134	0xbe637be0	-0.22215223
135	0xbe3406d5	-0.17580731
136	0xbea1af7b	-0.31579193
137	0xbf1697cd	-0.5882538
138	0xbe359f0e	-0.17736456
139	0xbf2aade6	-0.666716
140	0x3e95068e	0.29106563
141	0x3e9aaf6d	0.30211964
142	0xbede80e0	-0.434577
143	0xbe5b114a	-0.21393314
144	0xbe3106a5	-0.17287691
145	0x3da2e4b8	0.07953781
146	0xbe893a4d	-0.26802292
147	0x3e8dcdc3	0.27696046
148	0xbd832055	-0.06402651
149	0xbd451d13	-0.04812343
150	0xbe2ae992	-0.16690663
151	0x3d9ac1fe	0.07556532
152	0xbe68324a	-0.22675434
153	0xbf0a4082	-0.5400468
154	0x3d4ffc93	0.050777983
155	0x3ead7485	0.3387796
156	0xbe8c6603	-0.2742158
157	0x3da9751b	0.08274289
158	0xbe2a8415	-0.16651948
159	0xbe0d5d46	-0.13805112
160	0xbe1e3991	-0.15451647
161	0xbd8251fc	-0.063632935
162	0x3e7bb948	0.24582398
163	0x3f1c8965	0.6114715
164	0xbe598da2	-0.21245435
165	0xbe332c22	-0.17497304
166	0x3e952e17	0.29136726
167	0x3dc23532	0.094828025
168	0xbede1a68	-0.4337952
169	0x3e438ff9	0.1909789
170	0x3e4e7300	0.20161057
171	0x3e4a0703	0.19729237
172	0xbe8667fb	-0.26251206
173	0xbebc2889	-0.36749676
174	0x3d408409	0.04700092
175	0x3b30e9f8	0.0026994925
176	0x3e459031	0.19293286
177	0xbd0694c3	-0.032856714
178	0x3e6e4eda	0.23272267
179	0xbd4e20b9	-0.050324176
180	0x3dce6b12	0.10079016
181	0xbeb880c6	-0.36035746
182	0xbe8f67b2	-0.280088
183	0xbe90ba93	-0.28267345
184	0xbe83c339	-0.2573488
185	0x3e4f0327	0.20216046
186	0x3d8e05c1	0.06934691
187	0x3d552137	0.05203363
188	0xbdf1be7f	-0.11803912
189	0xbe885f5e	-0.2663526
190	0xbda47c16	-0.0803148
191	0xbe661035	-0.2246712
192	0x3dfd0fcd	0.123565294
193	0xbe691c68	-0.22764742
194	0x3e626dbf	0.22112177
195	0xbeda814a	-0.42676765
196	0xbe477aa5	-0.19480379
197	0xbe3f2650	-0.18666959
198	0x3cf6e390	0.030137807
199	0xbd8aba00	-0.06773758
200	0x3e74d4cd	0.23909302
201	0x3d83b3be	0.064307675
202	0xbe8c1fc7	-0.27367994
203	0xbea14855	-0.31500497
204	0xbe8a1f1c	-0.2697686
205	0x3c8e6f49	0.01738705
206	0xbddecfa2	-0.108794466
207	0x3e9dcdac	0.30820978
208	0xbc17c79c	-0.009263899
209	0xbcec1ee1	-0.028823318
210	0xbd37d2b2	-0.04487867
211	0x3eb30fad	0.34972897
212	0x3e782d08	0.24235928
213	0xbdfd65cf	-0.12372934
214	0x3e387f57	0.18017326
215	0xbe8bdd33	-0.273172
216	0xbe930aed	-0.28719273
217	0x3e244486	0.16041765
218	0xbe3f06bd	-0.18654914
219	0x3d6909c0	0.056894064
220	0x3ed2cee0	0.41173458
221	0xbbf3e292	-0.007442781
222	0xbdb9436e	-0.09046064
223	0xbcda393e	-0.026638623
224	0x3e99257e	0.29911417
225	0x3cd034fa	0.025415886
226	0x3b354887	0.0027661638
227	0x3e1844be	0.14869973
228	0x3cbd0289	0.023072498
229	0x3da6e43a	0.081489995
230	0xbe44d120	-0.192204
231	0xbe585727	-0.21126996
232	0xbd4bcf1a	-0.049758054
233	0x3ea70813	0.32623348
234	0xbe82b94d	-0.25531998
235	0x3e98ac9b	0.29819188
236	0xbe723501	-0.23653032
237	0xbe2fadf0	-0.17156196
238	0xbe1133ed	-0.14179964
239	0x3d8d4c50	0.06899321
240	0x3e2b7c4b	0.16746633
241	0xbe08ea52	-0.13370636
242	0x3eae992a	0.3410123
243	0xbe0d35e6	-0.13790092
244	0x3e10b874	0.14132863
245	0xbe623776	-0.22091469
246	0xbd18cde0	-0.037305713
247	0x3e0db55b	0.13838713
248	0x3ddbd4b0	0.10733926
249	0x3ea5bfa3	0.3237277
250	0x3ebd48de	0.36969656
251	0x3e42a283	0.19007306
252	0xbe547031	-0.20745923
253	0x3e3fd84b	0.18734853
254	0x3d323e67	0.043516543
255	0x3e9f93b3	0.31167373
